app/ml_models/Clustering/output/rgcn_classification_model.pt (torch, 798606 bytes, 16 tensors)

embeddings.student.weight f4 [128, 3]
0	0x3f20e95d	0.62856084
1	0x3ecc0460	0.39847088
2	0xbd9b48b6	-0.07582228
3	0x3f091e6e	0.53562057
4	0xbe366a1e	-0.17813918
5	0x3df7961b	0.12089177
6	0xbeb894b7	-0.3605096
7	0x3eb4f4b2	0.35342938
8	0x3eefccba	0.4683588
9	0xbf04b6a1	-0.5184117
10	0x3f05f443	0.5232584
11	0xbdbe490a	-0.09291275
12	0x3f0d0611	0.5508738
13	0x3dadd3de	0.08487676
14	0x3e4cc7d2	0.199981
15	0xbe7bb60f	-0.24581169
16	0x3eba74e5	0.36417308
17	0x3d71034f	0.058841046
18	0xbeaf3562	-0.34220415
19	0x3e77435b	0.24146788
20	0xbe58ac49	-0.21159472
21	0xbe2c00ea	-0.16797224
22	0xbe664494	-0.22487098
23	0x3eaf6726	0.34258384
24	0xbeca4d82	-0.3951226
25	0xbe2bbb52	-0.16770676
26	0xbd8d2583	-0.068919204
27	0xbeccf36d	-0.4002947
28	0x3e0d8289	0.13819326
29	0xbecae4ab	-0.39627585
30	0x3ee7b9ed	0.45259038
31	0xbef145b8	-0.47123504
32	0x3ebbf5ee	0.36711067
33	0x3d298325	0.041384835
34	0xbe243062	-0.16034082
35	0x3e9d0efc	0.30675495
36	0x3e240f08	0.16021359
37	0x3eec0e8c	0.46104848
38	0x3e0c2b9b	0.13688509
39	0xbe522f95	-0.20525964
40	0x3e606053	0.21911745
41	0xbd9c872f	-0.07642972
42	0x3e84d9bd	0.2594737
43	0x3e8b7d17	0.27243873
44	0x3e90dd53	0.28293857
45	0xbec18c1d	-0.3780221
46	0x3e625371	0.22102143
47	0x3e61835c	0.22022766
48	0x3e1af6aa	0.15133157
49	0xbec0c717	-0.37651893
50	0xbed73974	-0.4203602
51	0xbe5c1592	-0.21492603
52	0xbefb97af	-0.49139163
53	0x3eb51664	0.35368645
54	0x3eb84e9f	0.35997483
55	0x3e3d8e69	0.18511356
56	0x3db0de11	0.08636106
57	0xbd880c57	-0.06642979
58	0x3ea349b1	0.3189216
59	0xbed4837b	-0.41506562
60	0xbde9e502	-0.11420633
61	0xbee48872	-0.4463535
62	0x3d2685b5	0.040654857
63	0xbe0e7a0e	-0.13913748
64	0x3d2c7b5c	0.042109832
65	0x397c5984	0.0002406594
66	0x3ee68527	0.45023462
67	0xbe86b3fd	-0.26309195
68	0xbe4a14d9	-0.19734515
69	0xbf0a4ff4	-0.5402825
70	0x3f0ea0e5	0.55714256
71	0xbcfeca0b	-0.031102201
72	0x3f40ec3a	0.75360453
73	0xbeb2b9e0	-0.34907436
74	0xbecde042	-0.40210158
75	0xbeca33a8	-0.39492536
76	0xbece75cd	-0.4032425
77	0x3e1c0d6f	0.152395
78	0x3eb849d1	0.35993817
79	0x3ede8455	0.43460336
80	0xbeac30f7	-0.33631107
81	0xbf031f1c	-0.51219344
82	0x3ecb8af9	0.39754465
83	0xbe5cf1b7	-0.21576582
84	0x3eefb742	0.46819502
85	0xbe69b1ad	-0.22821684
86	0x3e452548	0.19252503
87	0xbebb9de6	-0.36643904
88	0xbea99a3e	-0.3312549
89	0x3e5e8185	0.21729095
90	0x3db575cf	0.08860361
91	0xbe89241a	-0.26785356
92	0x3e6e48cf	0.23269962
93	0x3e68ae65	0.22722776
94	0xbe837fdc	-0.25683486
95	0xbe084a0b	-0.13309495
96	0x3f33f0a2	0.7028905
97	0xbc613256	-0.013744911
98	0xbddcc5f4	-0.10779944
99	0xbee0982a	-0.43866092
100	0xbe9ced11	-0.30649617
101	0x3e483543	0.19551568
102	0xbe152668	-0.14565432
103	0xbf0b5f02	-0.54441845
104	0xbdfb019a	-0.12256165
105	0xbe8d54ba	-0.27603704
106	0xbf119e5f	-0.5688228
107	0xbe9b8e79	-0.30382136
108	0xbede70b6	-0.43445367
109	0xbe920b3a	-0.2852419
110	0x3f0202ff	0.5078582
111	0x3e7c6c35	0.24650653
112	0x3e3908af	0.18069719
113	0xbed24bd0	-0.41073465
114	0xbe6efea6	-0.23339328
115	0xbe003192	-0.1251891
116	0x3cae22e9	0.02125688
117	0xbea99e80	-0.33128738
118	0xbd4c0725	-0.0498115
119	0xbe4e2a28	-0.20133269
120	0xbd996024	-0.074890405
121	0xbe1f308c	-0.15545863
122	0xbd9bdbf5	-0.07610313
123	0xbe240055	-0.16015752
124	0xbeef4b81	-0.46737292
125	0xbe8dc42b	-0.27688727
126	0xbe93acca	-0.28842765
127	0xbf0b34eb	-0.5437762
128	0x3eb12c1a	0.3460396
129	0xbd802c3f	-0.06258439
130	0x3e941401	0.28921512
131	0x3d9897d4	0.07450834
132	0xbf1627c7	-0.58654445
133	0x3eeb21ef	0.45924327
134	0xbe42037d	-0.18946643
135	0xbe075111	-0.13214518
136	0xbf1725ae	-0.5904187
137	0xbeec88da	-0.4619816
138	0x3e45b388	0.19306767
139	0xbe7f0b4a	-0.2490665
140	0x3dd0609e	0.10174678
141	0xbf07c53a	-0.5303532
142	0x3ef1b203	0.47206125
143	0xbea94a17	-0.3306434
144	0xbe4c35cb	-0.19942395
145	0x3e2fb904	0.17160422
146	0x3ea0d9d6	0.31416196
147	0x3f232bfc	0.6373899
148	0x3ef2078f	0.47271392
149	0xbe68dfc5	-0.22741611
150	0x3e2ce170	0.16882873
151	0xbe54a5b9	-0.20766343
152	0x3d0112ff	0.031512257
153	0xbef5e949	-0.48029545
154	0x3f1c319a	0.61013186
155	0xbea947b9	-0.33062533
156	0x3f03908a	0.51392424
157	0x3e01fa3f	0.12693118
158	0x3dc2feed	0.095212795
159	0xbed67292	-0.41884285
160	0x3f0bdeaa	0.54636633
161	0x3cbfbaea	0.023404557
162	0xbdf53c9f	-0.11974453
163	0xbf0daad1	-0.5533877
164	0x3d8e543a	0.06949659
165	0xbe3628b3	-0.17788963
166	0xbeb82072	-0.35962254
167	0x3e82c09d	0.25537577
168	0x3cf5a246	0.029984605
169	0xbeb725bd	-0.3577098
170	0xbe43b177	-0.19110666
171	0xbd566950	-0.052346528
172	0x3e998d7d	0.2999076
173	0xbdb3b95f	-0.08775591
174	0xbe81ca6e	-0.25349754
175	0xbd610183	-0.054933082
176	0xbeb73106	-0.3577959
177	0x3e9dbeca	0.30809623
178	0x3ef7d4dc	0.48404586
179	0xbec74192	-0.38917214
180	0x3d987688	0.07444483
181	0x3e9521db	0.29127392
182	0xbd66af67	-0.05631962
183	0xbe9e121a	-0.30873185
184	0x3e6f781e	0.23385665
185	0x3ec3c4ff	0.38236234
186	0x3e67826c	0.22608346
187	0xbdb9ec83	-0.09078314
188	0xbd279b17	-0.04091939
189	0xbc150c94	-0.009097237
190	0xbdb5af75	-0.088713564
191	0xbdfac1a4	-0.12243965
192	0x3ef7fbe4	0.48434365
193	0x3efcfb37	0.49410412
194	0xbdac5221	-0.08414102
195	0x3ac71429	0.0015188503
196	0xb883af9b	-6.279276e-05
197	0x3a010b37	0.00049226306
198	0x3d9f6db4	0.07784596
199	0x3e013c95	0.12620766
200	0xbeaa4b21	-0.33260444
201	0xbeca7831	-0.39544824
202	0x3ec97638	0.39348006
203	0x3ea9138a	0.3302272
204	0xbc896f7b	-0.01677679
205	0xbe1f1d1b	-0.15538447
206	0xbe24e2b2	-0.16102102
207	0xbeb95e8e	-0.36204952
208	0xbdd6f9cf	-0.10496866
209	0x3e82a376	0.25515336
210	0x3f124ca2	0.5714818
211	0x3e4094ce	0.18806764
212	0xbe8e6bd8	-0.27816653
213	0xbece5885	-0.4030191
214	0x3e1be0a3	0.15222411
215	0x3ee11508	0.43961358
216	0x3da5371f	0.08067154
217	0xbc8dbdad	-0.017302359
218	0x3e38af6a	0.18035665
219	0xbe70abc2	-0.2350302
220	0xbecbd318	-0.3980949
221	0x3e982824	0.29718125
222	0xbe9d06d7	-0.3066928
223	0xbc2fd590	-0.01073207
224	0xbeeacf9a	-0.45861512
225	0x3f22ee8b	0.6364524
226	0x3ecc9bb4	0.39962542
227	0x3d88cd46	0.06679778
228	0xbe80fa7b	-0.251911
229	0xbf214dc3	-0.6300928
230	0xbece1b77	-0.4025533
231	0x3f1090eb	0.5647113
232	0x3e8f5922	0.2799769
233	0x3ec320b7	0.38110897
234	0x3edce6d1	0.4314485
235	0x3e03d8c2	0.12875655
236	0x3c879f3e	0.016555425
237	0xbe90215c	-0.2815045
238	0xbf161f3a	-0.586414
239	0xbec115fa	-0.3771208
240	0x3e46a166	0.19397506
241	0xbec2cd5f	-0.3804731
242	0xbc906fa7	-0.017631365
243	0xbe69efc8	-0.22845376
244	0x3d36754f	0.044545468
245	0xbe8c0683	-0.27348718
246	0xbeb2dda5	-0.34934726
247	0x3e3f66bf	0.18691538
248	0xbe3bfbeb	-0.18357818
249	0x3e976131	0.2956634
250	0xbe0e3602	-0.1388779
251	0xbe2c60fc	-0.16833872
252	0xbe557e8e	-0.20849058
253	0xbe030d39	-0.12798013
254	0xbe484648	-0.1955806
255	0xbf0d1a97	-0.551187

embeddings.student.bias f4 [128]
0	0xbc3fb45b	-0.011700715
1	0x3f03089c	0.5118501
2	0xbedf9d75	-0.43674818
3	0xbdef0058	-0.116699874
4	0x3e85ed73	0.26157722
5	0xbdaf7872	-0.08567895
6	0xbd9895d1	-0.0745045
7	0xbe74cc30	-0.23906016
8	0x3ed8c67c	0.42338932
9	0x3e7b277f	0.24526785
10	0x3e4181fb	0.1889724
11	0xbe8ea872	-0.2786289
12	0xbee01abc	-0.43770397
13	0xbc292206	-0.010323053
14	0x3d781dd6	0.06057533
15	0xbe57b113	-0.21063642
16	0xbe56d559	-0.20979823
17	0x3ee06fd1	0.4383531
18	0x3c94484a	0.018100876
19	0xbd2bedac	-0.04197471
20	0xbd6bffe3	-0.05761708
21	0xbe78e7b4	-0.24307138
22	0xbefc2a20	-0.4925089
23	0xbde38b35	-0.11110536
24	0xbd3bdad1	-0.045862976
25	0x3e590cae	0.21196243
26	0xbe42a989	-0.19009985
27	0xbe03f61d	-0.12886854
28	0x3f0cf6bf	0.55064005
29	0x3e901181	0.28138354
30	0x3ecd5590	0.40104342
31	0xbea579dc	-0.32319534
32	0xbdc8897b	-0.09791847
33	0x3e29375c	0.16525024
34	0xbe820add	-0.25398913
35	0xbeb11932	-0.34589535
36	0xbdb4ac50	-0.088219285
37	0xbe8afb52	-0.27144867
38	0xbee39b60	-0.4445448
39	0x3ee612a0	0.44936085
40	0x3ea4a420	0.32156467
41	0x3dd9fd6d	0.1064404
42	0xbcb85480	-0.02250123
43	0xbed0e1c6	-0.4079725
44	0xbdfde9f0	-0.12398136
45	0x3dd75e92	0.10516085
46	0x3e95e850	0.29278803
47	0xbda5b1c2	-0.08090545
48	0xbe3928f0	-0.18082023
49	0x3e66fb57	0.22556816
50	0xbeb63ba8	-0.3559239
51	0x3ea09838	0.31366134
52	0xbe03d875	-0.1287554
53	0x3d11c0e6	0.035584353
54	0xbcf28966	-0.029606532
55	0x3de0eddd	0.10982869
56	0xbe24250f	-0.16029762
57	0x3e89375b	0.26800045
58	0xbdafe020	-0.0858767
59	0x3eb5edb5	0.3553292
60	0x3ede1c45	0.43380943
61	0xbe7f9c08	-0.24961865
62	0xbe9ec18f	-0.31007048
63	0x3e9742e9	0.29543236
64	0x3ec0b0ca	0.3763488
65	0xbc4b1bd4	-0.012396771
66	0xbe2f3818	-0.17111242
67	0xbed8277b	-0.4221762
68	0xbea4dca8	-0.32199597
69	0x3e0bb626	0.13643703
70	0x3de1e3d9	0.110297866
71	0x3e037f0a	0.1284143
72	0xbdfcaba7	-0.123374276
73	0x3f00b870	0.5028143
74	0x3ccbf377	0.024896367
75	0xbe811eac	-0.25218713
76	0x3d5475f5	0.051870305
77	0x3da50af6	0.08058731
78	0x3da613a8	0.08109218
79	0xbecde505	-0.4021379
80	0x3e9ac1eb	0.30226073
81	0xbea72912	-0.32648522
82	0xbed24821	-0.41070655
83	0xbea65e5e	-0.3249387
84	0x3efe0c9f	0.49619004
85	0x3ee442c8	0.445822
86	0x3ee79185	0.4522821
87	0x3e904f22	0.28185374
88	0x3ea43b65	0.32076564
89	0xbdf90ddc	-0.121608466
90	0xbea33762	-0.3187819
91	0x3e54e8a2	0.20791867
92	0xbebb2454	-0.36551154
93	0xbecbe81b	-0.3982552
94	0xbdfbeaf5	-0.12300674
95	0x3e0d101e	0.1377568
96	0x3e75c606	0.24001321
97	0xbe182b77	-0.1486033
98	0xbe8af0cd	-0.2713684
99	0x3d28296a	0.04105512
100	0xbe4e25db	-0.20131628
101	0xbe84bd3e	-0.2592563
102	0x3e95a153	0.29224643
103	0xbe81d0e9	-0.25354698
104	0x3f018d45	0.50606185
105	0x3ee00cf5	0.43759885
106	0x3dca0b35	0.09865419
107	0x3e232fbd	0.1593618
108	0x3e42622c	0.18982762
109	0x3d8e5ca1	0.06951261
110	0xbdd28620	-0.102794886
111	0x3cab11c4	0.020882495
112	0x3e062e21	0.13103534
113	0x3ec9411c	0.39307487
114	0xbd3394d5	-0.04384311
115	0xbe1589f5	-0.14603408
116	0xbdcc1cd1	-0.09966434
117	0xbe5e6c1d	-0.2172093
118	0x3e430bb0	0.19047427
119	0x3ee79031	0.45227197
120	0x3ecd6435	0.40115514
121	0x3e4bf890	0.19919038
122	0xbeabfb6a	-0.3359025
123	0xbe9ece39	-0.3101671
124	0xbdbbd321	-0.09171129
125	0xbdadfb13	-0.08495154
126	0x3daf691a	0.085649684
127	0xbef5a0ac	-0.47974145

convs.0.student_friend_student.weight f4 [2, 128, 128]
0	0x3d019d12	0.031643935
1	0xbe0b18d6	-0.13583693
2	0xbd8ca482	-0.06867315
3	0x3bd9f25b	0.0066512055
4	0x3dd5fd9d	0.104487635
5	0xbe074917	-0.13211475
6	0x3d471c15	0.048610765
7	0xba22b2c9	-0.00062064506
8	0xbd24f184	-0.04026939
9	0x3d69a26a	0.057039656
10	0x3b85e100	0.00408566
11	0xbb54c3a3	-0.0032465241
12	0xbb6e9031	-0.0036401863
13	0xbdd0ced3	-0.101956986
14	0xba97ced8	-0.001158203
15	0xbc8ba83c	-0.017047994
16	0x3d2fe07d	0.042938698
17	0x3b8071d0	0.0039198175
18	0xbd14a415	-0.036289293
19	0xbd9c915d	-0.07644913
20	0xbcf256e3	-0.029582446
21	0x3dec1430	0.11527288
22	0x3dbcdd82	0.09221937
23	0xbcac0687	-0.020999206
24	0xbdffccd3	-0.12490239
25	0xba86e10c	-0.0010290458
26	0xbd8c9198	-0.06863707
27	0x3de30b56	0.110861465
28	0xbd85c463	-0.065315984
29	0xbd502617	-0.050817575
30	0xbd4961a9	-0.0491654
31	0x3d51a904	0.051186576
32	0x3d7582d0	0.059939206
33	0xbbe28793	-0.0069131344
34	0x3b591e5a	0.0033129663
35	0x3c5caa6a	0.013468364
36	0x3c7afe7d	0.015319464
37	0xbd0cc53b	-0.03436778
38	0xbd2502bb	-0.040285807
39	0xba9bfab6	-0.0011900279
40	0xbd57812b	-0.05261342
41	0x3c63b8ab	0.013899009
42	0xbcde8499	-0.027162837
43	0xbd82ef6f	-0.063933246
44	0x3d15efdc	0.0366057
45	0x3c9152d2	0.017739687
46	0x3d09e416	0.033664785
47	0x3e18af58	0.14910638
48	0x3ba4d9b0	0.005030833
49	0xbc0cbb06	-0.008589512
50	0xbcbc263a	-0.022967447
51	0xbe056531	-0.13026883
52	0xbdf73215	-0.12070099
53	0x3aeeb32d	0.0018211358
54	0xbd934248	-0.071903765
55	0xbd2f0717	-0.04273137
56	0xbe064f91	-0.1311629
57	0x3bfddc3c	0.0077472012
58	0x3ba25c60	0.0049548596
59	0xbc84915d	-0.016182596
60	0xbd941060	-0.07229686
61	0x3d198115	0.037476618
62	0x3dd3897f	0.1032896
63	0xbd21028a	-0.039309062
64	0xbd05b86f	-0.032646593
65	0x391b3e38	0.0001480513
66	0xbdb8b0f1	-0.09018124
67	0xbdcfc1a2	-0.101443544
68	0x3c7f5605	0.0155844735
69	0xbde60340	-0.11231089
70	0x3c8c8e79	0.01715778
71	0x3def60d3	0.1168839
72	0xbba64af3	-0.0050748526
73	0x3b51e99a	0.0032030107
74	0xbcf7cc08	-0.030248657
75	0xbcb51dd4	-0.02210895
76	0xbc8c4f9e	-0.017127808
77	0xbc992550	-0.01869455
78	0x3d8bd8a5	0.06828431
79	0x3e069b45	0.13145168
80	0xbdede65c	-0.11616203
81	0x3c5c44f1	0.013444171
82	0xbd186881	-0.037209038
83	0xbda94aae	-0.08266197
84	0xbcce210c	-0.025162242
85	0xbb43e316	-0.0029889992
86	0x3bd0f74a	0.0063771354
87	0xbadd2faf	-0.0016875173
88	0xbd3991c8	-0.045305043
89	0x3c48c31d	0.01225355
90	0xbdad1cdb	-0.08452769
91	0xbd9f13f2	-0.07767476
92	0x3b92f8b0	0.0044852123
93	0xbe19648e	-0.14979765
94	0xbde67756	-0.1125323
95	0xbdaae789	-0.08344943
96	0x3dbe2ea4	0.0928624
97	0x3d079a84	0.033106342
98	0x3d95c5ca	0.07313116
99	0x3b75a5ef	0.0037482937
100	0xbd954631	-0.072887786
101	0x3defa061	0.11700512
102	0x3dacdd0d	0.084405996
103	0x3bcfbcc9	0.0063396436
104	0xbcb715a7	-0.022349192
105	0xbe189df2	-0.14904001
106	0xbd95aaac	-0.07307944
107	0x3d2a650e	0.04160028
108	0xbd0b94f1	-0.03407759
109	0xbcc486d0	-0.023990065
110	0xbdbd89d5	-0.09254805
111	0xbdbaab17	-0.09114664
112	0xbd0ba9c6	-0.034097455
113	0xbdbf28b3	-0.09333935
114	0xba8166b7	-0.000987253
115	0xbb178aba	-0.002312346
116	0xbdcee98b	-0.101031385
117	0xbbec8681	-0.0072181826
118	0xbdcc572d	-0.09977565
119	0xbd46ba3e	-0.04851746
120	0x3ccb7436	0.024835687
121	0x3dcfb6b0	0.10142267
122	0xbc918617	-0.017764134
123	0x390f9351	0.00013692422
124	0xbdd4e7dc	-0.10395786
125	0xbba1787b	-0.0049276925
126	0xbdd50058	-0.10400456
127	0x3b49da81	0.0030800404
128	0x3cef9e09	0.029250162
129	0xbe1c366d	-0.15255137
130	0x3de67f6d	0.11254773
131	0x3a5a5d71	0.0008329964
132	0xbe068bbd	-0.13139243
133	0xbda198d4	-0.07890478
134	0x3cb163c0	0.02165401
135	0xbcebab97	-0.028768344
136	0xbd20ed6f	-0.039288934
137	0xbdba546a	-0.09098132
138	0x3bdca0fc	0.006733058
139	0xbc321a0f	-0.010870471
140	0x3b7cfb86	0.0038602068
141	0x3be5d243	0.0070135905
142	0xbcc4ce83	-0.024024254
143	0x3cdc4c13	0.026891744
144	0x3c39999c	0.011328127
145	0xbdd42778	-0.103590906
146	0xbda03544	-0.078226596
147	0x3d86b94c	0.06578311
148	0xbde314ec	-0.11087975
149	0x3d5d5984	0.054040447
150	0xbe010253	-0.12598543
151	0x3d2e4c6b	0.042553347
152	0x3d220d88	0.039563686
153	0x3a01d8ef	0.0004953285
154	0x3da0f0c8	0.078584254
155	0x3d1e8cca	0.038708486
156	0x3d9230d0	0.071382165
157	0xbddfe7dd	-0.10932896
158	0xbd3b1a14	-0.045679167
159	0x3dd3038a	0.103034094
160	0x3d9e1880	0.07719517
161	0xba643292	-0.00087050453
162	0xbdd71f3d	-0.10504005
163	0x3d26c3b6	0.04071399
164	0xbd821fb8	-0.06353706
165	0xbd2e8273	-0.042604875
166	0xbdf972bf	-0.12180089
167	0xbd2099c9	-0.03920916
168	0x3d3a73a8	0.045520455
169	0xbc909f45	-0.01765407
170	0xbdbe2a9c	-0.09285471
171	0xbc1ca164	-0.009559963
172	0xbd2f1ce2	-0.042752154
173	0x3dd61562	0.10453297
174	0xbdf2ad37	-0.11849444
175	0x3c62d647	0.013845033
176	0xbe19eeb9	-0.15032472
177	0xbcfb6c70	-0.030691355
178	0xbbb6fef1	-0.0055845906
179	0x3d92e02b	0.07171663
180	0xbcbd80a0	-0.023132622
181	0x3b3f7672	0.0029214886
182	0x3d59afb6	0.053146087
183	0x3d612971	0.054971162
184	0x3d84d09f	0.06485104
185	0xb9aff0d0	-0.0003355802
186	0xbcdc1dae	-0.026869621
187	0xbcdfab0f	-0.027303247
188	0x3ddd8dd5	0.10818068
189	0xbda3f329	-0.080053635
190	0xbd476a6b	-0.048685472
191	0xbdd54e9f	-0.104153864
192	0xbccc9c46	-0.02497686
193	0xbe02dda3	-0.1277986
194	0xbc3c1af9	-0.01148104
195	0x3c5f6859	0.013635718
196	0xbe021abd	-0.12705512
197	0xbc12d685	-0.008962278
198	0x3be77dbd	0.0070645497
199	0x3d9e6f1a	0.07736035
200	0x3d743f39	0.059630606
201	0xbe2adf65	-0.16686781
202	0x3d03f38b	0.032214683
203	0x3dcca082	0.09991552
204	0xbce1155f	-0.02747601
205	0xbca2b69d	-0.019862467
206	0xbcd4d558	-0.025980636
207	0xbcaf8d34	-0.021429636
208	0xbd899c93	-0.06719317
209	0x3dbccd43	0.09218838
210	0x3d98efac	0.07467589
211	0x3def2f15	0.11678902
212	0xbd898703	-0.067152046
213	0x3bc80fc2	0.006105394
214	0xbbc1a5be	-0.0059096506
215	0xbd708357	-0.058719005
216	0xbe00daa9	-0.12583412
217	0xbd2ad973	-0.041711282
218	0x3d6c4304	0.0576811
219	0xbe246343	-0.1605349
220	0xbd7a1037	-0.06105062
221	0x3cf7e9d9	0.030262874
222	0x3d5cb7ff	0.05388641
223	0x3d1ab7ff	0.03777313
224	0xbe02f736	-0.12789616
225	0xbe14cad0	-0.14530492
226	0x3dd59e22	0.10430552
227	0x3bbfdbab	0.005855044
228	0x3dbf953d	0.09354637
229	0x3d5b5cac	0.053555176
230	0x3dc8e54a	0.098093584
231	0x3df8f6dc	0.1215646
232	0xbddc1d66	-0.10747795
233	0xbda973db	-0.08274051
234	0x3d89a62e	0.067211494
235	0xbe0e36dc	-0.13888115
236	0xbdb88a82	-0.09010793
237	0xbca835de	-0.020533498
238	0x3d25afa0	0.040450692
239	0xba533d86	-0.0008058179
240	0xbdadc91b	-0.084856234
241	0xbce5e909	-0.028065221
242	0x3e030dd0	0.12798238
243	0xbd740a11	-0.059579913
244	0x3d2e88c3	0.042610895
245	0xba9b7a9b	-0.0011862101
246	0xbdfa7436	-0.12229197
247	0x3dbe9ef8	0.09307665
248	0xbdb79ece	-0.089658365
249	0xbd19bf7e	-0.037536137
250	0xbc958356	-0.018251102
251	0x3c04bc3d	0.00810152
252	0xbdf6d52f	-0.1205238
253	0xba99a5a2	-0.0011722336
254	0x3d52f5a9	0.05150381
255	0xbcb46641	-0.022021415

convs.0.student_friend_student.root f4 [128, 128]
0	0x3d8c7409	0.068580694
1	0x3d1ff850	0.03905517
2	0x3d4492e8	0.047991663
3	0xbb1218ce	-0.0022292617
4	0x3dd7b35b	0.10532256
5	0x3da4c6ed	0.080457546
6	0xbcad1069	-0.021125989
7	0xbc33cc98	-0.010974072
8	0xbc6e0252	-0.01452692
9	0x3e04e28c	0.12977046
10	0xbb98d2a6	-0.004663783
11	0xbb0983b7	-0.002098305
12	0xbce1b6eb	-0.027553042
13	0xbe034866	-0.12820587
14	0x3dc68126	0.09692602
15	0x3d49c3b8	0.049258918
16	0xbc2ed293	-0.010670322
17	0x3e58c2ed	0.21168108
18	0x3d10803c	0.035278544
19	0x3d34fe29	0.0441877
20	0x3e367f70	0.17822051
21	0xbd8d90a0	-0.06912351
22	0x3d4780b0	0.04870671
23	0x3c83c094	0.01608304
24	0xbe0923e2	-0.13392594
25	0xbbd3f445	-0.006468328
26	0xbc30bbd7	-0.010786972
27	0xbcf6ebe2	-0.030141775
28	0xbe24dca2	-0.1609979
29	0x3cacd285	0.021096477
30	0x3db12a45	0.086506404
31	0xbd92c5cd	-0.07166634
32	0xbc20ba90	-0.009810105
33	0x3a3d4263	0.000721967
34	0xbc8cc9e7	-0.017186118
35	0x3d9a1c35	0.07524911
36	0xbd86f801	-0.06590272
37	0xbd29f620	-0.04149449
38	0xbb88ac32	-0.004170918
39	0xbaa7b051	-0.0012793635
40	0x3d4472b9	0.04796097
41	0x3b9ffba4	0.004882293
42	0x3c040c92	0.008059638
43	0xbb8739a2	-0.0041267434
44	0x3deae6e7	0.114698224
45	0xbb78262e	-0.0037864554
46	0xbd4c5d70	-0.049893796
47	0xbd5a187d	-0.05324601
48	0x3df6646b	0.12030872
49	0x3d05b10f	0.03263956
50	0xbd9d4159	-0.0767848
51	0x3ca70964	0.02039022
52	0x3dd57a64	0.10423735
53	0xbb34f104	-0.0027609477
54	0xbd5f8930	-0.05457419
55	0x3de65ff8	0.11248773
56	0x3cfa7501	0.03057337
57	0x3b8cef0c	0.0043009575
58	0xbad10ebb	-0.0015949825
59	0xbc8a5a4c	-0.01688876
60	0xbd55cfd7	-0.052200165
61	0xbdc497da	-0.09599276
62	0xbcd6ab05	-0.026204595
63	0xbbfdb5b4	-0.007742608
64	0x3cbe453b	0.023226371
65	0xbdeb6dac	-0.114955276
66	0x3df0b23b	0.11752745
67	0xbe0d13e7	-0.13777123
68	0xbd793bb5	-0.060847957
69	0x3c02b9e3	0.007978889
70	0xbdc2ec23	-0.09517696
71	0xbdf27072	-0.118378535
72	0xbd5659b3	-0.052331638
73	0x3e4df44b	0.20112722
74	0xba69778e	-0.00089060597
75	0x3d58baeb	0.052912634
76	0xbc6bbbce	-0.014388038
77	0xbcb9f4ef	-0.022699801
78	0x3ccf4398	0.025300786
79	0xbdea41cb	-0.1143833
80	0xbe2cb17d	-0.16864581
81	0xbdd84a0d	-0.10560999
82	0xbdf6735d	-0.120337225
83	0xbe13d4fc	-0.14436716
84	0xbc921c33	-0.017835712
85	0xbbcb2d76	-0.0062004877
86	0xbcec8078	-0.028869852
87	0x3b2898c6	0.0025725826
88	0x3e003a0a	0.1252214
89	0xbd697881	-0.056999687
90	0xbdac0f9d	-0.084014155
91	0xbb62ee40	-0.0034626871
92	0xbe07148b	-0.1319143
93	0x3e4dc67d	0.20095249
94	0xbca1d4ad	-0.019754732
95	0x3c2f4d30	0.010699555
96	0x3da9fac0	0.0829978
97	0xbc42acea	-0.011882046
98	0xbd06bc7c	-0.032894596
99	0x39bee50e	0.00036410283
100	0x3b04f005	0.0020284664
101	0x3b5d2402	0.0033743386
102	0xbe1fcb1a	-0.15604821
103	0xbe1d7cf0	-0.15379691
104	0x3b33552d	0.0027364
105	0xbdc77145	-0.09738401
106	0x3e2ddfa6	0.16979846
107	0xbb3059ad	-0.002690892
108	0x3d43f52d	0.04784124
109	0xbd004394	-0.031314448
110	0x3e66f971	0.22556092
111	0x3e016b5b	0.12638609
112	0x3d033e03	0.03204156
113	0x3e582ff9	0.2111205
114	0xbdeb2863	-0.114823125
115	0xbcc45e7e	-0.023970839
116	0xbd236a0d	-0.03989606
117	0x3ce097b3	0.027416086
118	0x3c3fe2f9	0.011711829
119	0xbdc129b7	-0.094317846
120	0x3ce1dd85	0.027571449
121	0x3d17beac	0.037047073
122	0xbc10c802	-0.008836748
123	0xba036384	-0.00050120824
124	0xbe408745	-0.18801601
125	0x39f01df0	0.00045798672
126	0xbcdce71a	-0.026965667
127	0xb9abe717	-0.00032787837
128	0xbe016220	-0.12635088
129	0x3e0b8da1	0.13628246
130	0x3da04962	0.07826497
131	0x3a2338d8	0.0006226427
132	0x3e087201	0.13324739
133	0xbc264ea0	-0.010150582
134	0xbe1fac1e	-0.15593001
135	0x3d178d58	0.03700003
136	0xbda26d37	-0.07930987
137	0x3da56d74	0.08077517
138	0xbd41cd50	-0.047314942
139	0x3a3afd1e	0.00071330543
140	0x3b738542	0.0037158285
141	0x3d39b30d	0.04533677
142	0xbd990e72	-0.07473458
143	0xbe11c605	-0.14235695
144	0xbd917e41	-0.07104159
145	0xbd0fdb2f	-0.03512114
146	0x3c8cb1fa	0.01717471
147	0x3e3ecbe8	0.18632472
148	0x3ddffe31	0.10937155
149	0xbd30da49	-0.043176923
150	0x3c664f09	0.014056929
151	0xbd82b6ed	-0.063825466
152	0xbe27adee	-0.16374943
153	0xbd75b4f5	-0.059987027
154	0xbce30ee2	-0.027717058
155	0x3cc2177e	0.023692843
156	0xbd9c2ad2	-0.07625355
157	0xbd9e3938	-0.07725757
158	0xbca5d84f	-0.020244746
159	0x3c969330	0.018380731
160	0xbd885024	-0.066559106
161	0xbd56193b	-0.052270155
162	0x3c800a8c	0.01563003
163	0xbde73b1c	-0.11290571
164	0x3cbe8529	0.023256855
165	0xbdcdd474	-0.10050288
166	0xbd4c06d9	-0.049811218
167	0x3caf4631	0.021395775
168	0x3c393347	0.011303729
169	0xbcc9fdfe	-0.024657246
170	0xbc442133	-0.011970806
171	0xbb080b37	-0.0020758638
172	0x3ce6ffaa	0.028198082
173	0xbe4a12d9	-0.19733752
174	0xbe000b64	-0.12504345
175	0x3d4fc1ca	0.05072192
176	0xbde16c72	-0.110070124
177	0xbc990b36	-0.018682104
178	0xbd78f89f	-0.06078398
179	0x3b873d05	0.004127147
180	0xbd25582f	-0.0403673
181	0xba1e694a	-0.0006042911
182	0xbd1f54d7	-0.03889927
183	0x3ddabbbd	0.106803395
184	0xbde389b1	-0.11110247
185	0x3a66e1af	0.0008807433
186	0x39226b1c	0.00015489425
187	0xbd08cbfc	-0.03339766
188	0x3e4c0ede	0.19927546
189	0xbd807009	-0.06271369
190	0x3d8a4095	0.06750599
191	0x3db396b4	0.08768979
192	0xbdd00af2	-0.10158338
193	0xbe09b415	-0.13447602
194	0xbc39d01c	-0.011341121
195	0xbdf00e85	-0.117215194
196	0xbda62b0d	-0.0811368
197	0xbdcb124f	-0.099156015
198	0x3c60448c	0.013688218
199	0x3d2dc975	0.042428453
200	0xbe1e6f13	-0.15472059
201	0x3e129f69	0.14318623
202	0xbb3a11ae	-0.0028391886
203	0xbd2b8958	-0.041879028
204	0xbc831286	-0.016000044
205	0xbd4de0e7	-0.05026331
206	0x3e108392	0.1411269
207	0xbcbbfcb5	-0.022947649
208	0xbd2b219b	-0.041780096
209	0x3df9abbe	0.1219096
210	0xbe022954	-0.12711078
211	0xbdc590d1	-0.09646762
212	0x3c818060	0.015808284
213	0x3cb14e55	0.021643797
214	0xbd6f9cdc	-0.058499202
215	0x3d20e16d	0.039277483
216	0x3c6073e5	0.013699506
217	0x3cff0bcb	0.031133553
218	0x3d144aa4	0.036203995
219	0xbdb2dc50	-0.087334275
220	0x3e1160ee	0.14197132
221	0x3dc778c7	0.09739833
222	0xbc7fb094	-0.015606064
223	0xbdb2ea92	-0.08736147
224	0x3d3ecb77	0.046580758
225	0xbc621ce5	-0.013800834
226	0xbdf41f92	-0.11920084
227	0xbaccebe7	-0.0015634269
228	0x3cea6d72	0.02861664
229	0x3d4b7b32	0.049678035
230	0xbd689039	-0.056778166
231	0xbe1edaf9	-0.15513219
232	0x3b845cec	0.0040393975
233	0x3da4f9ab	0.08055433
234	0x3c5646eb	0.013078432
235	0x3b0efe0d	0.0021818907
236	0x3e4c4866	0.19949493
237	0xbc1c38e3	-0.009535047
238	0x3db392f5	0.08768264
239	0x3d3ced4a	0.046124734
240	0x3d506cc4	0.050884977
241	0x3dc6c894	0.09706226
242	0xbde3248e	-0.11090957
243	0xbdb7f6ac	-0.08982596
244	0xbc98ddfc	-0.018660538
245	0xbc36bcf6	-0.01115345
246	0xbdc65c73	-0.09685602
247	0xbce8dc5b	-0.028425386
248	0xbd514032	-0.051086612
249	0xbe1edc40	-0.15513706
250	0xbc308fb0	-0.010776445
251	0xbb938420	-0.0045018345
252	0xbe364975	-0.17801459
253	0xbb12d2ed	-0.0022403554
254	0x3cb0d5ad	0.021586264
255	0x3bf74213	0.0075457185

convs.0.student_friend_student.bias f4 [128]
0	0x3c296ac2	0.010340394
1	0xbcc2721b	-0.02373605
2	0xbbed1192	-0.0072347606
3	0xbd22b035	-0.039718825
4	0xbc31162e	-0.010808511
5	0xbb143e7b	-0.002262025
6	0xbc1dea04	-0.009638313
7	0xbc82d2ba	-0.015969623
8	0xbbb15e90	-0.005412884
9	0xbc8dfa48	-0.017331257
10	0xbd07daea	-0.033167757
11	0xbcafc2b0	-0.021455139
12	0xbcab47ac	-0.0209082
13	0x3c753cdb	0.014968122
14	0xbd4362ad	-0.047701526
15	0xbd410615	-0.04712494
16	0x3cdefbfa	0.027219761
17	0xbd0c5a0a	-0.034265555
18	0xbce24577	-0.027621014
19	0xbce95807	-0.028484358
20	0xbc4d80a4	-0.012542877
21	0x3d046bbb	0.032329302
22	0x3c4a13fc	0.012333866
23	0xbcae0f7f	-0.021247623
24	0xbaacc17e	-0.0013180224
25	0xbc0e058d	-0.008668316
26	0x3d071da4	0.032987252
27	0x3d1a55b7	0.0376794
28	0x3bb36750	0.0054749623
29	0xbd6cd78b	-0.057822745
30	0xbce7b08d	-0.028282428
31	0x3d0af907	0.033928897
32	0xbd74e38a	-0.05978731
33	0xbd34c42f	-0.044132408
34	0xbd434b77	-0.04767939
35	0xbd0b07d9	-0.03394303
36	0xbd4cb5b8	-0.049977988
37	0xbc91b6fa	-0.017787445
38	0xbd368873	-0.044563722
39	0xbd134234	-0.035951808
40	0xbd698c9d	-0.057018865
41	0xbbfcf24c	-0.0077193137
42	0xbc868752	-0.016421948
43	0xbd3cc18c	-0.04608302
44	0xbc524ce1	-0.012835712
45	0xbc8ab200	-0.01693058
46	0x3bd8f17a	0.006620583
47	0x3d19e6c7	0.037573602
48	0xbd0a4aef	-0.03376287
49	0xbcf4af80	-0.029868841
50	0xbd2fe1c9	-0.042939935
51	0xbd6241ae	-0.05523842
52	0xbd1924ef	-0.03738874
53	0xbbccc687	-0.0062492522
54	0x3cafcdf5	0.021460513
55	0xbcc46610	-0.023974448
56	0xbd053fc4	-0.032531515
57	0xbc661a86	-0.01404441
58	0xbcf9b7ca	-0.030483145
59	0xbd1a942b	-0.03773896
60	0x3d08a49e	0.033360116
61	0xbc21e060	-0.009880155
62	0xbab52c6c	-0.0013822443
63	0x3c8fc48e	0.01754978
64	0xbd6aba7f	-0.057306763
65	0xbd26001f	-0.04052746
66	0xbd7df19b	-0.06199799
67	0xbc65373d	-0.013990221
68	0xbd2de931	-0.042458717
69	0xbd21525c	-0.039385185
70	0x3c6bf0ad	0.014400643
71	0x3c92dd75	0.017927865
72	0xbcabd9c2	-0.020977858
73	0xbcb4f075	-0.022087315
74	0xbd1871c2	-0.037217863
75	0xbbe76e25	-0.007062691
76	0xbd079905	-0.033104915
77	0xbd40856c	-0.04700224
78	0xba015204	-0.0004933181
79	0x3c8b6bf9	0.017019259
80	0xbcc03982	-0.023464922
81	0x3c934a13	0.017979657
82	0x3ca97df7	0.020689948
83	0x3ccc977d	0.024974579
84	0xbcfa531c	-0.030557208
85	0x3b26e204	0.0025464306
86	0xbd30fb82	-0.043208607
87	0xbd01dffe	-0.031707756
88	0xbcad0954	-0.021122612
89	0x3c705d65	0.0146707045
90	0xbce3b53c	-0.02779638
91	0xbb28b2d4	-0.0025741355
92	0x3d28de3b	0.04122756
93	0xbd18f828	-0.037346035
94	0x3b49a077	0.003076581
95	0xbd8518b8	-0.06498855
96	0xbcfd7abd	-0.030942315
97	0xbd881b0f	-0.06645786
98	0x3cfb9f5c	0.030715637
99	0xbc865fed	-0.016403163
100	0x3ca8a40f	0.020586042
101	0x3cfa07e3	0.030521339
102	0x3d6b18e3	0.05739678
103	0xbc1581f7	-0.009125224
104	0xbd5ec474	-0.05438657
105	0x38cc8ee4	9.7540935e-05
106	0xbcc4c43e	-0.024019357
107	0xbd897a3d	-0.06712768
108	0xbd279da0	-0.040921807
109	0xbc9dfdd6	-0.019286077
110	0xbbc047a1	-0.005867914
111	0xbd0bb563	-0.03410853
112	0xbd296a54	-0.041361168
113	0xbcc6e25f	-0.024277864
114	0x3a069120	0.00051333196
115	0xbd0f0c76	-0.034923993
116	0x3ce1aed0	0.027549177
117	0xbd2d8d9e	-0.042371385
118	0xbce3f74a	-0.027827878
119	0xbcab19a8	-0.020886257
120	0xbcff64b2	-0.031175945
121	0x3b8398e9	0.004016031
122	0xbd01bcd4	-0.03167422
123	0xbc4dd0f7	-0.012562028
124	0x3c41678d	0.011804474
125	0xbb3d76b0	-0.0028909855
126	0x3c5fbc84	0.0136557855
127	0xbcb04695	-0.021518031

convs.0.student_disrespect_student.weight f4 [2, 128, 128]
0	0x3be833dc	0.0070862602
1	0xbc2d04af	-0.010560199
2	0x3d49f9d3	0.049310517
3	0xbb7ce174	-0.003858653
4	0xbc21d350	-0.009877041
5	0xbdae5d9d	-0.08513949
6	0x3d06bbb0	0.032893836
7	0x3bf9a6a2	0.007618741
8	0xbcb0484b	-0.021518847
9	0xbb935a63	-0.004496859
10	0xbb890a81	-0.0041821604
11	0xbb325c80	-0.0027215779
12	0x3a05f1fa	0.00051096047
13	0xbd031806	-0.032005332
14	0xbb8c5d17	-0.004283558
15	0x3c05d36c	0.008168083
16	0x3db6b139	0.08920521
17	0xbb6933b0	-0.0035583787
18	0x3d2f9c2b	0.042873543
19	0xbd1e8cdd	-0.038708556
20	0xbc2561ce	-0.010094119
21	0x3c8c639b	0.01713734
22	0xbc86e68a	-0.016467351
23	0x3cf0a691	0.0293763
24	0xbd40f1b8	-0.04710552
25	0xba9e26a3	-0.0012065958
26	0xbcd0bded	-0.025481189
27	0x3d308c9d	0.04310285
28	0x3cb82275	0.022477368
29	0x3c27ed0d	0.010249388
30	0x3d59ff3e	0.053221934
31	0xbad2531e	-0.0016046499
32	0x39caf867	0.00038713517
33	0x3bd06e4a	0.0063608037
34	0x3a8b2d62	0.0010618384
35	0xbcd1c8d8	-0.025608465
36	0x3c164ec5	0.009174054
37	0x3b59c29b	0.0033227566
38	0x3b02511c	0.001988477
39	0x3b73d324	0.0037204707
40	0x3c210be6	0.009829497
41	0xbc8d6bcf	-0.017263321
42	0x3c5b1d91	0.013373748
43	0xbb7c6289	-0.003851088
44	0x3c7a25ae	0.015267773
45	0x3d961c2f	0.07329594
46	0xbc9de0a4	-0.019272156
47	0x3c7630ac	0.015026253
48	0xbbdd2c25	-0.006749647
49	0x3a8277a5	0.000995387
50	0xbb342fcb	-0.0027494307
51	0xbc02124f	-0.007938935
52	0xbd143459	-0.036182735
53	0xba39e75b	-0.00070916646
54	0x3bd7559b	0.0065714843
55	0xbce2c1e5	-0.027680347
56	0xbbbbb3a8	-0.005728204
57	0x3bcb0277	0.006195362
58	0xbb165427	-0.0022938342
59	0xbaa9b520	-0.0012947656
60	0x3d83f3ca	0.064429834
61	0x3c98d1c2	0.018654708
62	0xbd82295b	-0.06355544
63	0xbccf4cc0	-0.025305152
64	0x3c216574	0.0098508485
65	0xbb7d64cb	-0.0038664814
66	0xbb795a82	-0.0038048332
67	0xbcf1c53f	-0.029513
68	0xbb984cde	-0.004647835
69	0xba9e5ff7	-0.0012083043
70	0x3bb9aeb7	0.0056665796
71	0xbc41e8f4	-0.0118353255
72	0x3d019596	0.031636797
73	0xbc16cd33	-0.009204197
74	0xba9c7d89	-0.0011939268
75	0x3d87eabb	0.06636568
76	0xbb4aea6a	-0.0030962476
77	0xba88c772	-0.0010435416
78	0x3ceb37cb	0.028713128
79	0x3dbffbfd	0.09374235
80	0x3c9ad025	0.01889808
81	0x3cbc48fd	0.022984022
82	0xbd0352da	-0.032061435
83	0xbbe10b17	-0.006867777
84	0xbb1f02ef	-0.0024263223
85	0x3a97a244	0.0011568745
86	0x3c0a6c29	0.008448639
87	0xbb701fbf	-0.0036640016
88	0x3b93ffde	0.0045165857
89	0xbc8929b7	-0.016743524
90	0x3ab022a1	0.0013438055
91	0x3b9395a6	0.0045039235
92	0x3bfa9dd8	0.007648211
93	0x3ca43f1e	0.020049628
94	0x3b197293	0.0023414239
95	0xbcec9a43	-0.028882151
96	0xbd267b29	-0.0406448
97	0xbaa35fc2	-0.0012464451
98	0xbb65057a	-0.0034945891
99	0xbb0e7831	-0.002173912
100	0xbd0ae35a	-0.033908226
101	0xbc975eef	-0.018477885
102	0xba81c9d4	-0.0009902068
103	0xbcb70753	-0.02234236
104	0x3bb821b4	0.005619252
105	0xbc6de61b	-0.014520193
106	0xbb2078c0	-0.0024486035
107	0xbd0c6d70	-0.034284055
108	0x3b02779f	0.0019907726
109	0xba42343a	-0.0007408295
110	0xbcee8c66	-0.029119682
111	0xbd72d164	-0.05928172
112	0x3cb8d0ff	0.022560595
113	0x3d78e24d	0.060762692
114	0x3cd625b0	0.026141018
115	0xbaad3f44	-0.0013217707
116	0xbd20ce8f	-0.03925949
117	0xb89db2e0	-7.5196614e-05
118	0xba2f51d4	-0.00066879136
119	0x3c0bde50	0.00853689
120	0x3cc08dcc	0.023505114
121	0xbcc6be09	-0.024260538
122	0x396748d8	0.00022057013
123	0xb9eecd46	-0.00045547838
124	0xbc933adc	-0.017972402
125	0x36784600	3.6995625e-06
126	0x3ccaa7fb	0.024738302
127	0xbb53f268	-0.003234053
128	0xbc49f5e4	-0.012326691
129	0xbd04136b	-0.03224508
130	0xbd315182	-0.043290623
131	0xbac01161	-0.0014653617
132	0xbcbcc29f	-0.023042021
133	0xbcaf1e7a	-0.021376837
134	0x3d85df5e	0.065367445
135	0x3c06fcfb	0.008239026
136	0xbd4761a3	-0.048677098
137	0xbdef0329	-0.116705246
138	0x3b0594ef	0.002038296
139	0xba54978c	-0.00081097404
140	0x3ba3d422	0.0049996534
141	0xbdb0400e	-0.086059675
142	0xbc5a788c	-0.013334405
143	0xbc3a4e02	-0.011371138
144	0x3d3fabd4	0.046794727
145	0xbc0966a2	-0.008386286
146	0x3d421ec4	0.04739262
147	0x3cd12ccf	0.025534062
148	0xbdbc25f9	-0.0918693
149	0xbc41b21f	-0.0118222525
150	0xbda41b82	-0.08013059
151	0xbc5cc6aa	-0.0134751
152	0x3d446d7f	0.047955986
153	0xba285724	-0.00064216764
154	0xbbd85f55	-0.0066031613
155	0xbcf6fc3a	-0.030149568
156	0xbcbf334d	-0.023339892
157	0x3c866b08	0.016408458
158	0x3ccb93fd	0.02485084
159	0xbd74e4e8	-0.059788615
160	0xbc8cf83b	-0.01720821
161	0xbc357138	-0.011074357
162	0x3b27509d	0.0025530227
163	0x3d78eecd	0.060774613
164	0xbc219035	-0.009861042
165	0xbd07b3d6	-0.03313049
166	0xbcb5f3f5	-0.022211054
167	0x3ba284f5	0.0049596974
168	0xbd65c7af	-0.056098636
169	0x3d21c8e9	0.039498243
170	0xbdb8a391	-0.09015573
171	0xbc132941	-0.008982004
172	0xbc952dec	-0.018210374
173	0x3d4b490a	0.049630202
174	0xbd8741a1	-0.066043146
175	0x3ca72882	0.020405058
176	0x3c3f1470	0.0116625875
177	0xbcb817d9	-0.022472309
178	0x3cf63c2c	0.030057989
179	0xbcb13fca	-0.021636862
180	0xbccdfb19	-0.025144147
181	0x39c37180	0.00037277862
182	0xbcace461	-0.021104993
183	0xbd53320a	-0.051561393
184	0x3c25a32c	0.010109704
185	0x3ab69543	0.0013929982
186	0x3af518f1	0.001869945
187	0xba880d51	-0.0010379945
188	0xbdaded9e	-0.084925875
189	0x3c119a3d	0.008886871
190	0x3bcae9e2	0.006192432
191	0x3d55f3b5	0.05223437
192	0x3c3ea8fd	0.01163697
193	0xbbaded45	-0.0053078257
194	0x3d2c3071	0.042038385
195	0x3c7d599a	0.015463257
196	0xbc87702c	-0.01653298
197	0xbda5ced8	-0.08096093
198	0x3be3a7ba	0.006947485
199	0x3c2d12e6	0.010563588
200	0xbc2cd994	-0.010549922
201	0xbd9d3d28	-0.0767768
202	0x3acee9cc	0.001578623
203	0xbdc2bb40	-0.09508371
204	0x3aa455ef	0.0012537817
205	0x3bb12b32	0.0054067606
206	0xbd269c06	-0.04067614
207	0xbdbc3619	-0.09190006
208	0x3d3c1ebf	0.04592776
209	0x3d9c3357	0.0762698
210	0xbdb2187e	-0.08696078
211	0x3d8420be	0.064515576
212	0xbc97e55e	-0.018541988
213	0xba3e4ce5	-0.0007259383
214	0xbb567e1d	-0.0032728978
215	0xbb74c578	-0.0037349146
216	0x3bc84efc	0.0061129313
217	0xbd797704	-0.060904518
218	0xbd508cd5	-0.050915558
219	0xbd9eeb11	-0.07759679
220	0xbd6b5de3	-0.057462584
221	0xbd7d8188	-0.06189111
222	0x391062d1	0.00013769722
223	0x3d09dae5	0.03365602
224	0xbd62dfb9	-0.05538914
225	0xbab7ced1	-0.0014023428
226	0x3bce44eb	0.0062948368
227	0x3ab9af6c	0.001416666
228	0x3c88e67f	0.016711472
229	0xbd197537	-0.0374653
230	0xbcd00054	-0.025390781
231	0xbce1fc02	-0.027585987
232	0xbc256066	-0.010093784
233	0x3b8697ad	0.0041074366
234	0x3ad2eeaf	0.0016092862
235	0xbc9a262e	-0.018817034
236	0xbd9e51e7	-0.077304654
237	0xba97f96e	-0.0011594722
238	0x3c7ac854	0.015306551
239	0xbd2176a5	-0.03941979
240	0xbcc78f97	-0.024360461
241	0x3d11d765	0.035605807
242	0x3d38daea	0.045130648
243	0xbc8fb8df	-0.017544208
244	0x3d478c68	0.048717886
245	0xbb98b495	-0.004660199
246	0xbd5d057c	-0.05396031
247	0x3d07d3a3	0.033160817
248	0x3da10e96	0.0786411
249	0xbd8a15d6	-0.06742446
250	0xba0c672a	-0.0005355949
251	0x3b88b88d	0.004172391
252	0xbd110316	-0.035403334
253	0xba0493b8	-0.0005057412
254	0x3d2a9c00	0.04165268
255	0xbbd5407a	-0.0065079303

convs.0.student_disrespect_student.root f4 [128, 128]
0	0xbd1c82c3	-0.03821064
1	0x3e083947	0.133031
2	0x3e208b96	0.15678248
3	0x3c23d947	0.010000533
4	0x3db23b24	0.087026864
5	0xbcce39de	-0.025174078
6	0x3c8a2a5d	0.016865904
7	0x3b9aa665	0.004719543
8	0x3cc066df	0.023486553
9	0x3e5202ef	0.20508932
10	0x3b60a5de	0.0034278552
11	0xbb259330	-0.0025264733
12	0xbd479920	-0.048730016
13	0xbda25e87	-0.07928186
14	0x3d4c935e	0.049945228
15	0xbd0b36bf	-0.033987757
16	0xbe5f848b	-0.21827905
17	0x3daa6369	0.08319742
18	0x3e28e180	0.16492271
19	0x3e07481e	0.13211104
20	0x3d2decd3	0.04246218
21	0xbdfb35d4	-0.12266126
22	0x3d5ba917	0.053628054
23	0x3ce2c97b	0.027683964
24	0x3ca53de7	0.020171119
25	0xbbf6fd48	-0.0075375177
26	0xbe111658	-0.1416868
27	0xbe51bdb7	-0.20482527
28	0xbb958e58	-0.004564088
29	0xbd5bfbf1	-0.053707067
30	0x3c5779f0	0.013151631
31	0xbd659089	-0.056046043
32	0x3c41ad18	0.011821054
33	0x3bec28fd	0.0072070346
34	0xbcb6ea30	-0.022328466
35	0xbd6ea64d	-0.058264066
36	0xbcc0294e	-0.023457196
37	0xbdc42c36	-0.09578745
38	0x3ccdf941	0.025143268
39	0xbbcc79cc	-0.0062401053
40	0x3e555921	0.20834781
41	0xbdbbbfa0	-0.09167409
42	0x3e035fa6	0.12829456
43	0x3b1a1e91	0.0023516754
44	0x3d77b3b0	0.060474098
45	0xbddbfad0	-0.10741198
46	0xbe366076	-0.17810234
47	0xbd02c310	-0.031924307
48	0xbc92942c	-0.01789292
49	0x3d185096	0.037186228
50	0x3d1f1a97	0.038843717
51	0x3c344f36	0.0110052135
52	0x3dea450f	0.11438953
53	0xb9898c87	-0.00026235377
54	0xbc8f427b	-0.017487755
55	0x3d07ff63	0.03320254
56	0xbcebd10d	-0.028786207
57	0xbc31cd67	-0.010852194
58	0x3a502866	0.000794059
59	0xbc9a98b1	-0.018871637
60	0xbdca6ae5	-0.0988367
61	0xbd7080e0	-0.058716655
62	0xbcccbdb9	-0.02499281
63	0x3d0e5131	0.0347454
64	0xbd1751ff	-0.036943432
65	0x3d3cb5fd	0.046071995
66	0x3dd8879c	0.105727404
67	0xbe3010f6	-0.1719397
68	0x3d190714	0.037360266
69	0x3dd6dec6	0.104917094
70	0xbbb8956f	-0.0056330482
71	0xbde93850	-0.11387694
72	0x3cff877e	0.031192537
73	0x3e1d708d	0.15374966
74	0xb961e3e2	-0.00021542565
75	0x3dba3c07	0.090934806
76	0xbc75600a	-0.014976511
77	0xbccc1029	-0.02491005
78	0x3e590c89	0.21196188
79	0xbe23557c	-0.15950578
80	0xbe223f9d	-0.15844579
81	0xbda94fb9	-0.08267159
82	0xbe39f5d0	-0.18160176
83	0xbdc193e0	-0.09452033
84	0x3cbb7258	0.022881672
85	0xbb83d09e	-0.004022672
86	0xbd809393	-0.062781475
87	0x3c1c231f	0.009529858
88	0x3dfd1e70	0.12359321
89	0xbd8d2fb8	-0.06893867
90	0xbe00706e	-0.12542889
91	0x3da4d814	0.08049026
92	0xbcbf7062	-0.023369018
93	0x3d242ee5	0.040083785
94	0x3c649e8f	0.013953819
95	0xbc78de96	-0.015189787
96	0x3e662210	0.22473931
97	0x3d07eecc	0.03318672
98	0xbe1ba80d	-0.15200825
99	0x3b31cc7e	0.0027129943
100	0xbd5b46d7	-0.053534355
101	0xbc2a284a	-0.010385582
102	0xbdddf51e	-0.10837768
103	0xbd23ecb6	-0.040020667
104	0xbabefde7	-0.0014571518
105	0xbd90ad18	-0.07064265
106	0xbd51834b	-0.0511506
107	0xbc87ac23	-0.016561573
108	0x3de7515d	0.11294816
109	0xbcd8155c	-0.026377372
110	0x3e284474	0.16432363
111	0x3e8c4dc4	0.2740308
112	0xbe11df57	-0.14245354
113	0x3e3c7e38	0.18407524
114	0xbdffdab6	-0.12492888
115	0x3ba94424	0.0051655937
116	0xbdb01ded	-0.08599458
117	0x3ce9db56	0.02854697
118	0x3de3bae8	0.11119634
119	0xbbc5c82d	-0.0060358257
120	0xbe32b405	-0.17451485
121	0xbe02fb6f	-0.12791227
122	0xbcad0fa5	-0.021125624
123	0xbab05760	-0.0013453774
124	0xbbfece8f	-0.0077760885
125	0x3a2548e4	0.0006305112
126	0xbdd998c5	-0.106248416
127	0x3b8eed29	0.004361768
128	0xbe45d491	-0.19319369
129	0x3e05ad5e	0.13054416
130	0x3d87d348	0.066320956
131	0x3b825587	0.003977481
132	0x3d2e9067	0.04261818
133	0xbdb47b55	-0.08812586
134	0xbc7675d6	-0.015042743
135	0x3ceb6487	0.028734459
136	0x3c9d322c	0.019188963
137	0x3c3be19a	0.011467362
138	0xbd80d6d7	-0.062909774
139	0xba188d9d	-0.0005819442
140	0xbd2a9c99	-0.04165325
141	0xbda1d802	-0.07902528
142	0xbd3d897c	-0.046273693
143	0xbc955edd	-0.01823371
144	0xbd2f48d5	-0.042794067
145	0x3d4b3e84	0.049620166
146	0x3dc4c508	0.09607893
147	0x3e3e83d6	0.18604979
148	0x3e1accf7	0.1511725
149	0xbca32e6d	-0.019919598
150	0x3d8aaf5a	0.06771727
151	0xbe1013f3	-0.1407011
152	0xbe568fc9	-0.20953287
153	0xbd18318e	-0.037156634
154	0xbc7a5e65	-0.0152812945
155	0xbd1a41de	-0.037660472
156	0x3ccb591f	0.02482277
157	0xbd786a56	-0.060648285
158	0xbe423f66	-0.18969497
159	0x3cc8cddb	0.024512222
160	0xbdffa39e	-0.124823794
161	0xbd89f872	-0.0673684
162	0xbb6a951f	-0.003579445
163	0xbe09aacc	-0.1344406
164	0xbdf2be6c	-0.11852726
165	0xbe39054c	-0.18068427
166	0xbc7ae931	-0.015314386
167	0x3ae38058	0.0017356975
168	0x3e21c356	0.15797171
169	0xbccc3fcb	-0.024932763
170	0xbd74759e	-0.05968248
171	0xbb15ce83	-0.0022858686
172	0x3d59e4f3	0.05319686
173	0xbe3cbd7c	-0.18431658
174	0x3d2b6c0f	0.0418511
175	0x3c9b2831	0.018940063
176	0xbd8c1253	-0.068394326
177	0xbca69b82	-0.020337824
178	0xbda75adf	-0.08171629
179	0x3daad123	0.08340671
180	0x3db06945	0.086138286
181	0xba2aacd6	-0.000651074
182	0x3c875f24	0.016524859
183	0x3d7c61fa	0.061616875
184	0xbe053fc3	-0.13012604
185	0xbb7ccacb	-0.0038573022
186	0x3a4319b1	0.0007442488
187	0xbd186024	-0.03720106
188	0x3daa81be	0.083255276
189	0xbe2298fc	-0.15878671
190	0x3d1fd9cf	0.039026078
191	0xbe33a960	-0.1754508
192	0xbd2883d7	-0.041141357
193	0xbc803b5e	-0.015653308
194	0xbcd0ea86	-0.025502454
195	0xbd953afe	-0.072866425
196	0xbce79dac	-0.028273426
197	0xbc98b245	-0.018639693
198	0x3d8d8914	0.06910911
199	0x3d18ae22	0.03727544
200	0xbe545a52	-0.2073758
201	0xbd15a212	-0.036531515
202	0xbbdc0e58	-0.006715577
203	0x3d8aa1b0	0.06769121
204	0xbc6ba704	-0.014383081
205	0xbd3e7469	-0.046497736
206	0xbd5db1fd	-0.05412482
207	0x3c080cc7	0.008303828
208	0xbdd32737	-0.10310214
209	0x3d34119e	0.043962114
210	0xbe0aee21	-0.13567401
211	0xbd0457bc	-0.032310233
212	0x3d89ed92	0.06734766
213	0x3ca57c67	0.020200921
214	0x3cd8526c	0.02640649
215	0x3d1b5fb9	0.037933085
216	0x3e186bcf	0.14884876
217	0xbca232da	-0.019799639
218	0xbc449a28	-0.011999644
219	0xbe0440ce	-0.12915346
220	0x3e16d277	0.14728723
221	0x3e05e293	0.13074712
222	0xbd9448f1	-0.07240475
223	0xbd131fd5	-0.03591903
224	0x3e05b3ff	0.13056944
225	0xbc65bfd4	-0.014022786
226	0x3dc8c6d5	0.09803549
227	0xbb37c25a	-0.0028039427
228	0xbde1f3c5	-0.110328235
229	0x3d309faf	0.043121036
230	0xbd1b7f9c	-0.037963495
231	0xbd1bbfb8	-0.038024634
232	0x3b83a79a	0.0040177824
233	0x3d1081b5	0.03527995
234	0x3c2f960f	0.010716929
235	0xbd853152	-0.06503548
236	0x3e1e7d94	0.15477592
237	0xbc0f3e1f	-0.008742838
238	0x3e642d30	0.22282863
239	0x3d0fef45	0.035140295
240	0x3d12a603	0.035802852
241	0x3e17c819	0.14822425
242	0xbc708b6e	-0.01468168
243	0x3cd37f3d	0.025817508
244	0xbc9b9b82	-0.01899505
245	0x3c08458d	0.008317363
246	0x3d9b395a	0.07579298
247	0xbe02e0ef	-0.12781118
248	0xbd7e94f6	-0.06215378
249	0xbbdd31c8	-0.006750319
250	0xbc26caa4	-0.010180149
251	0xbb9bce4a	-0.004754816
252	0xbe0bd224	-0.13654381
253	0xbb21c5d8	-0.0024684574
254	0x3dd68d95	0.104762234
255	0x3bf7c993	0.0075618713

convs.0.student_disrespect_student.bias f4 [128]
0	0x3c296ac2	0.010340394
1	0xbcc2721b	-0.02373605
2	0xbbed1192	-0.0072347606
3	0xbd22b035	-0.039718825
4	0xbc31162e	-0.010808511
5	0xbb143e7b	-0.002262025
6	0xbc1dea04	-0.009638313
7	0xbc82d2ba	-0.015969623
8	0xbbb15e90	-0.005412884
9	0xbc8dfa48	-0.017331257
10	0xbd07daea	-0.033167757
11	0xbcafc2b0	-0.021455139
12	0xbcab47ac	-0.0209082
13	0x3c753cdb	0.014968122
14	0xbd4362ad	-0.047701526
15	0xbd410615	-0.04712494
16	0x3cdefbfa	0.027219761
17	0xbd0c5a0a	-0.034265555
18	0xbce24577	-0.027621014
19	0xbce95807	-0.028484358
20	0xbc4d80a4	-0.012542877
21	0x3d046bbb	0.032329302
22	0x3c4a13fc	0.012333866
23	0xbcae0f7f	-0.021247623
24	0xbaacc17e	-0.0013180224
25	0xbc0e058d	-0.008668316
26	0x3d071da4	0.032987252
27	0x3d1a55b7	0.0376794
28	0x3bb36750	0.0054749623
29	0xbd6cd78b	-0.057822745
30	0xbce7b08d	-0.028282428
31	0x3d0af907	0.033928897
32	0xbd74e38a	-0.05978731
33	0xbd34c42f	-0.044132408
34	0xbd434b77	-0.04767939
35	0xbd0b07d9	-0.03394303
36	0xbd4cb5b8	-0.049977988
37	0xbc91b6fa	-0.017787445
38	0xbd368873	-0.044563722
39	0xbd134234	-0.035951808
40	0xbd698c9d	-0.057018865
41	0xbbfcf24c	-0.0077193137
42	0xbc868752	-0.016421948
43	0xbd3cc18c	-0.04608302
44	0xbc524ce1	-0.012835712
45	0xbc8ab200	-0.01693058
46	0x3bd8f17a	0.006620583
47	0x3d19e6c7	0.037573602
48	0xbd0a4aef	-0.03376287
49	0xbcf4af80	-0.029868841
50	0xbd2fe1c9	-0.042939935
51	0xbd6241ae	-0.05523842
52	0xbd1924ef	-0.03738874
53	0xbbccc687	-0.0062492522
54	0x3cafcdf5	0.021460513
55	0xbcc46610	-0.023974448
56	0xbd053fc4	-0.032531515
57	0xbc661a86	-0.01404441
58	0xbcf9b7ca	-0.030483145
59	0xbd1a942b	-0.03773896
60	0x3d08a49e	0.033360116
61	0xbc21e060	-0.009880155
62	0xbab52c6c	-0.0013822443
63	0x3c8fc48e	0.01754978
64	0xbd6aba7f	-0.057306763
65	0xbd26001f	-0.04052746
66	0xbd7df19b	-0.06199799
67	0xbc65373d	-0.013990221
68	0xbd2de931	-0.042458717
69	0xbd21525c	-0.039385185
70	0x3c6bf0ad	0.014400643
71	0x3c92dd75	0.017927865
72	0xbcabd9c2	-0.020977858
73	0xbcb4f075	-0.022087315
74	0xbd1871c2	-0.037217863
75	0xbbe76e25	-0.007062691
76	0xbd079905	-0.033104915
77	0xbd40856c	-0.04700224
78	0xba015204	-0.0004933181
79	0x3c8b6bf9	0.017019259
80	0xbcc03982	-0.023464922
81	0x3c934a13	0.017979657
82	0x3ca97df7	0.020689948
83	0x3ccc977d	0.024974579
84	0xbcfa531c	-0.030557208
85	0x3b26e204	0.0025464306
86	0xbd30fb82	-0.043208607
87	0xbd01dffe	-0.031707756
88	0xbcad0954	-0.021122612
89	0x3c705d65	0.0146707045
90	0xbce3b53c	-0.02779638
91	0xbb28b2d4	-0.0025741355
92	0x3d28de3b	0.04122756
93	0xbd18f828	-0.037346035
94	0x3b49a077	0.003076581
95	0xbd8518b8	-0.06498855
96	0xbcfd7abd	-0.030942315
97	0xbd881b0f	-0.06645786
98	0x3cfb9f5c	0.030715637
99	0xbc865fed	-0.016403163
100	0x3ca8a40f	0.020586042
101	0x3cfa07e3	0.030521339
102	0x3d6b18e3	0.05739678
103	0xbc1581f7	-0.009125224
104	0xbd5ec474	-0.05438657
105	0x38cc8ee4	9.7540935e-05
106	0xbcc4c43e	-0.024019357
107	0xbd897a3d	-0.06712768
108	0xbd279da0	-0.040921807
109	0xbc9dfdd6	-0.019286077
110	0xbbc047a1	-0.005867914
111	0xbd0bb563	-0.03410853
112	0xbd296a54	-0.041361168
113	0xbcc6e25f	-0.024277864
114	0x3a069120	0.00051333196
115	0xbd0f0c76	-0.034923993
116	0x3ce1aed0	0.027549177
117	0xbd2d8d9e	-0.042371385
118	0xbce3f74a	-0.027827878
119	0xbcab19a8	-0.020886257
120	0xbcff64b2	-0.031175945
121	0x3b8398e9	0.004016031
122	0xbd01bcd4	-0.03167422
123	0xbc4dd0f7	-0.012562028
124	0x3c41678d	0.011804474
125	0xbb3d76b0	-0.0028909855
126	0x3c5fbc84	0.0136557855
127	0xbcb04695	-0.021518031
