app/ml_models/Clustering/output/social_wellbeing_rgcn_classifier.pt (torch, 798263 bytes, 16 tensors)

embeddings.student.weight f4 [128, 4]
-0.30357432 -0.152834 -0.39491922 0.1194678 0.39447793 -0.51333755 -0.024329063 0.39285383
0.10147621 -0.090182856 0.3841981 0.16768152 0.10261768 -0.028621977 -0.06042544 -0.007803685
0.0154102845 -0.21638286 0.1744308 0.4567016 -0.12029429 -0.015340969 0.10970595 -0.16083133
0.06901901 0.041050512 -0.3373106 -0.13474242 0.27863127 0.3289281 0.10990641 -0.3952226
-0.22317375 -0.4810953 -0.06484339 0.16895682 0.3254759 0.09495785 -0.47730884 -0.24939616
-0.16783032 0.5066686 0.16215819 -0.16616847 0.2794252 -0.31344935 -0.46238217 0.41144267
-0.13474698 -0.121620014 -0.38533163 0.38924798 0.37651893 0.10168006 -0.36474478 -0.37891734
-0.49442244 0.45689988 0.37746105 0.25254235 0.17178449 0.12377184 0.061475005 -0.32121885
-0.46311063 -0.31317365 0.35106385 -0.29062414 -0.047810886 -0.20797463 -0.0024192873 -0.30095288
-0.3825929 0.2860244 0.024221873 0.18606125 -0.16065876 -0.40454793 -0.22669812 -0.24864994
-0.20618767 -0.34252968 0.42193574 -0.26800188 0.17883824 0.22604692 0.4688604 -0.38715047
0.35168082 -0.20994996 0.17459685 0.531592 -0.020828525 -0.036626816 -0.103894964 -0.34596246
0.18761057 -0.3581695 0.23948753 0.32007697 0.42898127 -0.2641929 -0.45537224 0.18530862
0.35390362 -0.54338616 -0.19827117 -0.23530746 0.035532445 -0.239472 -0.20784777 -0.1803932
-0.49577537 0.54146546 0.56918484 -0.20711808 0.03778563 -0.27895522 -0.55391896 -0.42996398
0.14735985 -0.34143218 -0.37713233 0.06470615 -0.036987226 -0.007768179 -0.010905139 -0.03492587
-0.21479264 -0.23904316 -0.31664234 0.4096749 -0.16121809 0.09368004 -0.14194807 0.028523024
0.42867333 0.17845166 -0.4436075 0.14225253 0.40024298 0.052659538 0.25166786 0.49618304
-0.013851794 0.08264993 -0.260139 -0.03480419 0.28119725 0.31077674 -0.20315579 -0.4027387
-0.2551037 -0.48397535 -0.27021956 -0.0810027 0.23295595 -0.012450819 -0.36934316 -0.34768322
0.18424456 -0.3679754 -0.17097287 0.25212264 -0.26305163 0.039770108 0.089290105 -0.12886608
-0.23658329 -0.50987995 -0.43464938 -0.29051456 0.46722364 -0.3023488 -0.3190013 0.19998863
0.1369774 0.1701124 0.36517328 0.25844404 -0.55958736 -0.033031035 0.36016905 -0.09616222
-0.3658142 0.4932965 -0.20086993 -0.2859701 -0.43572664 0.1222227 0.20400916 0.029521598
0.08452687 -0.36502373 -0.4673576 0.024835424 0.41438413 0.17020406 -0.37132126 0.04585271
-0.31508696 -0.08300446 0.18066962 0.14003222 0.30497468 -0.36849886 0.42948982 -0.26284206
0.14130986 0.36115912 0.054011382 0.34710276 -0.39712733 -0.07884927 0.33233055 -0.16363716
-0.16623476 -0.089495756 0.41099286 0.09099318 0.14117867 -0.37792727 -0.4088792 0.11368332
0.12852012 -0.27627337 -0.2902603 0.38782522 0.0019706332 0.047444537 -0.10161515 -0.3804393
-0.46784335 -0.3716376 -0.24313484 0.19141847 -0.08847709 -0.1687531 0.42355916 0.070615984
0.2660279 -0.35081273 -0.31694975 0.27397648 -0.25291312 -0.20285971 0.11594786 -0.11057521
-0.42214096 0.3151186 0.43611532 -0.010052779 0.027183473 -0.47618517 -0.2560355 0.18196818
00000000: 186e 9bbe 8480 1cbe da32 cabe 89ab f43d
00000010: 03f9 c93e 176a 03bf be4d c7bc 2324 c93e
00000020: c2d2 cf3d cab1 b8bd 9db5 c43e b4b4 2b3e
00000030: 3829 d23d a378 eabc ab80 77bd 0eb6 ffbb
00000040: 6b7b 7c3c 7893 5dbe fd9d 323e cbd4 e93e
00000050: da5c f6bd b058 7bbc 83ad e03d f8b0 24be
00000060: d759 8d3d 9524 283d fab3 acbe ebf9 09be
00000070: c2a8 8e3e 4469 a83e 9d16 e13d 9e5a cabe
00000080: a987 64be 2052 f6be 9ccc 84bd 0403 2d3e
00000090: c7a4 a63e 4379 c23d d361 f4be b561 7fbe
000000a0: b6db 2bbe 09b5 013f cc0c 263e 1128 2abe
000000b0: d210 8f3e 6f7c a0be 5bbd ecbe 9da8 d23e
000000c0: 1dfb 09be ea13 f9bd 304a c5be 834b c73e
000000d0: 17c7 c03e a33d d03d d4bf babe 7401 c2be
000000e0: f024 fdbe c8ee e93e 9342 c13e 3b4d 813e
000000f0: 46e8 2f3e 177c fd3d 37cd 7b3d cc76 a4be
00000100: d61c edbe 4c58 a0be a4be b33e b0cc 94be
00000110: 59d5 43bd 4df7 54be e88c 1ebb 7f16 9abe
00000120: 37e3 c3be ca71 923e f36c c63c d786 3e3e
00000130: bb83 24be e820 cfbe 8d23 68be 179e 7ebe
00000140: dc22 53be 0d60 afbe f607 d83e 8b37 89be
00000150: 5f21 373e d878 673e 780e f03e 9638 c6be
00000160: 820f b43e 1ffd 56be 84c9 323e 6a16 083f
00000170: 95a0 aabc 0006 16bd e2c6 d4bd fe21 b1be
00000180: fc1c 403e fe61 b7be 383c 753e 21e1 a33e
00000190: 6fa3 db3e 4b44 87be 8d26 e9be 8bc1 3d3e
000001a0: db32 b53e 5b1b 0bbf 9907 4bbe 70f4 70be
000001b0: 788a 113d 2638 75be 0cd6 54be ffb8 38be
000001c0: 45d6 fdbe 7b9d 0a3f 19b6 113f c316 54be
000001d0: 1bc5 1a3d 38d3 8ebe a2cd 0dbf 3d24 dcbe
000001e0: 80e5 163e 33d0 aebe 7d17 c1be a884 843d
000001f0: eb7f 17bd 358c febb 78ab 32bc 6e0e 0fbd
00000200: 9af2 5bbe bbc7 74be f21e a2be e9c0 d13e
00000210: 5b16 25be 52db bf3d d65a 11be 1ea9 e93c
00000220: 127b db3e 08bc 363e 8620 e3be a6aa 113e
00000230: a6ec cc3e 87b1 573d 9cda 803e b40b fe3e
00000240: a3f2 62bc 5e44 a93d f030 85be d78e 0ebd
00000250: 16f9 8f3e 211e 9f3e 1208 50be c433 cebe
00000260: f49c 82be 9ecb f7be 385a 8abe bee4 a5bd
00000270: 018c 6e3e 85fe 4bbc 8c1a bdbe 8903 b2be
00000280: 9baa 3c3e 4667 bcbe 8313 2fbe 3816 813e
00000290: b4ae 86be fbe5 223d bbdd b63d 78f5 03be
000002a0: e442 72be 7e87 02bf 5d8a debe 53be 94be
000002b0: f037 ef3e 76cd 9abe 2354 a3be d2c9 4c3e
000002c0: ce43 0c3e f231 2e3e fef7 ba3e c752 843e
000002d0: 1e41 0fbf 8d4b 07bd 1468 b83e b3f0 c4bd
000002e0: 004c bbbe 5c91 fc3e d9b0 4dbe ac6a 92be
000002f0: 9017 dfbe e54f fa3d c7e7 503e 47d7 f13c
00000300: 6c1c ad3d 64e4 babe 7f49 efbe a973 cb3c
00000310: 282a d43e f949 2e3e d21d bebe 0dd0 3b3d
00000320: 1453 a1be 3efe a9bd 7501 393e 9b64 0f3e
00000330: a425 9c3e e2ab bcbe 17e6 db3e 3c93 86be
00000340: 88b3 103e d9e9 b83e 0a3b 5d3d 74b7 b13e
00000350: 4654 cbbe ba7b a1bd 3b27 aa3e 8090 27be
00000360: 7239 2abe 8d49 b7bd a86d d23e a25a ba3d
00000370: 2491 103e af7f c1be 9d58 d1be cdd2 e83d
00000380: c79a 033e b473 8dbe ff9c 94be 0791 c63e
00000390: bd25 013b 3455 423d 9b1b d0bd f1c8 c2be
000003a0: 2a89 efbe 4947 bebe 57f8 78be 3403 443e
000003b0: 7a33 b5bd 9dcd 2cbe bfdc d83e 1d9f 903d
000003c0: cf34 883e ba9d b3be 3d47 a2be a546 8c3e
000003d0: d47d 81be 75ba 4fbe 1276 ed3d 4175 e2bd
000003e0: dc22 d8be 3a57 a13e 824a df3e 69b4 24bc
000003f0: e0af de3c 8bce f3be 1617 83be de55 3a3e

embeddings.student.bias f4 [128]
-0.40030128 -0.09601035 -0.40907025 -0.22283009 0.11886825 0.37859288 -0.007379838 0.43944192
0.03428812 0.27852592 0.37039438 0.43515018 -0.36042088 0.37191635 0.25941524 -0.30725262
-0.1999537 -0.3812267 0.039523344 -0.30241948 0.13999699 0.1433297 -0.30483583 0.063429855
-0.13527843 0.28850806 0.28733766 -0.41827047 0.45192528 0.38463625 0.21186034 -0.16742069
-0.24559093 -0.17625281 -0.13522466 0.23115343 0.13832971 0.28830907 -0.29284558 0.12784807
0.1891397 -0.34008503 -0.44338226 -0.21760705 0.25167942 -0.36341295 -0.3938351 0.22548144
0.23729458 0.36912096 -0.38352975 -0.3924998 0.12943983 0.3843891 0.24950092 0.14255135
0.18970656 0.4156098 -0.29132357 -0.25815958 0.38834196 -0.38776493 -0.21569078 0.36674348
0.23747255 0.03817634 -0.15503271 0.0721553 0.4571181 -0.2928206 0.03942236 0.283851
-0.3106632 0.36299655 -0.25031134 -0.13121438 -0.081355356 -0.3374668 -0.46863148 0.21706957
0.11201497 -0.4425236 -0.36020824 0.34952465 0.10053972 0.16008079 -0.28613943 -0.21627916
-0.10461334 -0.05968902 -0.32793 -0.009071007 0.003372689 -0.037656784 0.008700938 -0.25192806
0.0869779 0.21422893 -0.32786977 -0.45085785 0.2963246 0.088051446 -0.31778196 0.40138233
-0.28903404 0.316959 0.22830266 -0.39401573 0.22317965 -0.36782074 -0.2935444 -0.11963976
-0.3833538 0.44199166 -0.15472718 0.10955837 -0.42854038 0.22783281 -0.21262024 -0.32738632
0.05291633 0.17548388 0.4038378 -0.25389326 -0.24778263 0.13508783 0.044481162 0.14982875
00000000: 4af4 ccbe 13a1 c4bd a871 d1be 922d 64be
00000010: 3271 f33d edd6 c13e 91d2 f1bb 88fe e03e
00000020: b371 0c3d f39a 8e3e 55a4 bd3e 01cc de3e
00000030: 1689 b8be d26b be3e 13d2 843e 3750 9dbe
00000040: aac0 4cbe 2530 c3be 3be3 213d bad6 9abe
00000050: 5f5b 0f3e 05c5 123e 7113 9cbe 83e7 813d
00000060: 6e86 0abe 54b7 933e ec1d 933e 8c27 d6be
00000070: c062 e73e 0bef c43e ebf1 583e 5470 2bbe
00000080: 307c 7bbe 9e7b 34be 5578 0abe 7cb3 6c3e
00000090: 4ea6 0d3e 3f9d 933e dbef 95be 9bea 023e
000000a0: d6ad 413e a01f aebe 0003 e3be 62d4 5ebe
000000b0: 20dc 803e 4311 babe c1a4 c9be 9be4 663e
000000c0: 5afd 723e 6cfd bc3e 035e c4be bcf5 c8be
000000d0: e08b 043e a6ce c43e 2b7d 7f3e fbf8 113e
000000e0: 7042 423e cfca d43e 5d28 95be 7e2d 84be
000000f0: c2d4 c63e 2089 c6be 0bde 5cbe cdc5 bb3e
00000100: 012c 733e cb5e 1c3d e5c0 1ebe 28c6 933d
00000110: 620b ea3e 95ec 95be 5779 213d eb54 913e
00000120: 3f0f 9fbe afda b93e cf28 80be 105d 06be
00000130: a39d a6bd 73c8 acbe 77f0 efbe 7c47 5e3e
00000140: 1b68 e53d 7492 e2be 376d b8be e5f4 b23e
00000150: c5e7 cd3d 38ec 233e de80 92be 4978 5dbe
00000160: 853f d6bd 797c 74bd 71e6 a7be 909e 14bc
00000170: 5508 5d3b 003e 1abd 618e 0e3c b7fc 80be
00000180: 7821 b23d d45e 5b3e 8cde a7be d7d6 e6be
00000190: dcb7 973e 5154 b43d 51b4 a2be fc81 cd3e
000001a0: 45fc 93be 7348 a23e 2cc8 693e 6ebc c9be
000001b0: 3589 643e 0053 bcbe 744b 96be b105 f5bd
000001c0: f346 c4be bb4c e23e cd70 1ebe 2460 e03d
000001d0: a569 dbbe 014d 693e 1fb9 59be 2e9f a7be
000001e0: cbbe 583d 0cb2 333e d4c3 ce3e 4cfe 81be
000001f0: bbba 7dbe 7754 0a3e e131 363d b56c 193e

convs.0.student_friend_student.weight f4 [2, 128, 128]
-0.010081199 -0.03531103 0.04079324 -0.013510411 0.008119375 0.064067535 0.0027618457 -0.015464664
-0.040209074 0.0015173118 -0.009290159 -0.035996843 0.034614295 -0.049297303 -0.0114359455 -0.019243851
-0.0008536351 -0.0016037121 -0.0024940467 0.0035663005 0.0017915346 0.01997887 0.014720876 -0.024001231
-0.010819695 -0.036775157 -0.013059132 -0.091809385 -0.00029049936 0.021588743 -0.004226113 0.0020815916
0.0019672401 -0.015484586 0.019439556 0.0073818862 0.022870926 -0.009730119 -0.0889625 -0.0092297215
-0.05475589 0.006976369 -0.014845021 -0.0007603832 0.026906725 0.011201232 -0.0159043 -0.038669717
0.078939565 -0.013364592 -0.03335041 -0.013753236 -0.014328822 -0.002399915 0.0006938771 -0.056385696
0.0018525517 -0.018193293 -0.015590192 -0.006127618 -0.020967172 -0.020156102 0.0048118685 0.007839327
0.019776717 0.0016695053 0.03028142 0.0041329283 0.0054925503 0.038791697 -0.010075112 0.06177591
-0.012901668 0.0020699522 -0.073498495 -0.0030341898 0.007714528 0.0071649556 0.0067423983 0.014955769
-0.008113462 -0.0018377118 0.02063689 0.026557978 -0.003932772 -0.030926816 0.073507644 0.003548666
0.0148420995 -0.016756386 -0.0106386 -0.0023799795 -0.013249701 0.0018466169 -0.0024599137 0.0130857825
-0.039023835 -0.015911518 0.010978544 -0.008665392 0.027086569 0.009732528 0.008499679 -0.009627851
0.009189678 0.005553761 -0.024874585 -0.018150445 -0.050404806 -0.007824478 0.012633126 0.025780724
0.0022091127 -0.007559593 -0.02756259 -0.023922259 0.05769607 -0.0305483 0.00905332 -0.0116642425
0.0029765333 -0.0221724 -0.039737083 -0.012584392 0.0025371646 -0.033020217 -0.057133812 -0.005516206
-0.10280162 -0.08188315 -0.089127995 -0.019528652 -0.052283216 -0.115093865 -0.13934025 -0.009075833
-0.05230013 -0.098332144 0.11929271 0.0011952397 0.058122355 -0.1572975 -0.15121466 -0.0535207
-0.016611353 0.007511066 -0.11779229 -0.037286174 0.015872288 -0.043167066 -0.04749632 0.051369358
-0.011672514 -0.0035664705 -0.027692381 -0.02124338 -0.0052307774 -0.0050441097 -0.009117163 -0.042918462
-0.017135773 0.0084376475 -0.0033256912 0.013214824 0.10914869 0.14203753 0.031086091 -0.08068395
0.05269183 -0.015211177 -0.1359863 -0.044071328 -0.113836914 0.014673996 0.022882648 -0.08581569
-0.015010575 0.04542959 -0.078904316 -0.075806856 0.012507443 -0.0015498615 -0.004343346 0.0116039
-0.041693892 -0.070449 0.0017088132 -0.07204661 -0.06501296 -0.043426875 -0.0077370126 -0.03671245
-0.000342588 0.011483737 -0.07241572 0.007749366 0.07043882 -0.090357065 -0.059327643 -0.0011278859
-0.029861394 -0.009922341 -0.12014935 -0.008776774 0.09785789 -0.012822911 -0.096699044 -0.0037346177
-0.15317398 0.0057448335 0.110426255 0.01370276 0.048349176 -0.07324234 0.029469516 -0.08766801
0.029649178 -0.10649952 -0.054610487 0.008293571 -0.029341146 0.16818336 -0.008454977 -0.08062468
0.012814324 -0.006364723 -0.14721413 0.08434825 -0.031734556 -0.037678763 -0.023544548 -0.09112401
-0.02938645 -0.0052618003 -0.0016455421 -0.062136333 0.13623168 -0.015570897 -0.055410337 -0.033846814
-0.000747558 -0.0040468853 -0.029898083 -0.08498101 -0.035984907 -0.14733839 -0.07574807 0.08239197
-0.019309074 0.061253227 -0.08882825 0.01429534 -0.043091256 0.07274568 0.077588685 0.0072624595
00000000: 9d2b 25bc 4ca2 10bd d016 273d c55a 5dbc
00000010: 2107 053c d735 833d 1500 353b 815f 7dbc
00000020: 45b2 24bd 89e0 c63a c035 18bc 6d71 13bd
00000030: b8c7 0d3d f8eb 49bd d55d 3bbc 48a5 9dbc
00000040: 7bc6 5fba a633 d2ba 2973 23bb 98b8 693b
00000050: edd1 ea3a baaa a33c d42f 713c 3b9e c4bc
00000060: 1745 31bc 8ca1 16bd f8f5 55bc 8f06 bcbd
00000070: 2a4e 98b9 e0da b03c 357b 8abb 506b 083b
00000080: d0ec 003b 10b3 7dbc b43f 9f3c c0e3 f13b
00000090: cf5b bb3c 146b 1fbc f931 b6bd 4238 17bc
000000a0: b647 60bd 069a e43b 8838 73bc 7454 47ba
000000b0: 7e6b dc3c 5f85 373c bc49 82bc 2364 1ebd
000000c0: 11ab a13d 29f7 5abc 719a 08bd 4155 61bc
000000d0: 6fc3 6abc e447 1dbb 4ee5 353a b0f4 66bd
000000e0: 52d1 f23a 1a0a 95bc 016e 7fbc 2fca c8bb
000000f0: 59c3 abbc 691e a5bc e1ac 9d3b 8570 003c
00000100: c802 a23c 4dd3 da3a be10 f83c 846d 873b
00000110: dafa b33b 0be4 1e3d 1512 25bc bd08 7d3d
00000120: 8561 53bc 09a8 073b 6186 96bd 42d9 46bb
00000130: 27ca fc3b 01c8 ea3b 56ef dc3b 0b09 753c
00000140: 53ee 04bc 60df f0ba b20e a93c 1e90 d93c
00000150: 7cde 80bb 3c5a fdbc 2d8b 963d bc90 683b
00000160: 472c 733c b044 89bc 864d 2ebc 6ef9 1bbb
00000170: 4615 59bc 2e0a f23a 8136 21bb c065 563c
00000180: 75d7 1fbd df58 82bc 5adf 333c 4af9 0dbc
00000190: a7e4 dd3c 2e75 1f3c 3d42 0b3c 22be 1dbc
000001a0: 4e90 163c 53fc b53b c9c5 cbbc 3eb0 94bc
000001b0: 4575 4ebd 3d32 00bc 2cfb 4e3c 1932 d33c
000001c0: c3c6 103b 76b6 f7bb f1ca e1bc 9df8 c3bc
000001d0: b752 6c3d 6e40 fabc 6054 143c 611b 3fbc
000001e0: f111 433b e5a2 b5bc 5ac3 22bd c42e 4ebc
000001f0: 8f46 263b 3540 07bd 2505 6abd 4ac1 b4bb
00000200: a889 d2bd 5ab2 a7bd bd88 b6bd 8dfa 9fbc
00000210: ed26 56bd 55b6 ebbd 36af 0ebe cdb2 14bc
00000220: a938 56bd 5d62 c9bd bd4f f43d 97a9 9c3a
00000230: b511 6e3d 9912 21be 04d8 1abe 8638 5bbd
00000240: 8814 88bc 631f f63b 163d f1bd 63b9 18bd
00000250: 9a06 823c f3cf 30bd 808b 42bd ad68 523d
00000260: 123e 3fbc 72bb 69bb 22db e2bc 9906 aebc
00000270: f166 abbb 0f49 a5bb 2760 15bc 45cb 2fbd
00000280: 5260 8cbc 0f3e 0a3c d7f3 59bb fd82 583c
00000290: 5989 df3d 4972 113e 42a8 fe3c a03d a5bd
000002a0: 63d3 573d 4d38 79bc fe3f 0bbe 2384 34bd
000002b0: 5423 e9bd 336b 703c 6474 bb3c 23c0 afbd
000002c0: eaee 75bc 6114 3a3d 9698 a1bd a040 9bbd
000002d0: 05ec 4c3c b924 cbba a152 8ebb 491e 3e3c
000002e0: 37c7 2abd 9147 90bd 42fa df3a 2c8d 93bd
000002f0: 8425 85bd 61e0 31bd c486 fdbb cb5f 16bd
00000300: 629d b3b9 4926 3c3c b14e 94bd 65ee fd3b
00000310: 3a42 903d 200d b9bd 8b01 73bd 92d5 93ba
00000320: e29f f4bc 5191 22bc dd10 f6bd 75cc 0fbc
00000330: b869 c83d 3017 52bc 260a c6bd 7dc0 74bb
00000340: a4d9 1cbe 283f bc3b 2927 e23d 8b81 603c
00000350: c909 463d 1400 96bd 0e6a f13c 498b b3bd
00000360: d5e2 f23c 6c1c dabd 3faf 5fbd c2e1 073c
00000370: d85c f0bc 4238 2c3e be86 0abc 8d1e a5bd
00000380: 2cf3 513c 2b8f d0bb 4dbf 16be c6be ac3d
00000390: 18fc 01bd 0c55 1abd 7fe0 c0bc 3a9f babd
000003a0: dabb f0bc 2e6b acbb 3baf d7ba ab82 7ebd
000003b0: 5180 0b3e 131d 7fbc f3f5 62bd f5a2 0abd
000003c0: c5f7 43ba bc9b 84bb d3ec f4bc 860a aebd
000003d0: e964 13bd e0df 16be ce21 9bbd 1fbd a83d
000003e0: 102e 9ebc aae4 7a3d 96eb b5bd 0037 6a3c
000003f0: 7580 30bd b0fb 943d d1e6 9e3d edf9 ed3b

convs.0.student_friend_student.root f4 [128, 128]
0.0007270321 -0.071212545 -0.16420607 -0.005535143 0.0045666094 -0.0013644807 0.011120433 0.00015758048
0.08866946 -0.01715465 -0.013953438 -0.014111229 0.05605771 -0.008364075 -0.011410939 0.07943614
-0.012797431 0.07349984 -0.0035649133 -0.010940042 -0.0066715856 -0.115731694 0.0060319346 0.0063369838
0.0018546899 -0.13336614 0.034761377 0.02768369 0.025970606 -0.0069039185 -0.011092475 -0.009923758
-0.0025875361 -0.044532474 -0.12781747 -0.076415114 -0.17225268 0.13974945 0.07206599 -0.021482967
-0.01658078 -0.014847342 0.03723457 0.018599724 -0.03383016 -0.013032768 -0.008917042 -0.0046784426
-0.029103158 -0.03174144 -0.018466147 -0.008631616 -0.0033933362 -0.005895673 -0.002194198 0.056359317
-0.00049994874 0.018237412 0.022328908 -0.021594351 -0.13160343 0.062123545 -0.0077086883 0.0035161776
0.04760754 0.017064843 0.06974572 0.0011814379 -0.14286259 -0.013889915 -0.038807705 -0.041359797
-0.005185606 0.014664111 -0.039568912 -0.004699265 0.012173528 0.0006325137 -0.013296037 -0.054929525
-0.020199466 0.0007101075 -0.0581522 -0.02944709 0.07768554 -0.035662256 0.17833833 0.13883318
-0.005476374 -0.04526054 -0.0094698975 -0.013829777 0.002850553 -0.024344038 -0.006074158 -0.009693719
-0.0035420228 -0.0021642256 -0.14549257 0.0073996345 -0.021543903 -0.0049667014 -0.03301818 -0.031964805
-0.009914045 0.0050529325 -0.10076312 0.054162264 0.11738151 0.0413247 0.001298144 -0.076639816
0.0022072282 0.0027038527 0.06136246 -0.014096844 -0.042484798 0.044735078 -0.002212427 -0.060667314
0.0013197812 -0.04088632 0.08686554 -0.015613236 -0.008877843 0.12445693 0.018683579 -0.0044332473
-0.054726727 -0.064373635 -0.21325524 0.01894114 0.027385106 0.040991526 0.06890748 -0.045561478
0.17645216 0.015096446 -0.16347274 0.21946174 0.14001192 -0.026497995 -0.0032440086 -0.025957404
0.0067688837 0.047424175 0.050601084 0.026376769 0.014661606 -0.07083654 -0.10932886 -0.014948556
0.006420387 -0.073067226 0.004616963 0.113522366 0.03178638 -0.016935948 -0.027539894 0.017761104
-0.011435972 -0.18845111 -0.1551553 -0.02542713 -0.12126428 0.08167759 0.07173035 -0.008153489
-0.16159108 0.0019180477 -0.086929664 0.20123744 0.017401878 -0.046350546 -0.067249425 -0.16031884
-0.05959494 0.03911718 -0.15341529 0.024942575 0.055485614 0.0036874283 -0.0030587541 0.20195745
-0.022668114 -0.0060657016 -0.16282089 0.05494536 -0.07301662 0.029028716 0.016073983 -0.015824629
-0.10320491 0.006752573 -0.10047249 -0.00225684 0.0064979936 0.0068001477 -0.058075797 0.13975906
0.0127878655 0.07222456 0.102701485 0.006481892 -0.037685037 0.09732762 -0.08837066 0.06681019
-0.059296615 -0.013774992 -0.06933849 -0.11085107 0.11028823 0.060493298 0.07657023 0.18572025
0.051910773 -0.0403166 -0.1354775 0.013233516 -0.095086366 -0.21351364 -0.0151997795 -0.024326641
-0.18156087 0.007877769 -0.015484937 -0.024680274 -0.08241562 -0.042946484 0.0208483 -0.024895221
0.02337381 -0.01431097 0.014040926 0.030515853 0.090289764 -0.027185004 0.06489739 -0.12973128
-0.0021545147 -0.022284621 -0.041293498 -0.17383617 -0.021599084 0.11074718 -0.0013380706 -0.039877772
-0.02069919 -0.0976586 0.066113375 -0.15586914 0.018939475 -0.07420814 -0.085933834 0.008776647
00000000: 4c96 3e3a e2d7 91bd a325 28be 2560 b5bb
00000010: 7fa3 953b 60d8 b2ba 7a32 363c 303c 2539
00000020: 5598 b53d e987 8cbc f69c 64bc c932 67bc
00000030: c59c 653d 7909 09bc f2f4 3abc 6aaf a23d
00000040: 51ac 51bc 1687 963d 52a1 69bb dd3d 33bc
00000050: 519d dabb bd04 edbd 89a7 c53b 79a6 cf3b
00000060: 1119 f33a 2291 08be f261 0e3d e8c8 e23c
00000070: 4fc0 d43c 443a e2bb 36bd 35bc 4297 22bc
00000080: a793 29bb af67 36bd 95e2 02be 877f 9cbd
00000090: 0263 30be 7b1a 0f3e 5597 933d 0cfd afbc
000000a0: 6ad4 87bc 4442 73bc 4783 183d 735e 983c
000000b0: 7e91 0abd 6487 55bc c918 12bc 9f4d 99bb
000000c0: bf69 eebc 5003 02bd 5146 97bc 9f6b 0dbc
000000d0: bc62 5ebb 7d30 c1bb 89cc 0fbb 07d9 663d
000000e0: fe0e 03ba a066 953c 1deb b63c a3e6 b0bc
000000f0: 0dc3 06be 4275 7e3d 2a99 fcbb ac6f 663b
00000100: 2000 433d 92cb 8b3c d8d6 8e3d 7ada 9a3a
00000110: 924a 12be 8792 63bc d4f4 1ebd e468 29bd
00000120: 04ec a9bb bd41 703c 0313 22bd 4bfc 99bb
00000130: 7a73 473c 47cf 253a 9fd7 59bc c8fd 60bd
00000140: 5a79 a5bc 8226 3a3a 0031 6ebd 063b f1bc
00000150: 9919 9f3d 9612 12bd 539e 363e 492a 0e3e
00000160: 2873 b3bb 1e63 39bd a127 1bbc 4a96 62bc
00000170: 58d0 3a3b 266d c7bc bb09 c7bb 68d2 1ebc
00000180: 4821 68bb aed5 0dbb 01fc 14be a278 f23b
00000190: d77c b0bc b6bf a2bb 123e 07bd 87ed 02bd
000001a0: 856e 22bc 1293 a53b e55c cebd 40d9 5d3d
000001b0: b865 f03d 1744 293d 7c26 aa3a 56f5 9cbd
000001c0: 25a7 103b 1f33 313b 3457 7b3d 73f6 66bc
000001d0: 8a04 2ebd 213c 373d 5efe 10bb 4a7e 78bd
000001e0: 82fc ac3a 6a78 27bd 8fe6 b13d a9ce 7fbc
000001f0: 5f74 11bc 46e3 fe3d 4e0e 993c c644 91bb
00000200: 2229 60bd 53d6 83bd 955f 5abe 732a 9b3c
00000210: bb56 e03c bbe6 273d 5d1f 8d3d ac9e 3abd
00000220: e0af 343e 1557 773c 6665 27be 94ba 603e
00000230: 495f 0f3e 5312 d9bc 6f99 54bb 9fa4 d4bc
00000240: 83cd dd3b da3f 423d 1543 4f3d 1814 d83c
00000250: 3c37 703c bf12 91bd cfe7 dfbd caea 74bc
00000260: 1c62 d23b 45a4 95bd e549 973b 6a7e e83d
00000270: 6f32 023d 42bd 8abc 589b e1bc bc7f 913c
00000280: f15d 3bbc 54f9 40be 08e1 1ebe 8e4c d0bc
00000290: 6859 f8bd 9546 a73d 5de7 923d 3696 05bc
000002a0: 2278 25be 0067 fb3a 2e08 b2bd 3011 4e3e
000002b0: 628e 8e3c 12da 3dbd 11ba 89bd 9f2a 24be
000002c0: d319 74bd 5639 203d e618 1dbe 5f54 cc3c
000002d0: e244 633d c8a8 713b 6175 48bb efcd 4e3e
000002e0: 7bb2 b9bc cbc2 c6bb 85ba 26be 630e 613d
000002f0: bd89 95bd a1cd ed3c 96ad 833c a7a2 81bc
00000300: 195d d3bd b044 dd3b 85c4 cdbd 7ee7 13bb
00000310: 1fed d43b c6d3 de3b e3e0 6dbd 001d 0f3e
00000320: 3284 513c 78ea 933d 2855 d23d 0d66 d43b
00000330: a05b 1abd b453 c73d adfb b4bd c8d3 883d
00000340: 02e1 72bd 81b0 61bc 5701 8ebd e305 e3bd
00000350: ccde e13d d2c7 773d dad0 9c3d 732d 3e3e
00000360: 64a0 543d 0523 25bd 9dba 0abe 64d1 583c
00000370: a4bc c2bd 52a3 5abe 7f08 79bc aa48 c7bc
00000380: 18eb 39be c211 013c 88b4 7dbc 492e cabc
00000390: 85c9 a8bd a7e8 2fbd 0eca aa3c 10f1 cbbc
000003a0: 6f7a bf3c 8f78 6abc e90b 663c 62fc f93c
000003b0: d7e9 b83d 16b3 debc ece8 843d 47d8 04be
000003c0: c232 0dbb 3d8e b6bc 5f23 29bd 1c02 32be
000003d0: 90f0 b0bc 6bcf e23d 3362 afba e056 23bd
000003e0: 5991 a9bc 3b01 c8bd 7366 873d 299c 1fbe
000003f0: f526 9b3c 70fa 97bd 14fe afbd edcb 0f3c

convs.0.student_friend_student.bias f4 [128]
-0.06542603 -0.047115695 -0.002297046 -0.05491573 -0.050223514 0.006515185 -0.03237017 -0.030418143
0.005597445 -0.063608065 -0.0043222304 0.01024255 -0.013997909 -0.030641338 -0.06719367 0.021331223
-0.02842631 0.00037981616 -0.03021062 -0.071396425 -0.022435619 -0.011304169 -0.056819733 -0.04215769
-0.05409191 0.0044631874 -0.05523015 0.019313365 -0.056279924 -0.03400868 -0.034882158 -0.05269031
-0.017667208 -0.014186494 0.01589787 -0.06802076 0.0040383395 0.025309032 0.011982097 -0.055042285
0.0014855401 -0.0054150918 -0.060594104 -0.03241393 -0.037593383 -0.0068999105 -0.03548583 -0.06431832
-0.004821578 0.0076467213 -0.067710236 -0.060462628 -0.04963945 -0.017959688 -0.03989594 0.0021064049
-0.04729228 -0.052214447 -0.06491017 -0.069468975 0.0056193694 -0.069297865 -0.0012066325 -0.056040786
-0.010972092 -0.022487424 -0.019309107 0.014527949 0.011950206 0.010165804 -0.060288407 -0.005283442
-0.06844194 -0.059175476 -0.031234913 -0.020258851 0.011862284 -0.063468665 -0.062823914 0.028778752
-0.06755533 -0.04980481 0.002542844 -0.008577166 0.01995499 0.013429187 0.026996305 0.03609904
-0.036763478 -0.05008012 -0.053082686 -0.0028643054 -0.04199307 0.008940749 -0.030573482 -0.04969357
-0.012810792 -0.04215179 -0.0796019 -0.014606804 -0.037873168 -0.097623326 -0.054044798 -0.030079002
-0.061936542 -0.040266752 -0.053587962 0.027487403 0.00048562692 -0.0069225305 -0.05082711 0.0052868696
-0.03621338 -0.060356356 -0.019478943 -0.055842254 0.01690302 -0.05836289 -0.054157376 -0.030570945
-0.022347528 -0.04471203 -0.01542212 -0.063868456 -0.07120544 -0.012987468 -0.020197174 -0.060098335
00000000: 15fe 85bd 63fc 40bd 098a 16bb 51ef 60bd
00000010: 2cb7 4dbd 557d d53b 9596 04bd 782f f9bc
00000020: c66a b73b f244 82bd 7fa1 8dbb 5ed0 273c
00000030: 7c57 65bc 8b03 fbbc d69c 89bd d1be ae3c
00000040: 4bde e8bc 1022 c739 437c f7bc 4a38 92bd
00000050: e7ca b7bc 1f35 39bc cfbb 68bd 8bad 2cbd
00000060: 7b8f 5dbd ee3f 923b 0339 62bd 1037 9e3c
00000070: c785 66bd b04c 0bbd 98e0 0ebd cbd1 57bd
00000080: d2ba 90bc 786e 68bc 403c 823c 784e 8bbd
00000090: 0c54 843b e354 cf3c 8f50 443c 0574 61bd
000000a0: 74b6 c23a 1571 b1bb 8631 78bd 78c4 04bd
000000b0: 85fb 19bd a518 e2bb 9759 11bd 53b9 83bd
000000c0: 54fe 9dbb 5991 fa3b aaab 8abd a9a7 77bd
000000d0: bc52 4bbd 3220 93bc ed69 23bd 9c0b 0a3b
000000e0: 8db5 41bd d1de 55bd a0ef 84bd c045 8ebd
000000f0: b022 b83b 0aec 8dbd de27 9eba 068b 65bd
00000100: 4ac4 33bc 8c37 b8bc 222e 9ebc a206 6e3c
00000110: ccca 433c 798e 263c faf0 76bd b920 adbb
00000120: 4a2b 8cbd fc61 72bd 5ce0 ffbc e4f5 a5bc
00000130: 065a 423c dcfb 81bd d3a9 80bd 6bc1 eb3c
00000140: 735a 8abd 2100 4cbd d8a5 263b 3e87 0cbc
00000150: a678 a33c 1806 5c3c 5b27 dd3c 96dc 133d
00000160: 4d95 16bd d020 4dbd 3b6d 59bd 12b7 3bbb
00000170: ed00 2cbd 387c 123c 3d75 fabc 7c8b 4bbd
00000180: 5be4 51bc 5ba7 2cbd 5206 a3bd 6051 6fbc
00000190: e520 1bbd bdee c7bd 145e 5dbd 3d68 f6bc
000001a0: 2cb1 7dbd c0ee 24bd 0d7f 5bbd 432d e13c
000001b0: be9b fe39 65d6 e2bb 1630 50bd 7a3d ad3b
000001c0: 7b54 14bd 3a38 77bd 4e92 9fbc d9ba 64bd
000001d0: 3478 8a3c ed0d 6fbd 20d4 5dbd eb6f fabc
000001e0: 2a12 b7bc f623 37bd 0fad 7cbc 77cd 82bd
000001f0: 28d4 91bd 64c9 54bc 8b74 a5bc ac29 76bd

convs.0.student_disrespect_student.weight f4 [2, 128, 128]
0.0032384072 -0.015363201 -0.061018713 0.018877426 0.0023072185 0.014535964 0.00034591113 -0.0033564083
0.02135663 0.0066224616 0.013989432 0.016728947 0.0036261764 -0.012684406 -0.019650865 0.00081382523
0.014503579 0.031219693 -0.002307268 -0.00088786066 -0.0005721176 -0.022492489 0.00071628345 -0.00426134
0.00314446 -0.0023732001 0.020928761 -0.07800403 -0.00030707277 0.0103121195 0.0019478711 -0.0075904974
-0.003066765 -0.03987016 -0.020068403 0.006996494 -0.056878272 0.06259958 0.104548015 0.0014115789
-0.039430235 -0.0058770804 -0.01357579 -0.0059450422 0.008210627 0.023361007 -0.0025230397 -0.0005674879
0.029651554 0.08213837 -0.00023864135 -0.013640859 -0.0064400816 -0.016514467 -0.013197016 0.03108649
-0.029819226 0.0057034586 -0.0010206739 -0.015117409 -0.07570182 0.015796246 -0.0012800588 -0.0013141942
-0.055124797 -0.001021541 -0.05737292 -0.0044283387 -0.059042048 0.014189083 -0.006933364 0.023215437
0.002777138 -0.013618233 -0.008453335 0.015437416 -0.0020291535 0.012133626 0.0054536657 0.017252035
-0.007567017 0.014925259 -0.0554268 -0.032623522 0.039128352 0.07377852 0.028754821 0.032001086
-0.0119036455 -0.004282641 -0.00014749262 0.0043685986 -0.00831547 -0.005366353 -0.0026031751 0.003529825
-0.054004185 -0.0037970655 -0.0074660624 -0.0026174532 0.01612549 -0.011511988 -0.004824553 -0.0016292959
-0.00048487107 0.0017267033 0.016726961 0.030268922 0.008033841 -0.0015309651 0.0038677957 -0.027905213
-0.0026049733 -0.009391693 0.0028240324 -0.008584775 0.06746158 -0.004834765 -0.013417312 0.018689454
0.0020469318 0.0029315301 -0.00029050454 -0.004164664 -0.012998767 -0.0060908375 0.01815895 0.0055014966
-0.01383004 -0.00061271625 -0.061225053 0.006446562 0.018717334 -0.04071281 -0.03494654 -0.0010154977
0.034986578 0.0023066157 0.02093588 0.0389416 -0.059417643 -0.013567507 -0.017423468 0.005563155
0.0009924237 0.09449478 -0.011485978 0.005606058 -0.0008832965 -0.0033765975 -0.006852323 0.015790911
-0.008095318 0.01618858 0.01665543 -0.018331252 -0.014147595 -0.0022448124 -0.010513953 -0.0022112618
-0.011538246 -0.08176277 0.054055355 -0.011704188 -0.09801827 -0.051455148 -0.008178707 -0.003645889
-0.05859082 0.0024949263 -0.035906248 0.024774263 -0.04711514 -0.062788375 0.011693549 0.012744885
-0.045016054 0.03185207 0.016300485 0.0007379197 -0.005433301 -0.015608393 -0.003517647 -0.029564612
-0.04130996 0.01879274 0.009685656 -0.017086316 -0.030996533 -0.009587022 -0.01574434 -0.010472095
-0.081908084 0.0032520972 -0.031224113 0.0024279156 -0.014944398 -0.021482302 0.019419748 0.03674813
-0.0055493796 1.3220473e-05 -0.031639326 0.002661649 -0.03298825 -0.0019492229 0.00018172723 0.06621687
0.00420751 0.0036263908 -0.0018695111 -0.10423958 0.021922722 0.07437657 0.038558375 0.0017045264
-0.011004021 -0.047707573 0.012634079 0.0018536046 -0.0028872187 -0.11396623 0.003342261 0.0064305393
-0.09498029 -0.006460819 -0.009666823 -0.00636712 -0.031723358 0.0089543685 0.008284317 -0.0133876
-0.018294359 -0.016478483 0.001409848 0.048948817 -0.016640175 -0.03021415 0.010858398 -0.08785799
0.0031994341 -0.009303681 0.00030393602 -0.03152177 0.06656659 0.016594917 9.9266705e-05 0.010873593
0.005573459 -0.014578705 0.009566946 -0.011246955 0.0015552206 0.008142248 -0.014101275 0.0035757557
00000000: 753b 543b efb5 7bbc c2ee 79bd d5a4 9a3c
00000010: b434 173b 4028 6e3c 685b b539 30f7 5bbb
00000020: 19f4 ae3c 3c01 d93b ee33 653c 250b 893c
00000030: 25a5 6d3b 41d2 4fbc dafa a0bc e356 553a
00000040: 6ba0 6d3c 71c0 ff3c 8935 17bb 52bf 68ba
00000050: 2afa 15ba 2b42 b8bc f8c4 3b3a b6a2 8bbb
00000060: 4913 4e3b b187 1bbb cb72 ab3c 94c0 9fbd
00000070: 9cfe a0b9 2af4 283c b54f ff3a b5b9 f8bb
00000080: c7fb 48bb e54e 23bd 7e66 a4bc d842 e53b
00000090: 31f9 68bd 3534 803d 451d d63d ba04 b93a
000000a0: 9981 21bd 8694 c0bb fe6c 5ebc a1ce c2bb
000000b0: de85 063c 955f bf3c 9559 25bb 78c3 14ba
000000c0: d1e7 f23c 2938 a83d cd3b 7ab9 e97d 5fbc
000000d0: 5207 d3bb 5949 87bc 4c38 58bc 18a9 fe3c
000000e0: 7347 f4bc 14e4 ba3b 22c8 85ba 02af 77bc
000000f0: 8e09 9bbd 2167 813c a5c7 a7ba 0a41 acba
00000100: 8aca 61bd 3ae5 85ba deff 6abd 991b 91bb
00000110: 13d6 71bd 5479 683c 4631 e3bb 4d2e be3c
00000120: a500 363b 021f 5fbc db7f 0abc 37ed 7c3c
00000130: 8cfb 04bb 1ecc 463c aab4 b23b 2454 8d3c
00000140: bdf4 f7bb 1389 743c 3607 63bd 3ea0 05bd
00000150: 0d45 203d 3119 973d 3b8f eb3c 9213 033d
00000160: 8207 43bc 6655 8cbb 40a8 1ab9 7626 8f3b
00000170: 9c3d 08bc 3bd8 afbb 089a 2abb a354 673b
00000180: 7e33 5dbd 30d8 78bb dfa5 f4bb 9489 2bbb
00000190: 9b19 843c c79c 3cbc 4917 9ebb 198e d5ba
000001a0: 4b36 feb9 8c52 e23a fb06 893c 88f6 f73c
000001b0: 5fa0 033c aaaa c8ba d87a 7d3b 7999 e4bc
000001c0: 33b8 2abb 9edf 19bc 6713 393b 28a7 0cbc
000001d0: 4c29 8a3d f36c 9ebb 49d4 5bbc a01a 993c
000001e0: d125 063b ea1e 403b dc4e 98b9 bc77 88bb
000001f0: c8f8 54bc a695 c7bb 14c2 943c e645 b43b
00000200: 6497 62bc b19e 20ba 1fc7 7abd ae3d d33b
00000210: 1855 993c 7ac2 26bd 1a24 0fbd 731a 85ba
00000220: 164e 0f3d 972a 173b b981 ab3c 3a81 1f3d
00000230: ea5f 73bd 404a 5ebc a9bb 8ebc 204b b63b
00000240: 3714 823a 7b86 c13d af2f 3cbc 06b3 b73b
00000250: 068d 67ba e849 5dbb 7489 e0bb f15b 813c
00000260: 3aa2 04bc ea9d 843c f870 883c 6c2b 96bc
00000270: 50cb 67bc b41d 13bb b742 2cbc d1ea 10bb
00000280: e90a 3dbc 3d73 a7bd 2669 5d3d ecc2 3fbc
00000290: cebd c8bd a2c2 52bd fcff 05bc deef 6ebb
000002a0: edfc 6fbd eb81 233b 6e12 13bd 65f3 ca3c
000002b0: cefb 40bd 3197 80bd 4d96 3f3c eccf 503c
000002c0: c162 38bd 5177 023d 9888 853c f470 413a
000002d0: d509 b2bb 58ba 7fbc 5388 66bb 7c31 f2bc
000002e0: a234 29bd 3bf3 993c 96b0 1e3c 9af8 8bbc
000002f0: 71ec fdbc e212 1dbc 46fa 80bc 2693 2bbc
00000300: 6dbf a7bd 2321 553b b6c9 ffbc aa1d 1f3b
00000310: 59d9 74bc a7fb afbc 2a16 9f3c 3585 163d
00000320: 92d7 b5bb 80cd 5d37 3d98 01bd 0f6f 2e3b
00000330: b01e 07bd 117d ffba 088e 3e39 b69c 873d
00000340: 27df 893b bea8 6d3b 620a f5ba 907b d5bd
00000350: 4897 b33c be52 983d 63ef 1d3d 6a6a df3a
00000360: 364a 34bc 0469 43bd 2bff 4e3c a6f4 f23a
00000370: 7e37 3dbb 2067 e9bd d609 5b3b 46b7 d23b
00000380: 0785 c2bd 47b5 d3bb 9861 1ebc 46a3 d0bb
00000390: 5af0 01bd 58b5 123c f2ba 073c aa57 5bbc
000003a0: 0dde 95bc e2fd 86bc a6ca b83a 8e7e 483d
000003b0: fa50 88bc aa83 f7bc 6ce7 313c e4ee b3bd
000003c0: 99ad 513b 776e 18bc 9a59 9f39 f91c 01bd
000003d0: 1054 883d 10f2 873c 682d d038 2827 323c
000003e0: 90a1 b63b 85db 6ebc aebe 1c3c 2645 38bc
000003f0: 8bd8 cb3a 1067 053c 0909 67bc 3a57 6a3b

convs.0.student_disrespect_student.root f4 [128, 128]
-0.011657859 -0.07436592 0.011112823 -0.009418801 0.0020478969 -0.008004264 -0.010354945 0.0031097326
0.006794407 -0.004030134 -0.09456725 -0.019623108 0.0048379307 -0.009864603 -0.046047904 0.16977677
-0.010688701 0.07551547 -0.0004360564 -0.0108085945 -0.0013224725 0.010606514 -0.012609478 -0.0068675885
-0.0023664031 -0.002369826 -0.07875616 0.11650557 0.054618165 -0.00011395523 -0.011395819 -0.0106249135
0.0021397898 -0.018694278 -0.11352304 -0.0702511 -0.036359515 -0.025475759 0.17467222 0.02760603
-0.075067736 0.007194647 0.017190883 0.009826585 -0.022044025 -0.00077527127 -0.00474629 0.011347698
0.034392737 0.055478044 -0.0102586 -0.0039458387 -0.0048730634 0.0056556347 0.0028071224 0.09744275
7.7596254e-05 0.0023066006 -0.04586805 -0.03534802 0.063577496 0.004301632 0.0020917386 -0.0056171026
0.06139406 0.0010784216 0.066858545 0.013433512 -0.05723577 -0.007178772 -0.0076894714 -0.032421876
-0.0013343054 -0.033103704 -0.02898899 0.0061550494 -0.045344748 0.014755486 -0.015149096 0.03678546
-0.02058384 -0.0023319633 -0.09439337 -0.020814747 0.09993235 0.094461314 0.07380608 0.08522232
-0.0019477892 -0.004026438 -0.018894989 0.0024919326 -0.009643949 -0.18564604 0.009994848 0.00939428
-0.03758771 -0.00015257695 0.035382498 -0.016170708 -0.027424172 0.037656285 -0.009427237 -0.02961167
0.005527499 -0.009529212 -0.112988256 -0.021699077 0.066886686 -0.0065551475 -0.0012418766 -0.010927142
-0.009487545 0.016680656 -0.0315278 -0.050920088 0.018210946 -0.052223682 -0.0076866606 0.027461786
-0.011902106 -0.051305335 0.09485303 -0.08098332 -0.004338245 0.08312046 -0.042909376 0.00016929512
-0.065155916 0.014521262 0.02675257 -0.0156111 -0.004159725 0.04057838 0.080851264 -0.03888253
0.1261225 -0.03276398 -0.080683954 0.1750187 0.08546605 -0.09263242 0.023759687 0.14129795
0.015736887 0.14007196 0.03361007 -0.023243248 0.0067982916 -0.08328933 -0.03140896 -0.120651744
0.0034433433 -0.17218049 -0.025509363 0.1312744 -0.08811744 -0.0059414217 -0.038473375 -0.17395104
-0.0019655558 0.009708302 -0.054947097 -0.13241297 0.012323696 0.09858866 0.025423372 -0.118124805
-0.007427356 0.005877944 0.027708778 -0.020365154 -0.041893538 -0.033825178 0.06544683 -0.11791146
0.12404407 0.14346723 -0.12629656 -0.06891595 -0.10642186 0.005532394 -0.0018755775 0.22204511
-0.014170477 -0.025767535 -0.102579005 -0.030177018 -0.03804694 0.04466499 -0.005288391 -0.02047139
-0.1236177 -0.019889222 0.000115453426 0.008323295 -0.08414523 -0.03142059 0.054757465 0.070848964
-0.08600272 0.037488434 -0.05705663 -0.01826219 0.005581088 0.07252838 -0.06577324 0.093850695
-0.1295362 -0.03717774 -0.06400987 -0.021960817 -0.03401683 0.15090671 0.20362695 0.14334327
0.020020649 0.049199097 -0.08612449 0.0036111863 -0.07610501 -0.10467849 0.0062706736 -0.079737805
-0.15565528 -0.0153622525 -0.1274914 0.05412544 0.018875044 0.012079854 -0.06159221 -0.04447968
0.025569817 -0.051415473 0.017243708 0.20973165 0.09551283 0.035282332 -0.11200651 -0.13360268
-0.0018166797 -0.011648888 0.075728595 -0.1546236 0.08363219 0.12046641 -0.01870437 -0.036753338
0.0004393169 0.031463522 0.22935778 -0.15306404 -0.023088582 -0.05323355 0.09897153 0.0069339173
00000000: 9b00 3fbc 294d 98bd 8f12 363c 5151 1abc
00000010: 0236 063b 5124 03bc caa7 29bc a8cc 4b3b
00000020: 9ea3 de3b 370f 84bb 79ac c1bd a4c0 a0bc
00000030: 8187 9e3b 259f 21bc ba9c 3cbd f6d9 2d3e
00000040: a91f 2fbc dba7 9a3d 809e e4b9 8816 31bc
00000050: d056 adba f2c6 2d3c fc97 4ebc 8209 e1bb
00000060: a815 1bbb 154f 1bbb e94a a1bd 799a ee3d
00000070: 4cb7 5f3d 40fb eeb8 87b5 3abc 1e14 2ebc
00000080: b73b 0c3b be24 99bc c57e e8bd cfdf 8fbd
00000090: b7ed 14bd 8ab2 d0bc 46dd 323e 0b26 e23c
000000a0: 1dbd 99bd 13c1 eb3b e5d3 8c3c afff 203c
000000b0: ac95 b4bc 933b 4bba c486 9bbb b2eb 393c
000000c0: 66df 0c3d f23c 633d b013 28bc 184c 81bb
000000d0: 38ae 9fbb e752 b93b b3f7 373b 1190 c73d
000000e0: 2cbb a238 562a 173b 23e0 3bbd 16c9 10bd
000000f0: eb34 823d b4f4 8c3b 8d15 093b ac0f b8bb
00000100: 5678 7b3d d359 8d3a 22ed 883d 3c18 5c3c
00000110: 0e70 6abd e73b ebbb f6f7 fbbb cdcc 04bd
00000120: dce3 aeba c097 07bd 517a edbc 4cb0 c93b
00000130: 6abb 39bd fec0 713c ea33 78bc 5aac 163d
00000140: 719f a8bc dad3 18bb 5051 c1bd b083 aabc
00000150: 55a9 cc3d ef74 c13d a427 973d 0a89 ae3d
00000160: f64c ffba 36f0 83bb aac9 9abc b14f 233b
00000170: a701 1ebc ff19 3ebe 6ec1 233c 77ea 193c
00000180: 92f5 19bd 10fd 1fb9 3ded 103d 6f78 84bc
00000190: a8a8 e0bc 7a3d 1a3d b374 1abc 2c94 f2bc
000001a0: 0620 b53b 6920 1cbc 6366 e7bd 43c2 b1bc
000001b0: e3fb 883d 90cc d6bb 77c6 a2ba c107 33bc
000001c0: a671 1bbc dfa5 883c 4b23 01bd 9591 50bd
000001d0: 1f2f 953c 80e8 55bd 62e0 fbbb 8af7 e03c
000001e0: 0d01 43bc 8b25 52bd 4e42 c23d 95da a5bd
000001f0: d627 8ebb 0f3b aa3d bec1 2fbd d084 3139
00000200: 7770 85bd 96ea 6d3c 3528 db3c b3c5 7fbc
00000210: 4d4e 88bb 8435 263d 5995 a53d 4a43 1fbd
00000220: 4226 013e 8633 06bd a13d a5bd 1a38 333e
00000230: d308 af3d 11b6 bdbd ada3 c23c 69b0 103e
00000240: a5ea 803c 066f 0f3e b6aa 093d a068 bebc
00000250: 34c4 de3b 9993 aabd afa6 00bd 4318 f7bd
00000260: b7a9 613b 1550 30be 03f9 d0bc cc6c 063e
00000270: eb76 b4bd 42b0 c2bb 4296 1dbd 3920 32be
00000280: 8ed0 00bb 920f 1f3c 3510 61bd 4497 07be
00000290: 54e9 493c dae8 c93d ad44 d03c 6beb f1bd
000002a0: 2e61 f3bb c59b c03b 85fd e23c d3d4 a6bc
000002b0: 8f98 2bbd 458c 0abd fd08 863d 907b f1bd
000002c0: d10a fe3d 13e9 123e e353 01be ce23 8dbd
000002d0: b4f3 d9bd 1649 b53b f0d5 f5ba cb5f 633e
000002e0: 4a2b 68bc 7016 d3bc f114 d2bd cb35 f7bc
000002f0: 1cd7 1bbd a3f2 363d 3d4a adbb 9eb3 a7bc
00000300: 472b fdbd b9ee a2bc 961f f238 6e5e 083c
00000310: 5654 acbd e0b2 00bd 5d49 603d 4319 913d
00000320: 3222 b0bd 798d 193d 36b4 69bd 979a 95bc
00000330: 8fe1 b63b c289 943d 1fb4 86bd cb34 c03d
00000340: 23a5 04be b047 18bd 9b17 83bd 2ce7 b3bc
00000350: 3b55 0bbd 4a87 1a3e 9583 503e 94c8 123e
00000360: 5802 a43c fe84 493d 0962 b0bd a7a9 6c3b
00000370: f2dc 9bbd ad61 d6bd 397a cd3b 934d a3bd
00000380: 1964 1fbe f5b1 7bbc 1b8d 02be a3b2 5d3d
00000390: d69f 9a3c 94ea 453c 1d48 7cbd 5330 36bd
000003a0: cb77 d13c 0899 52bd ad42 8d3c e5c3 563e
000003b0: 3b9c c33d 3584 103d ab63 e5bd 24cf 08be
000003c0: a81d eeba fada 3ebc 9817 9b3d a655 1ebe
000003d0: 5b47 ab3d 18b7 f63d e839 99bc ab8a 16bd
000003e0: 1e54 e639 e5df 003d c4dc 6a3e d2bc 1cbe
000003f0: 4424 bdbc 6c0b 5abd 96b1 ca3d ea35 e33b

convs.0.student_disrespect_student.bias f4 [128]
-0.06542603 -0.047115695 -0.002297046 -0.05491573 -0.050223514 0.006515185 -0.03237017 -0.030418143
0.005597445 -0.063608065 -0.0043222304 0.01024255 -0.013997909 -0.030641338 -0.06719367 0.021331223
-0.02842631 0.00037981616 -0.03021062 -0.071396425 -0.022435619 -0.011304169 -0.056819733 -0.04215769
-0.05409191 0.0044631874 -0.05523015 0.019313365 -0.056279924 -0.03400868 -0.034882158 -0.05269031
-0.017667208 -0.014186494 0.01589787 -0.06802076 0.0040383395 0.025309032 0.011982097 -0.055042285
0.0014855401 -0.0054150918 -0.060594104 -0.03241393 -0.037593383 -0.0068999105 -0.03548583 -0.06431832
-0.004821578 0.0076467213 -0.067710236 -0.060462628 -0.04963945 -0.017959688 -0.03989594 0.0021064049
-0.04729228 -0.052214447 -0.06491017 -0.069468975 0.0056193694 -0.069297865 -0.0012066325 -0.056040786
-0.010972092 -0.022487424 -0.019309107 0.014527949 0.011950206 0.010165804 -0.060288407 -0.005283442
-0.06844194 -0.059175476 -0.031234913 -0.020258851 0.011862284 -0.063468665 -0.062823914 0.028778752
-0.06755533 -0.04980481 0.002542844 -0.008577166 0.01995499 0.013429187 0.026996305 0.03609904
-0.036763478 -0.05008012 -0.053082686 -0.0028643054 -0.04199307 0.008940749 -0.030573482 -0.04969357
-0.012810792 -0.04215179 -0.0796019 -0.014606804 -0.037873168 -0.097623326 -0.054044798 -0.030079002
-0.061936542 -0.040266752 -0.053587962 0.027487403 0.00048562692 -0.0069225305 -0.05082711 0.0052868696
-0.03621338 -0.060356356 -0.019478943 -0.055842254 0.01690302 -0.05836289 -0.054157376 -0.030570945
-0.022347528 -0.04471203 -0.01542212 -0.063868456 -0.07120544 -0.012987468 -0.020197174 -0.060098335
00000000: 15fe 85bd 63fc 40bd 098a 16bb 51ef 60bd
00000010: 2cb7 4dbd 557d d53b 9596 04bd 782f f9bc
00000020: c66a b73b f244 82bd 7fa1 8dbb 5ed0 273c
00000030: 7c57 65bc 8b03 fbbc d69c 89bd d1be ae3c
00000040: 4bde e8bc 1022 c739 437c f7bc 4a38 92bd
00000050: e7ca b7bc 1f35 39bc cfbb 68bd 8bad 2cbd
00000060: 7b8f 5dbd ee3f 923b 0339 62bd 1037 9e3c
00000070: c785 66bd b04c 0bbd 98e0 0ebd cbd1 57bd
00000080: d2ba 90bc 786e 68bc 403c 823c 784e 8bbd
00000090: 0c54 843b e354 cf3c 8f50 443c 0574 61bd
000000a0: 74b6 c23a 1571 b1bb 8631 78bd 78c4 04bd
000000b0: 85fb 19bd a518 e2bb 9759 11bd 53b9 83bd
000000c0: 54fe 9dbb 5991 fa3b aaab 8abd a9a7 77bd
000000d0: bc52 4bbd 3220 93bc ed69 23bd 9c0b 0a3b
000000e0: 8db5 41bd d1de 55bd a0ef 84bd c045 8ebd
000000f0: b022 b83b 0aec 8dbd de27 9eba 068b 65bd
00000100: 4ac4 33bc 8c37 b8bc 222e 9ebc a206 6e3c
00000110: ccca 433c 798e 263c faf0 76bd b920 adbb
00000120: 4a2b 8cbd fc61 72bd 5ce0 ffbc e4f5 a5bc
00000130: 065a 423c dcfb 81bd d3a9 80bd 6bc1 eb3c
00000140: 735a 8abd 2100 4cbd d8a5 263b 3e87 0cbc
00000150: a678 a33c 1806 5c3c 5b27 dd3c 96dc 133d
00000160: 4d95 16bd d020 4dbd 3b6d 59bd 12b7 3bbb
00000170: ed00 2cbd 387c 123c 3d75 fabc 7c8b 4bbd
00000180: 5be4 51bc 5ba7 2cbd 5206 a3bd 6051 6fbc
00000190: e520 1bbd bdee c7bd 145e 5dbd 3d68 f6bc
000001a0: 2cb1 7dbd c0ee 24bd 0d7f 5bbd 432d e13c
000001b0: be9b fe39 65d6 e2bb 1630 50bd 7a3d ad3b
000001c0: 7b54 14bd 3a38 77bd 4e92 9fbc d9ba 64bd
000001d0: 3478 8a3c ed0d 6fbd 20d4 5dbd eb6f fabc
000001e0: 2a12 b7bc f623 37bd 0fad 7cbc 77cd 82bd
000001f0: 28d4 91bd 64c9 54bc 8b74 a5bc ac29 76bd

convs.1.student_friend_student.weight f4 [2, 128, 128]
0.017097954 0.008904045 0.057935525 0.106167965 -0.01140663 -0.044822823 0.004396165 -0.002288116
-0.009583484 0.011255508 0.04103409 -0.11351135 -0.0052591516 -0.06872863 -0.009147091 0.013260263
0.047052193 0.08086816 0.0312942 -0.008338951 0.013592734 -0.0399017 -0.029018955 0.002017426
-0.037771914 0.06745681 0.009327037 -0.11233642 0.07702362 -0.11912834 -0.058113188 0.022781445
0.01079322 0.040320687 0.028302884 0.019680807 0.082023926 0.041272283 0.050905857 0.033504304
-0.09912772 -0.025901215 -0.106013216 -0.052589025 -0.07546029 0.046960965 0.06378396 0.0016637909
0.022116844 -0.0019806589 -0.09588488 0.033656914 0.060647752 0.08042496 -0.012330932 0.0053727217
-0.012839499 0.032422505 -0.07862017 0.012952048 0.03449983 -0.04414558 0.042325906 -0.0027526235
0.07635765 0.075026795 0.012884683 0.028295867 -0.08322037 -0.03292399 -0.007886416 0.06369461
-0.03283629 0.10248056 0.090172924 0.09680595 0.007232504 -0.06163235 -0.027419254 0.047534425
-0.073791854 -0.06398938 -0.10416848 -0.038911436 0.14015196 0.015357755 0.11357147 -0.020746239
0.057557438 0.043434255 0.014751697 -0.0680549 -0.023154456 0.004511788 0.001545177 0.007432068
-0.143605 -0.047521852 -0.05935291 0.11244665 0.016186494 -0.076771915 0.01608431 -0.028303614
-0.0043495893 -1.9114203e-05 0.0006841738 0.07593239 -0.078810856 0.0022840614 -0.08116658 0.0022206565
-0.07591126 -0.07218622 -0.04653283 0.010250186 -0.010052605 -0.017078025 0.0074740215 -0.0072958358
-0.0689474 0.1123508 -0.052173976 0.010946566 0.0133350575 0.05949094 0.008073072 0.09428025
-0.09982413 -0.15865499 -0.10341225 0.07796255 0.0009052431 -0.024005622 0.06964966 0.08080378
-0.02624445 -0.05628974 -0.11014573 0.03548167 0.020329809 0.0542529 -0.018399991 0.017978027
-0.09951003 0.044770293 -0.032719746 -0.011527588 0.045173604 -0.09178248 -0.053572427 0.056808252
0.11656215 0.14239171 -0.045940723 0.019649817 -0.08156402 -0.08436102 -0.1587713 -0.02871805
-0.028659075 -0.069417916 0.058829047 0.032411482 0.029649675 0.1240983 -0.10500538 0.014142222
-0.026985759 -0.022047618 -0.09009524 0.02776212 0.0636267 -0.026879845 -0.0521512 -0.060462963
0.0045503634 -0.016042566 0.10362393 -0.047182497 0.015233835 -0.12930837 -0.027348945 -0.01571078
0.08131817 0.04911804 -0.05021588 0.0028960898 -0.036975957 0.025657684 0.03614934 -0.046097144
-0.08333777 0.030959453 0.060695697 -0.08363518 0.057614148 0.1250427 -0.03535984 -0.016852293
-0.10392321 -0.045695428 0.09449809 0.13610967 -0.0061853956 0.02300894 0.008118867 -0.08017324
0.058110233 0.03718992 -0.002719796 0.093174204 -0.13052508 -0.079958834 -0.028695242 0.0557523
0.0356361 0.04274359 0.052339677 0.1085884 -0.1196491 -0.057353344 -0.009299731 0.075590365
0.11538961 0.033346638 0.07041523 0.03476348 -0.027911555 0.10870694 -0.11669566 0.066294216
-0.13609497 -0.03358184 0.1225114 0.025696658 -0.14866503 0.01971107 0.10865369 0.094025314
-0.1255815 -0.16630942 0.0024173835 0.10895557 0.028782038 0.04593187 -0.081022374 0.0039754924
0.037902217 0.050806154 -0.047760505 -0.03573514 0.031727627 -0.055770278 -0.055545267 -0.021854281
00000000: 0211 8c3c 46e2 113c cd4d 6d3d 976e d93d
00000010: e0e2 3abc 2398 37bd b40d 903b 37f4 15bb
00000020: 0c04 1dbc 0669 383c 5d13 283d a378 e8bd
00000030: f654 acbb 99c1 8cbd aedd 15bc 9341 593c
00000040: cdb9 403d 359e a53d 592e 003d 18a0 08bc
00000050: 0fb4 5e3c f76f 23bd 29b9 edbc cb36 043b
00000060: b9b6 1abd cc26 8a3d 6ed0 183c a310 e6bd
00000070: 8fbe 9d3d 8ff9 f3bd 1808 6ebd 27a0 ba3c
00000080: 0cd6 303c 4e27 253d 73db e73c a539 a13c
00000090: 29fc a73d 200d 293d a982 503d cf3b 093d
000000a0: 7903 cbbd c92e d4bc 751d d9bd 9767 57bd
000000b0: ed8a 9abd 245a 403d 2aa1 823d 8f13 da3a
000000c0: 622e b53c f1cd 01bb 4b5f c4bd d5db 093d
000000d0: c769 783d d7b5 a43d ad07 4abc a80d b03b
000000e0: c35c 52bc 76cd 043d 9d03 a1bd d434 543c
000000f0: b24f 0d3d ffd1 34bd ee5d 2d3d 5c65 34bb
00000100: 6661 9c3d a6a7 993d 471a 533c bccc e73c
00000110: 716f aabd 4edb 06bd 0736 01bc 5272 823d
00000120: 587f 06bd 54e1 d13d 95ac b83d 3342 c63d
00000130: a4fe ec3b 3472 7cbd 589e e0bc 75b3 423d
00000140: 2f20 97bd dd0c 83bd 4956 d5bd 9961 1fbd
00000150: ff83 0f3e 189f 7b3c 2998 e83d 04f4 a9bc
00000160: 59c1 6b3d 1ee8 313d 1ab1 713c 5e60 8bbd
00000170: 6aae bdbc 9fd7 933b 8987 ca3a b588 f33b
00000180: 300d 13be 46a6 42bd 091c 73bd 6e4a e63d
00000190: 8a99 843c 983a 9dbd 3ec3 833c fbdc e7bc
000001a0: 0087 8ebb 7057 a0b7 205a 333a 7182 9b3d
000001b0: 9667 a1bd 31b0 153b aa3a a6bd 6f88 113b
000001c0: 5d77 9bbd 5ed6 93bd 3599 3ebd 65f0 273c
000001d0: aeb3 24bc 37e7 8bbc a3e8 f43b e811 efbb
000001e0: 4b34 8dbd 2d18 e63d 61b4 55bd 3a59 333c
000001f0: 497b 5a3c c6ac 733d eb44 043c 0116 c13d
00000200: 9870 ccbd 7476 22be cdc9 d3bd d4aa 9f3d
00000210: d64d 6d3a 70a7 c4bc 7ba4 8e3d 747c a53d
00000220: 9afe d6bc 1290 66bd 1694 e1bd 3a55 113d
00000230: b38a a63c 4a38 5e3d 94bb 96bc a846 933c
00000240: eacb cbbd 0e61 373d 2405 06bd 35de 3cbc
00000250: f507 393d 74f8 bbbd c36e 5bbd c5af 683d
00000260: 23b8 ee3d 22cf 113e 572c 3cbd a7f8 a03c
00000270: 090b a7bd 78c5 acbd f294 22be 1e42 ebbc
00000280: 70c6 eabc fb2a 8ebd baf6 703d e7c1 043d
00000290: e0e3 f23c 4027 fe3d 100d d7bd c7b4 673c
000002a0: 3d11 ddbc 359d b4bc da83 b8bd 636d e33c
000002b0: b74e 823d 1f33 dcbc 7f9c 55bd 03a8 77bd
000002c0: 371b 953b b36b 83bc c838 d43d 6f42 41bd
000002d0: 5697 793c 6a69 04be e50a e0bc e5b3 80bc
000002e0: 248a a63d ff2f 493d 2baf 4dbd 53cc 3d3b
000002f0: 1a74 17bd 1030 d23c 5511 143d 5cd0 3cbd
00000300: feac aabd ae9e fd3c 0d9c 783d ec48 abbd
00000310: d0fc 6b3d 320b 003e 7bd5 10bd d20d 8abc
00000320: b1d5 d4bd 212b 3bbd 3788 c13d 5560 0b3e
00000330: dcae cabb 3f7d bc3c ff04 053c de31 a4bd
00000340: ff04 6e3d 7554 183d 9b3e 32bb 1ed2 be3d
00000350: 5ea8 05be 75c1 a3bd 4912 ebbc 865c 643d
00000360: 29f7 113d e713 2f3d 2162 563d 9863 de3d
00000370: 960a f5bd 57eb 6abd e65d 18bc 1fcf 9a3d
00000380: 6351 ec3d 7c96 083d dc35 903d 2764 0e3d
00000390: c6a6 e4bc bfa1 de3d 22fe eebd 43c5 873d
000003a0: 7b5c 0bbe 1d8d 09bd 42e7 fa3d cc81 d23c
000003b0: a53b 18be 1c79 a13c d385 de3d 5890 c03d
000003c0: 7098 00be 044d 2abe f76c 1e3b 1924 df3d
000003d0: 4fc8 eb3c 0e23 3c3d 0fef a5bd d944 823b
000003e0: 5b3f 1b3d 1d1a 503d 85a0 43bd 035f 12bd
000003f0: d4f4 013d 606f 64bd 6f83 63bd c007 b3bc
