app/ml_models/Clustering/output/social_wellbeing_rgcn_model.pt (torch, 797661 bytes, 15 tensors)

embeddings.student.weight f4 [128, 4]
000000 50 2a 5f be 05 14 5c be 8a a4 c4 be 68 06 8b 3e
       -0.21793485 -0.21492012 -0.38406783 0.27153325
000010 6d d9 99 3e dc b9 c0 be c6 92 4a 3e 22 1d 40 3e
       0.30048695 -0.376418 0.19782552 0.18761113
000020 c1 b3 76 3d 69 6b 19 be b2 bd 82 3e 7c be 70 3e
       0.06023002 -0.1498238 0.2553535 0.23510164
000030 a0 d8 58 3e 35 d3 12 be 8e ab 45 be 1c 3c c0 3d
       0.21176386 -0.14338382 -0.19303724 0.09386465
000040 6e b1 75 bd 09 20 0d be d9 1f bb 3e fa 1b ca 3e
       -0.059983663 -0.13781752 0.36547735 0.3947447
000050 ba b4 c7 bd a2 4e 30 bd 10 c4 d9 3d f7 9f 97 bd
       -0.09751268 -0.04304374 0.10633099 -0.07403558
000060 d4 a8 e2 3d 4d 7a 42 3e a1 ab e2 be 64 fc 91 be
       0.11067358 0.18991967 -0.44271567 -0.2851287
000070 96 c6 d4 3e 71 2a 71 3e 35 c4 7f 3d 79 96 9d be
       0.4155776 0.23551346 0.062442977 -0.30778864
000080 ef 13 db be c6 8b df be ed a5 15 be 05 50 d7 3d
       -0.42788646 -0.43661326 -0.14614077 0.105133094
000090 71 9f 94 3e 30 cc 65 3e 9f fe da be b0 db 98 be
       0.29027894 0.22441173 -0.42772385 -0.29855108
0000a0 3c 88 04 3c 6d 81 fd 3e 4f 3f 5b 3d ac 40 bb bd
       0.008089121 0.49512807 0.053527173 -0.091431946
0000b0 d1 38 09 3e 7f 9b 16 be 0a 9b 82 be 32 3a ac 3e
       0.1340058 -0.14707755 -0.2550891 0.3363815
0000c0 1e 4f 94 be 05 18 fe bd 57 27 f5 be 2a 43 ac 3e
       -0.28966612 -0.12406925 -0.47881576 0.33644992
0000d0 12 ed cf 3e f6 26 3d 3e 68 dc b4 be c6 9a df be
       0.40610558 0.18471894 -0.35324407 -0.4367277
0000e0 3a 8b 9b be c3 ed cc 3e 49 fe 7a 3e 63 8a d2 3e
       -0.3037966 0.40025148 0.24511065 0.41121206
0000f0 89 4a 2b 3e 89 b4 56 3e 91 22 d8 3d dd 1a ba be
       0.16727652 0.20967306 0.10553468 -0.3634862
000100 3c 81 bd be 03 de 0e bf 56 07 60 3e 7f 4d 2f be
       -0.3701266 -0.55807513 0.21877798 -0.17119406
000110 2b 80 6f 3d 9c 7b 86 be 73 3e 9b bd 41 8b c4 be
       0.05847184 -0.2626618 -0.075802706 -0.38387492
000120 c8 7f ad be 5e 35 64 3e aa 0f 96 bd f3 77 84 3e
       -0.33886552 0.22285983 -0.073272064 0.25872764
000130 4d 5a 8b be 2f db 9b be 01 f1 64 3c 60 9b 35 be
       -0.27217332 -0.3044066 0.013973475 -0.17735052
000140 1f 4c 0d be b5 96 fd be cd 51 cc 3e 05 10 92 be
       -0.13798569 -0.49529043 0.3990616 -0.28527847
000150 48 a2 89 3e f7 6b 66 3e 52 dd bb 3e 2a c6 a5 be
       0.26881623 0.22502123 0.36692291 -0.3237775
000160 49 ed a8 3e 8c 4a 55 be 00 3d 76 3e e1 5d d9 3e
       0.32993534 -0.20829219 0.24046707 0.42454436
000170 ba 5a 87 bd c1 c0 29 3d e9 80 1c bd f6 bd d1 be
       -0.066091016 0.04144359 -0.038208876 -0.4096524
000180 93 6d 22 3e 02 60 f3 be ca dd ea 3e 6e bd ac 3e
       0.15862112 -0.47534186 0.45872337 0.33738273
000190 73 b3 d8 3e d1 a5 cc bd c4 39 c7 be ca 8d 47 3d
       0.4232441 -0.099925645 -0.3891126 0.048719205
0001a0 6d f9 4c 3e 1c 83 e7 be 06 dd 43 bc 9d 02 ad be
       0.20017023 -0.45217216 -0.011954552 -0.33791056
0001b0 01 c4 be 3e 21 b3 92 be 1b 7f 89 be f0 16 2e be
       0.37258914 -0.2865229 -0.26854786 -0.17000937
0001c0 a7 9d c0 be 7b 2d dc 3e 12 7a ed 3e cf c4 04 be
       -0.3762028 0.4300345 0.46382195 -0.12965702
0001d0 f5 7d 29 be 67 6d 11 be 6a 0a c3 be 74 ac 04 bf
       -0.16551955 -0.1420189 -0.38093883 -0.5182564
0001e0 22 3c 24 3e e4 46 79 be fd 8e 95 be 29 7a 81 bd
       0.16038564 -0.24343449 -0.29210654 -0.06322128
0001f0 84 2c 01 be 12 b1 f4 bd 8a 7d a5 3c 9e db c8 bd
       -0.12614638 -0.11947836 0.020201463 -0.09807514
000200 c1 b1 5a be 84 7b 82 be 73 ca bf be 03 b0 d1 3e
       -0.2135687 -0.2548486 -0.37459144 0.409546
000210 98 29 03 be e4 27 38 3e f6 39 2d be 11 eb ab 3b
       -0.12808836 0.17983967 -0.16916642 0.005246528
000220 32 fc dd 3e ea ae b0 3e 0e 60 c6 be 90 4e 21 3e
       0.43356472 0.3450845 -0.3874516 0.15752625
000230 1f 01 ee 3e 06 47 2d 3e 07 32 c6 3e a7 86 e9 3e
       0.4648523 0.16921625 0.38710043 0.45610544
000240 f4 63 08 be 73 32 52 3e 2e b0 95 be 29 9d 1e be
       -0.13319379 0.20527057 -0.29235977 -0.1548964
000250 32 a3 b0 3e e7 2f 9d 3e 44 f2 88 be 5b 24 c0 be
       0.34499508 0.3070061 -0.26747334 -0.37527737
000260 df 3e df be fc 9e 02 bf 03 2d bf be ed 20 85 be
       -0.43602654 -0.5102384 -0.3733903 -0.26001683
000270 c5 8f 95 3e 76 bf eb 3d f4 a4 c7 be 84 5a da be
       0.2921125 0.11511128 -0.38993037 -0.42647183
000280 06 8a 0e 3e e3 f7 94 be e0 40 2f 3d 01 23 1f 3e
       0.1391984 -0.29095373 0.04278648 0.15540697
000290 86 05 17 be 1c 8e 29 3e 98 76 87 bd 7e c7 07 be
       -0.14748201 0.16558117 -0.06614417 -0.13259694
0002a0 36 b6 32 be 8d 76 de be 19 8d c9 be 79 32 51 be
       -0.1745232 -0.43449822 -0.3936546 -0.2042941
0002b0 de 1b e1 3e 8a fe 75 be 0b 77 ad be 25 7c 9a 3d
       0.43966573 -0.2402288 -0.33879885 0.0754321
0002c0 72 b7 4f 3e 49 bd a1 3e 36 88 d1 3e 84 be 96 3e
       0.20284823 0.31589726 0.40924233 0.29442227
0002d0 b6 46 ed be 28 33 56 3d 19 24 90 3e 2d 3d 88 bd
       -0.4634301 0.05229488 0.2815254 -0.06652293
0002e0 d5 7e 82 be b1 e0 03 3f 7b 40 35 be 81 71 a1 be
       -0.2548739 0.51514727 -0.17700379 -0.3153191
0002f0 16 1c c3 be 9c a7 d3 3c f3 29 70 3e 03 7d 59 3d
       -0.38107365 0.025836758 0.23453502 0.053097736
000300 8c 37 9d 3c 3b 4f c1 be 23 35 e8 be 5d ac c6 3c
       0.019191526 -0.3775576 -0.4535304 0.024252111
000310 30 71 cb 3e 37 04 bb 3e e2 26 29 be 2c c1 10 be
       0.39734793 0.36526653 -0.16518739 -0.14136189
000320 a2 a2 ac be 9d 8f 16 be 75 c7 28 3e ba 24 79 3e
       -0.3371783 -0.14703222 0.16482337 0.24330416
000330 dc 3b c2 3e 96 34 db be 20 2f ec 3e ff a7 9b be
       0.37936294 -0.42813557 0.46129704 -0.30401608
000340 aa 41 59 3e f5 2c f5 3e 5a 03 b3 3d 82 f3 dd 3e
       0.21216455 0.47885862 0.08740874 0.43349844
000350 1c 38 ae be 03 ac 4e be 42 24 95 3e 4e 1c e5 bd
       -0.34027183 -0.20182805 0.29129225 -0.11187039
000360 5f bd a5 bd a2 3a 0c be 39 09 e1 3e cd f6 52 3e
       -0.0809276 -0.13694242 0.4395235 0.2060196
000370 ad cf e5 3d 42 d5 81 be 2c f7 b9 be 1d db 0a 3d
       0.11221252 -0.25358015 -0.3632139 0.03390037
000380 d6 22 9c 3d 68 2e 4f be d1 dc d9 bd dd ef 96 3e
       0.07623832 -0.20232546 -0.106378205 0.29479876
000390 79 16 8a 3d 52 a2 3b 3d 9a b9 a4 bd f5 1c c8 be
       0.067425676 0.045809098 -0.08043213 -0.39084592
0003a0 73 8e fb be b4 8b 57 be 78 df 47 be a6 1f 16 3e
       -0.49132118 -0.21049386 -0.1951884 0.1466051
0003b0 8b c5 b7 bd 7e 3f 4e be d5 95 f2 3e 01 f3 4b 3e
       -0.08973225 -0.20141408 0.47379938 0.19916917
0003c0 92 a8 93 3e ed 3e 50 be 4d 5a 11 be 58 fd f5 3d
       0.28839546 -0.20336504 -0.14194603 0.12011212
0003d0 35 18 9b be 6a c9 93 be 1b c7 79 3d 73 37 01 be
       -0.30291906 -0.28864604 0.060980897 -0.12618808
0003e0 32 3b 9e be 87 55 9a 3e de 90 c1 3e 69 5f cb 3c
       -0.30904537 0.30143377 0.37805837 0.024825769
0003f0 b2 c7 6d be 4c ed d2 be 3e c5 b2 bd af bc b3 3d
       -0.23220709 -0.41196668 -0.08729027 0.08776223

embeddings.student.bias f4 [128]
000000 48 10 e0 be c8 c4 83 be 92 de 02 bf 7c 95 3d be
       -0.43762422 -0.2573607 -0.51120865 -0.18514055
000010 a2 48 2a 3e 99 96 04 3f 02 95 ca 3b 98 40 08 3f
       0.1662927 0.51792294 0.006182314 0.5322356
000020 87 de 91 3d 84 54 3c 3e 91 1c 05 3f 46 b9 c2 3e
       0.07122522 0.18391615 0.51996714 0.38031977
000030 2c 99 99 be 20 ff e7 3e 31 c2 d7 3e 50 27 50 be
       -0.29999673 0.45311832 0.42140344 -0.20327497
000040 c7 d2 74 be 23 61 de be 61 f6 1c 3e d2 18 f2 be
       -0.2390853 -0.43433484 0.15328361 -0.4728456
000050 ab 83 8a 3e 5a e2 88 3e 5d 6f f3 be 02 c7 2b 3e
       0.2705358 0.26735193 -0.475459 0.16775134
000060 43 f8 2f bd 8e ee 2e 3e 2e c6 6f 3e 6a 1d ec be
       -0.04296137 0.17083189 0.23415443 -0.4611619
000070 de 6d 17 3f da a6 d2 3e d7 98 c5 3d 32 e4 fb be
       0.5915202 0.41142923 0.096482925 -0.49197537
000080 70 b3 44 be 64 fb 43 be f5 f8 23 be df f9 a6 3e
       -0.19209075 -0.19138867 -0.16012938 0.32612512
000090 d6 ce 3f 3e 57 f7 d1 3e e3 02 47 be f7 97 eb 3d
       0.18731245 0.41009018 -0.19434695 0.11503594
0000a0 07 d6 a8 3d e5 15 f2 be d4 ab 02 bf 46 f1 9e be
       0.082439475 -0.4728233 -0.5104344 -0.31043452
0000b0 4e 9b eb 3e 3d 21 f0 be 3e a1 bf be 4b 66 c8 3e
       0.46016926 -0.4690036 -0.37427706 0.39140543
0000c0 fd bf 66 3e 0b 24 d6 3e 2c dd d4 be 3d d0 bd be
       0.22534175 0.41824374 -0.4157499 -0.37072936
0000d0 67 80 ad 3e 68 11 05 3f 26 51 be 3e 32 b7 8a 3c
       0.33887026 0.51979685 0.37171286 0.016933057
0000e0 e7 27 e1 3d ad 18 0b 3f 3d 6f bc be 3c 03 51 be
       0.10993939 0.5433453 -0.36803618 -0.2041139
0000f0 ed b9 a0 3e 3d a4 c7 be cb 4f 83 be 92 39 b2 3e
       0.3139185 -0.3899249 -0.25646815 0.34809548
000100 4d 38 84 3d 72 3b 35 3e d4 cc 7f be 6a b0 d3 3d
       0.06456051 0.17698458 -0.2498048 0.10336383
000110 3d 2f 0e 3f d2 bc 89 be d6 80 3d bd e8 43 28 3e
       0.5554083 -0.2690187 -0.046265446 0.16432154
000120 76 82 b3 be e1 5f 04 3f 16 59 48 be 53 67 b7 bd
       -0.3506047 0.517088 -0.19565234 -0.089552544
000130 32 74 7d bd 06 fc cb be ec eb 11 bf d1 3a 9d 3e
       -0.06187839 -0.39840716 -0.57000613 0.30708936
000140 87 16 e5 3d 6c ee f6 be 0e 53 86 be 0f aa 05 3f
       0.111859374 -0.48228776 -0.2623524 0.52212614
000150 72 86 5e 3e 59 07 87 3e 4f d3 ac be 8c 36 fc bd
       0.21730974 0.26372793 -0.33754966 -0.123150915
000160 40 3f 89 bd c2 41 09 be fb 57 b9 be 6a 0a 84 3d
       -0.06701517 -0.13403991 -0.36199936 0.06447299
000170 16 10 23 3e dd 2b f9 3c b5 f6 16 3d 9b 28 61 be
       0.15924105 0.030416423 0.036856372 -0.21988146
000180 ba be 77 3e 36 b8 10 3c 30 ec 92 be 22 0e e4 be
       0.2419385 0.008832982 -0.28695822 -0.44542032
000190 92 ac 46 3e 5a 44 23 3e 49 34 74 be 8a 6a 00 3f
       0.19401768 0.15944043 -0.2384807 0.50162566
0001a0 bf 6c 7b be a6 1b bb 3e 0c bf 64 3e 4b 8c ed be
       -0.24553202 0.36544532 0.22338504 -0.46396098
0001b0 0c 40 b2 3e c4 46 ef be f3 80 ba be 7d 07 3f bd
       0.3481449 -0.46733677 -0.36426505 -0.046638
0001c0 a4 9e a9 be 6f 20 00 3f 93 d0 15 be 0e 66 24 3e
       -0.33128846 0.5004949 -0.14630346 0.16054556
0001d0 3f 75 01 bf 34 1c 9d 3e 82 3b 2a be 34 26 c7 be
       -0.5056953 0.3068558 -0.16624263 -0.38896334
0001e0 1f c9 d1 3d 35 de 85 3e b4 d7 0d 3f ac f5 78 be
       0.10243439 0.26146093 0.5540726 -0.24312466
0001f0 73 c4 4d be 84 a8 20 3e 4f 78 56 3e 61 c1 56 3e
       -0.2009447 0.15689284 0.20944332 0.20972206

convs.0.student_friend_student.weight f4 [2, 128, 128]
000000 38 1d 1b 3e 6e 55 90 3c 7f 0e 22 3d cd 2c 78 3c
       0.15147865 0.017618861 0.039564606 0.0151474
000010 8d fc c0 bd 84 bd 45 3d 66 b0 bf 3d 25 09 de 3d
       -0.0942317 0.04827644 0.09359817 0.10841588
000020 00 4e 7d bd e5 d5 06 be 14 e7 ef 3c d0 dc f8 39
       -0.061841965 -0.13167532 0.029284991 0.00047466764
000030 0b 66 e9 3c 85 a6 0e be 88 31 e4 3d f5 5e 51 bd
       0.02849104 -0.1393071 0.1114226 -0.05111595
000040 48 28 12 3e e0 b2 a2 3b 85 2c c5 bd c8 f6 a2 3c
       0.14273179 0.004965171 -0.09627632 0.019893065
000050 5a 31 e0 ba 95 fc 32 3c 39 62 16 be be 8b 8f bd
       -0.0017104552 0.010924478 -0.14685906 -0.070090756
000060 d0 e0 d1 bc 32 5a 06 be 7a 0e 6e 3d 03 57 50 be
       -0.025619894 -0.13120344 0.058119275 -0.20345692
000070 6d c1 8e bd 31 e3 36 be e9 d2 1d bc e2 43 84 bd
       -0.06970487 -0.17860104 -0.009632804 -0.0645826
000080 9b 6c 27 3b f0 63 95 bd 30 70 1b 3c e2 e9 4a 3e
       0.0025546912 -0.07294452 0.009487197 0.19815782
000090 d5 56 e5 3d 5f f0 cb bd 04 6c 44 be 06 cd a3 bb
       0.111982025 -0.099579565 -0.1918183 -0.004998806
0000a0 b9 54 0d be af b0 cf 3b e6 9e 1d 3e a5 98 a6 3d
       -0.1380185 0.006338201 0.15392646 0.081345834
0000b0 5a 32 b0 3d 88 de 2c 3e 9e 2a 9d bc 1d 07 78 bd
       0.08603354 0.16881764 -0.01918536 -0.06055366
0000c0 52 ad a3 3d b6 62 12 be 3f 0b 83 bc ce 7a 85 3d
       0.079920426 -0.14295468 -0.015996573 0.06517564
0000d0 1c 41 bc 3d 1b 17 40 bc 9d ba 3b bd 49 97 2a be
       0.09192106 -0.011724259 -0.045832265 -0.16659273
0000e0 a8 06 1a 3d 50 02 30 3e a9 8d c3 3d 71 d4 16 3d
       0.037604004 0.17188382 0.09548504 0.036823694
0000f0 0b b0 d7 3c 09 33 b1 bd 58 8d 11 3e f5 9b 82 3d
       0.026329061 -0.08652312 0.14214075 0.06377403
000100 92 91 1e 3d 17 2f a5 bd 8b 83 51 3e ed 58 8b 3d
       0.038713045 -0.08065622 0.20460336 0.068040706
000110 b0 56 bf 3d e3 9f 6e 3d bc b4 0e 3e db b6 40 3e
       0.09342706 0.05825795 0.13936132 0.18819754
000120 eb 04 33 3d a3 46 ae 3b 3d 98 c2 bd 23 97 99 3d
       0.043705862 0.005318479 -0.095016934 0.0749953
000130 5e 59 95 bc bd dc c3 bd 57 3e f3 3c 82 2d 46 bd
       -0.01823109 -0.09563587 0.029692812 -0.048383243
000140 53 2f 19 3e 62 c9 c9 3d 6a 29 39 bd 40 41 b8 ba
       0.14959459 0.09852864 -0.04520551 -0.0014057532
000150 bf 9d ae bd 64 72 e4 bd 6b 0e 97 3d 6a 99 d9 3d
       -0.085261814 -0.11154631 0.07375797 0.106249645
000160 19 73 ab 3d 96 e4 68 bd f6 d9 a9 3d 1d f6 ab bb
       0.083715625 -0.05685862 0.08293526 -0.005247845
000170 a0 b8 34 be 67 90 1e 3d bc a2 c7 3c 30 53 0d be
       -0.17648554 0.03871193 0.02436959 -0.13801265
000180 a8 50 84 bd 3e 1e 1c 3e ed 59 2c 3e dd 8e 55 3d
       -0.064606965 0.15245911 0.16831179 0.0521382
000190 95 36 40 3e 50 e5 98 bb d4 01 57 3c 8f 54 ad 3d
       0.18770821 -0.004666008 0.013122994 0.08463394
0001a0 d7 e3 cb 3c b4 bb 71 bb 09 5b bd bd e3 14 98 3d
       0.024888916 -0.0036885561 -0.09245879 0.07425859
0001b0 1b e9 12 be f4 60 39 bd 5a be 46 3e f3 16 49 3c
       -0.14346735 -0.045258477 0.19408551 0.012273538
0001c0 26 59 85 bd fc ab 1d 3e df 95 f4 bc 51 43 52 3d
       -0.06511144 0.15397638 -0.02985662 0.05133373
0001d0 94 0b 1f 3e 07 df b0 bd 84 9b 2b be 49 28 ac 3d
       0.1553176 -0.08636289 -0.16758543 0.08406121
0001e0 60 c9 01 ba 62 1a f0 bc e5 96 02 be cc 61 de 3d
       -0.00049509667 -0.029309455 -0.12752874 0.10858497
0001f0 c4 89 36 bd ed b5 82 bd 21 0b 31 be 5d a3 20 bd
       -0.044564977 -0.06382356 -0.17289402 -0.039218295
000200 7d 83 9c bc 14 fd 83 3c 97 fe 38 be a0 62 d6 bc
       -0.019105667 0.016111888 -0.18065868 -0.026170075
000210 bb a5 2e be f5 0c 37 be d5 67 b3 bd 61 cd 38 3d
       -0.17055409 -0.17876036 -0.08760039 0.04511774
000220 f0 ef 5f bd 85 a6 fa bd b5 67 33 3e 78 8f 71 3c
       -0.05467218 -0.12238792 0.1752003 0.014743678
000230 6d 5d cf 3c ee 42 4f be 03 48 6f bd 5a 39 40 bd
       0.025313104 -0.20240375 -0.058418285 -0.046929695
000240 b7 28 32 3e d6 4b 14 3d 3f ed 29 be 7d c0 c8 3d
       0.17398344 0.036205135 -0.16594408 0.09802339
000250 b4 bc e5 bd 17 da b9 bd 66 aa c5 bd 75 4e 93 3d
       -0.11217633 -0.090748005 -0.096516415 0.07192699
000260 49 19 4c bc 4d ec a5 bd 73 af 70 3d 0b 51 d3 bd
       -0.0124572 -0.081017114 0.05876107 -0.10318192
000270 ad c0 cf 3d 90 69 bc 3c 07 a3 9d 3d 1d 73 75 bd
       0.10144172 0.022999555 0.076971106 -0.059924234
000280 53 fe 83 3d 6e 27 93 bd 24 1d f2 bd 7c 41 2d 3e
       0.06444993 -0.07185255 -0.118219644 0.16919512
000290 dc f5 3b 3e e1 5f df 3d 2b a3 a4 bb c2 e6 c6 bd
       0.18355507 0.10906959 -0.005024334 -0.09711982
0002a0 61 08 6c 3c 15 85 85 3d 79 31 c1 bd d9 23 10 3d
       0.014406295 0.06519524 -0.09433264 0.035190437
0002b0 8b 29 21 be 50 24 a1 3d 5e 35 4c 3c 7d 7a a4 3c
       -0.15738504 0.07868254 0.012463896 0.020077938
0002c0 65 b4 8e bd c1 ae 31 bc c3 51 cf 3c e3 94 3e be
       -0.06968001 -0.010844887 0.025307542 -0.18611483
0002d0 a2 56 d2 3d 74 ff d9 bd 0a 4d 90 bd b6 ce 24 bd
       0.1027043 -0.10644427 -0.07045944 -0.040236197
0002e0 32 26 53 3d 80 2d df bd db fe 02 3e 13 ee 1b bd
       0.051550098 -0.1089735 0.12792532 -0.038068842
0002f0 73 d7 aa bc 28 02 7b ba 9d a5 a1 bc 7f e0 7f bc
       -0.020854687 -0.00095752114 -0.01973229 -0.015617489
000300 38 36 e3 bd dc 24 ed bd 64 9c fe 3b c3 b0 14 bd
       -0.11094326 -0.11579296 0.007770108 -0.036301386
000310 ee 9c da 3d 49 48 22 be e4 3a f8 bc e2 77 6f 3d
       0.10674463 -0.15847887 -0.030301519 0.05846394
000320 16 c2 3d bd 18 05 17 3e fa ac 86 bd ab 08 16 bd
       -0.046327673 0.14748037 -0.065759614 -0.03662936
000330 b3 9f c2 3c a2 e7 cb 3c e2 96 b5 bd 15 8a ed bd
       0.023757791 0.024890725 -0.08866669 -0.11598603
000340 58 d8 a3 bd a8 b1 4b bd 2b 10 a5 3c ea b7 af 3c
       -0.08000249 -0.049729973 0.020149311 0.021450002
000350 9b 6c 15 3d bf 55 15 be 6b d0 13 bd b5 74 56 bd
       0.036480527 -0.14583491 -0.036087435 -0.052357394
000360 e1 8f d4 3c cb 90 00 be 4a 84 b9 3a a9 53 11 be
       0.025947513 -0.12555234 0.0014153805 -0.1419207
000370 97 c4 d6 bc fe 0e aa 3d b1 86 f5 3d c2 ae 0f be
       -0.026216788 0.08303641 0.11988581 -0.14031509
000380 e3 20 68 3d 82 78 a8 3c 3d 6d 89 bd af 32 e7 3d
       0.05667199 0.020565275 -0.06710289 0.11288964
000390 a5 50 4c 3d 6b 36 ad 3d 64 ba fa bc 31 3e 47 bd
       0.049881596 0.08457645 -0.030606456 -0.048643295
0003a0 a0 c2 73 3d b9 d3 aa 3d 52 e5 a9 3d ff 8b d8 bc
       0.05951178 0.08341164 0.082956925 -0.026433943
0003b0 4d d1 c5 3d 98 76 a0 bd 1c bf 05 bd 3f fc 5f bc
       0.096590616 -0.0783512 -0.03265296 -0.01367098
0003c0 45 54 22 3e 18 f7 3e 3d e2 13 04 3c 05 2f 6d bb
       0.15852459 0.046622366 0.008061381 -0.0036191356
0003d0 f1 63 b9 bc ea 66 13 be 49 61 39 be 26 f2 59 3e
       -0.022630664 -0.14394727 -0.18103518 0.21283779
0003e0 a2 04 ad 39 98 91 55 3e 5a 0b 27 be 09 8d 14 3e
       0.00033000583 0.20856321 -0.16312924 0.14506926
0003f0 72 d2 2e be 44 e6 46 3d 6f b7 4c 3d 81 98 05 3e
       -0.17072466 0.048559442 0.049979623 0.13046457

convs.0.student_friend_student.root f4 [128, 128]
000000 bc d2 06 3c e2 aa 5b be 43 c1 25 be 13 7f 8f 3d
       0.008228954 -0.21451905 -0.16187005 0.07006659
000010 41 0b bf 39 21 66 f8 bd 10 29 5a be 13 71 81 bd
       0.00036438744 -0.121288545 -0.21304727 -0.06320395
000020 62 89 1e bd 2b 00 6b 3d b5 be 6e bd 83 0d 16 bd
       -0.038705237 0.057373207 -0.05828734 -0.03663398
000030 43 11 93 3d 4e 1a 5b bb 8c 87 83 bd 34 b6 9a bd
       0.07181027 -0.0033432427 -0.06422338 -0.07554284
000040 54 51 5b 3d 86 80 af 3b bd bf 16 3d e2 c6 ad bd
       0.053544357 0.0053558974 0.03680395 -0.084851995
000050 01 49 27 3a 30 a9 1e be e8 97 bb 3d 57 18 a3 3c
       0.0006381423 -0.15494227 0.09159833 0.019909067
000060 8e 4f 90 bc 5e c8 14 be 90 9a bc 3d 97 cf 98 bd
       -0.01761606 -0.14529559 0.09209168 -0.074614696
000070 31 60 44 bd ea 85 90 39 e3 4b ee bd 5f 64 b6 bc
       -0.047943298 0.00027565594 -0.11635568 -0.022264658
000080 44 91 bf b8 78 68 13 bd 82 b4 18 be ec f3 41 be
       -9.1346476e-05 -0.0359883 -0.14912608 -0.18940705
000090 ce 5c 67 be f3 cd 93 3d 55 c7 33 bd ea d5 00 bd
       -0.22593996 0.07217016 -0.04389127 -0.031454004
0000a0 ee a4 2d 3c 9d b8 6d 3d a3 a1 bf ba 25 ad 6b bd
       0.010598404 0.05803739 -0.0014620315 -0.05753817
0000b0 1d 01 2b bc d4 8b bd bc 12 1c 28 bb da 58 d2 bc
       -0.010437277 -0.023137964 -0.0025651497 -0.025677133
0000c0 c3 7d 31 be 0f 20 2b be 8c 02 8d be 43 53 15 3d
       -0.1733313 -0.16711448 -0.27541006 0.036456358
0000d0 e6 61 69 3d 43 68 32 bb a7 88 16 3b 25 be 22 bd
       0.05697813 -0.002722279 0.0022969635 -0.039732117
0000e0 91 3e 20 be e6 8b 66 3d 4d 2f 59 3c 2c d0 85 bd
       -0.15648867 0.05628576 0.013255906 -0.06533846
0000f0 e0 6a 7d be 5f 60 a8 3d 50 40 46 be 18 4c 17 be
       -0.24747801 0.08221506 -0.19360471 -0.14775121
000100 66 db 6c 3d 90 8a 0a be c0 e0 92 bd 52 31 8c 3c
       0.057826422 -0.1352942 -0.07171774 0.017113362
000110 bf a8 1c be 1f 39 0b bd 25 42 08 be 05 08 5b be
       -0.15298747 -0.03399002 -0.13306482 -0.21389778
000120 22 65 65 be 31 f0 13 3d 82 fc 0e be 69 3a 0c be
       -0.2240186 0.036117736 -0.13963512 -0.13694157
000130 3d 89 16 3c 2f 0d a9 bd 11 fe ff bd 94 4b cd bd
       0.009187994 -0.08254468 -0.12499631 -0.10024181
000140 89 05 f2 bd 09 c0 5e be 49 85 49 3a f9 e6 73 be
       -0.11817462 -0.21752943 0.00076874025 -0.23818578
000150 49 11 95 3c 4f eb 42 be 6a 80 66 3d 17 78 a5 bb
       0.018196719 -0.19035076 0.05627481 -0.005049716
000160 d0 08 81 3c fc a9 73 bd 43 00 6b bd 19 11 8b 3c
       0.015751272 -0.05948828 -0.057373296 0.016975926
000170 58 79 2e be 44 69 bb 3c 2c c0 b5 bd be 30 cf bd
       -0.17038476 0.022877343 -0.088745445 -0.10116719
000180 c9 4e 3b 3d 97 04 a2 bc d5 9b 83 be 17 cc d6 bd
       0.045729432 -0.01977758 -0.25704828 -0.10488146
000190 a0 59 47 bd 72 15 54 be 7a 28 4b be 43 6b 46 be
       -0.048669457 -0.20711306 -0.1983966 -0.19376855
0001a0 07 b7 ba bc 83 c6 b1 bd 56 ef 4d be 14 30 c6 bc
       -0.022792352 -0.08680441 -0.2011083 -0.024192847
0001b0 31 56 46 3c 90 ca 25 3d c0 41 e6 bd 4a 90 53 be
       0.012105511 0.04047638 -0.112430096 -0.2066051
0001c0 c8 59 83 bd d3 3d e6 bd e9 6c 60 3d 55 26 68 bd
       -0.06413609 -0.11242261 0.054791365 -0.05667718
0001d0 ff c0 0d be f8 d1 48 3d 4d b3 61 bc ef c6 98 be
       -0.13843153 0.049028367 -0.013775659 -0.29839274
0001e0 24 23 1a b8 80 62 1c be a4 1a 87 3d 7e 8f 71 bd
       -3.674919e-05 -0.1527195 0.06596878 -0.058974735
0001f0 fd e3 db bd c8 67 2f 3e 11 06 ea 3c 1c 27 54 3d
       -0.10736845 0.17129433 0.028567346 0.05179511
000200 15 6a 64 bd 87 df 5f bd a1 71 4f be 63 4c 0b be
       -0.05576523 -0.05465653 -0.2025819 -0.13603358
000210 b6 14 e5 3c a7 c4 a9 bd ce 85 1e 3d 4e ef 13 be
       0.027963977 -0.082894616 0.038701825 -0.14446756
000220 58 e8 a1 3d 1c 06 99 3d c8 5d 27 be e2 20 b1 3d
       0.07905644 0.074718684 -0.16344368 0.0864885
000230 62 de 72 3d 1c 6d e0 bd 17 20 1e 3d f0 43 30 be
       0.059294112 -0.10958311 0.038604822 -0.17213416
000240 48 ab 54 bd 03 d5 f4 bb 9b 22 a3 3d 08 f6 3f 3d
       -0.05192116 -0.007471682 0.07965585 0.046865493
000250 f3 83 32 3b 8c 48 97 bc 10 72 1b be 1c 69 2d bd
       0.0027239292 -0.01846721 -0.1518023 -0.04233657
000260 e8 19 2c be 99 5e c7 bc 44 fa 51 3d f4 8e 0a bc
       -0.16806757 -0.0243371 0.051264063 -0.008456934
000270 29 0b d7 3c 62 ff 9b 3d af d8 4f 3b 3b 6b 51 3d
       0.026250439 0.0761707 0.0031714847 0.051127654
000280 08 51 08 bb 5c d7 38 be 95 e8 36 be 5a d2 9c 3c
       -0.0020800252 -0.18050903 -0.1786216 0.019143272
000290 7b e9 76 bd f2 1f b9 bb f2 e7 a8 bd e3 62 19 bc
       -0.060281258 -0.00564956 -0.08247365 -0.009361955
0002a0 eb bc 36 be cd cb 5b bd e8 e1 90 bd d7 ba fe 3d
       -0.17845504 -0.053661156 -0.07074338 0.124379806
0002b0 da fa 86 3c 00 d9 c2 bc f2 aa 1d be ad ef 16 be
       0.016477037 -0.023785114 -0.15397242 -0.14739867
0002c0 c2 d3 3a be 06 31 16 be 49 27 33 be a6 c2 48 3d
       -0.18244842 -0.14667138 -0.17495455 0.049013756
0002d0 1c 55 eb 3d 4f 39 9e bd ed 4a 95 3c dc ab 9d 3d
       0.11490843 -0.077257745 0.018224204 0.07698795
0002e0 9e d5 9d bd 36 4f b5 3c 90 e6 1a be 9a 9d d5 3d
       -0.0770676 0.022132497 -0.15127015 0.10430451
0002f0 26 40 80 bd 98 43 ca bc d8 87 3a be 71 91 0d bd
       -0.06262235 -0.024690434 -0.18215883 -0.03456253
000300 1c d8 af bd 2f 4e 18 be 17 d6 90 be aa 92 f4 bd
       -0.085861415 -0.14873575 -0.28288338 -0.119420364
000310 1c 66 80 3d a7 1d ae bd 3a 97 99 bc 99 2b b7 3d
       0.06269476 -0.085017495 -0.018748868 0.089438625
000320 d4 93 37 3d 21 f5 fa 3d 3c 31 01 3e 49 94 77 bd
       0.044818714 0.12253786 0.12616438 -0.06044415
000330 9a df 0a bd 47 d1 b1 3d d7 10 e8 bd d9 08 82 bd
       -0.03390465 0.086824946 -0.11331337 -0.06349344
000340 92 e4 1b bd c9 fb e6 3b 68 2b 23 ba 3c 60 c9 bd
       -0.03805978 0.007049058 -0.00062244246 -0.098328084
000350 3a 66 aa 3c fe b9 42 bd 12 83 93 bd 1c a8 86 3d
       0.020800699 -0.047540657 -0.07202734 0.06575033
000360 d7 6c 1d 3d 12 00 3e bd 1d 2f 24 be b6 f6 7d bd
       0.038433876 -0.046386786 -0.16033597 -0.06200286
000370 5c a9 1b be 03 99 49 be bc 8e dd 3d 56 13 46 bd
       -0.15201324 -0.19687276 0.1081824 -0.048358284
000380 f4 2b 1d be 8f de 76 bd 05 eb b3 3c 24 d8 9a bd
       -0.15348798 -0.060270842 0.021962652 -0.07560757
000390 75 e8 9f bd 8b e9 e9 bd 9c f6 b1 3d 81 bf 13 bd
       -0.078080095 -0.11421498 0.08689615 -0.036071304
0003a0 f4 95 cc 3d 53 d2 51 bc b0 29 57 3d 8b cd 28 be
       0.09989539 -0.012806493 0.05252999 -0.16484658
0003b0 c2 c6 ca 3b cb df 1f be 7e 66 b7 3d ee 79 29 be
       0.0061882446 -0.15612714 0.08955096 -0.16550419
0003c0 3c a2 3f be e6 9c 0f be cd 02 18 be 9f 22 47 be
       -0.18714231 -0.14024696 -0.14844818 -0.194468
0003d0 d7 42 11 be 98 12 b8 3d 07 8f ab bd e8 01 4e bb
       -0.14185654 0.089879215 -0.0837689 -0.0031434242
0003e0 5e b3 9f bb 2c 16 e1 bd 54 ad c6 bd 0c 57 26 be
       -0.004873677 -0.10990557 -0.097010285 -0.16244143
0003f0 95 3f 33 3d 54 91 2c be 3e 58 27 be ab 6e 7f bd
       0.04376181 -0.16852313 -0.16342255 -0.0623614

convs.0.student_friend_student.bias f4 [128]
000000 e0 07 9f 3d ca b2 b1 3d c0 fb 28 bd fa 69 73 bd
       0.07765174 0.086766794 -0.041255713 -0.05942724
000010 6e 09 75 bd 68 87 75 bd fb fd 5e 3d c8 84 19 bc
       -0.059823446 -0.059943587 0.054441433 -0.009370036
000020 3c 35 89 3d 2e 31 75 bd 6d 56 a9 3d 8c 09 73 bd
       0.06699607 -0.059861355 0.082684375 -0.059335276
000030 7c 7d 73 bd 93 d9 74 bd 76 fd 94 3d 39 ae 16 3d
       -0.059445843 -0.059777807 0.07274906 0.036787245
000040 9f 64 97 3d cb 65 50 3d 9a 4f 55 bd e5 fd ce 3d
       0.07392239 0.050878327 -0.052077867 0.1010702
000050 ca 40 6d bd 5e 22 74 bd 9a ad 54 bd a4 12 75 bd
       -0.057923116 -0.059603088 -0.05192337 -0.05983223
000060 be 00 75 bd bb 0c 60 bd 2a da 5d 3d e2 ca 77 bd
       -0.05981516 -0.05469964 0.054163136 -0.06049622
000070 5d 78 8f 3d 10 1f 41 bd 78 18 67 3d e9 15 9e 3c
       0.07005379 -0.047148764 0.05641982 0.019297557
000080 9d 04 72 bd e2 d4 2f bd a1 1a 77 bd fc 1d b0 3d
       -0.05908643 -0.04292763 -0.06032813 0.08599469
000090 fa d9 a2 3d 75 02 28 bd 7d f7 49 bd de 93 72 bd
       0.07951732 -0.04101797 -0.04930829 -0.05922305
0000a0 68 f4 65 bd 6e c7 7b bd 20 0f 9f 3d e9 fb a2 3d
       -0.056141287 -0.061469488 0.07766557 0.07958204
0000b0 64 22 40 bd d2 23 92 3d 7b 62 3e bd 5b fa 93 3d
       -0.046907797 0.071357384 -0.046480637 0.07225486
0000c0 09 dd 68 bd ff 7e 9a bd 33 13 9b 3d 31 a1 6d bd
       -0.05685142 -0.07543754 0.07572021 -0.058015052
0000d0 d7 88 ae ba 68 2d 6b bd 40 ba 73 bd c8 1e 57 bd
       -0.0013315928 -0.05741635 -0.059503794 -0.05251959
0000e0 67 2f ab 3d f2 2d 7e 3d 2c f6 9b 3d be 25 63 3d
       0.08358651 0.062055536 0.07615313 0.055455916
0000f0 5f 14 b2 3d f0 0e 05 bd c5 44 b5 3d 38 3b 97 3d
       0.08695292 -0.03248495 0.08851007 0.07384342
000100 de eb 73 bd 81 b8 74 bd e7 39 9a 3d 97 8c b3 3c
       -0.059551112 -0.05974627 0.07530575 0.021917624
000110 b9 c6 bc 3d b3 90 27 bd e6 27 a7 3d 1d ae a4 3d
       0.09217591 -0.04090948 0.08161907 0.08041022
000120 c9 a8 8d bd 53 12 af 3d 51 77 93 3d d5 56 4b bb
       -0.06916959 0.08548417 0.07200492 -0.0031027098
000130 11 e0 70 bd 58 31 75 bd 4a 4c 9b 3d cf 7a 74 bd
       -0.058807436 -0.05986151 0.0758291 -0.059687432
000140 28 55 a2 3d de f5 9d 3d c5 d8 6f bd 12 30 96 3d
       0.079263985 0.07712911 -0.058556337 0.073333874
000150 e5 f9 97 bc db 0e 64 bd 0a ba 74 bd c6 c3 95 3d
       -0.018551776 -0.05567823 -0.059747733 0.073127314
000160 27 53 5e bd 34 0d 75 bd 09 02 8c 3d e2 db 71 bd
       -0.05427852 -0.059827045 0.06836326 -0.059047587
000170 07 ec 19 bd ea 20 74 bd 8b df 96 3d 68 0f 75 bd
       -0.03757861 -0.0596017 0.07366856 -0.059829146
000180 f6 1b 91 3d d1 10 71 3d 8e 3b a3 3d 2e 38 d2 3b
       0.07085411 0.058853928 0.079703435 0.0064153885
000190 7e 09 9b 3d a1 5c af 3d 1f 8d 82 3d 71 aa 45 3d
       0.0757017 0.085625894 0.06374573 0.04825825
0001a0 fa aa 8e 3d e9 32 57 3d 95 19 8b 3d 53 c5 92 3d
       0.06966205 0.052538786 0.06791989 0.07166543
0001b0 e7 a8 60 bd 80 43 73 bd 09 29 a1 3d a6 30 ba 3d
       -0.054848578 -0.059390545 0.07869155 0.0909131
0001c0 61 a9 86 bc 01 c1 a1 3d 8e 05 6b 3d e7 20 b0 3d
       -0.016438188 0.07898141 0.057378344 0.086000256
0001d0 3a d1 45 3d 3f 7b 9c bc af f8 75 bd b7 03 d4 3d
       0.048295237 -0.019101737 -0.060051616 0.10352271
0001e0 05 32 a8 bc 4b af a6 3d 35 f9 5d bd 4c f2 ab 3d
       -0.020531664 0.08138903 -0.05419274 0.08395824
0001f0 d8 68 96 bd a6 9e 23 bd 96 17 75 bd 8e 75 2e 3d
       -0.07344216 -0.03994622 -0.059836946 0.042592578

convs.0.student_disrespect_student.weight f4 [2, 128, 128]
000000 03 d9 5f 3d 61 3d c8 3c 43 4f 20 3a 00 e1 bd 38
       0.054650318 0.02444333 0.00061153265 9.054132e-05
000010 98 ea 06 bd f5 9c 98 bd 53 2c a6 bd 52 4f a8 bc
       -0.03293857 -0.07451812 -0.08113923 -0.020545635
000020 b8 6c ce 3d 85 08 f9 bd 8e 33 1e 3e 1e 3c 25 bd
       0.1007933 -0.12159828 0.15449354 -0.040340535
000030 4f 8b 00 bd fc 5f f4 ba 35 c6 32 ba 63 05 32 3c
       -0.031382855 -0.0018644328 -0.0006819696 0.010865542
000040 2c d7 9b bd d7 93 fc 3d ba 38 90 bd 56 07 34 3c
       -0.076094 0.12332886 -0.0704207 0.010988077
000050 e1 0a fb b8 4c 71 6f 39 cd ee ab bd 56 66 74 bc
       -0.00011970639 0.00022835023 -0.08395157 -0.014916977
000060 c2 c8 78 bb e5 b0 c4 3c 8d bc e5 bd 2f d9 3e be
       -0.0037961458 0.024010131 -0.11217604 -0.18637536
000070 f5 1c c4 bc 93 2b 32 be 90 6b c9 bd c9 94 d1 bd
       -0.023939589 -0.17399435 -0.09834969 -0.10233457
000080 36 0c e9 bb a9 cc 6f bd 8c 0e 63 bc 8b e1 0c bd
       -0.0071120514 -0.05854479 -0.013858449 -0.034394782
000090 5b 4c 10 3d 01 7a 3d bd 81 08 7b 3d 70 80 9f bc
       0.03522907 -0.04625893 0.061287407 -0.019470423
0000a0 73 7e 19 be 47 0c 22 3d 14 24 8d 3d d3 33 9e 3d
       -0.14989643 0.03956249 0.06891647 0.077247284
0000b0 b0 93 16 be fd 2b 66 bd de 58 79 bc 40 24 13 3e
       -0.14704776 -0.056194294 -0.0152189415 0.14369297
0000c0 30 c4 0f bc 18 4d 4f 3d 25 a9 79 3d 53 0e 66 3d
       -0.008774802 0.05061063 0.060952324 0.056166004
0000d0 fa 8e 07 be c6 83 f3 3a e5 3b be 3c 27 3a da bd
       -0.13238135 0.00185787 0.02322192 -0.10655623
0000e0 d7 fd 32 3e 9f c0 57 3d 4a b9 da 3d d1 08 01 3e
       0.17479645 0.052673932 0.10679872 0.1260102
0000f0 a9 5c 86 bd bb d1 22 be 87 95 3e 3e 7c 23 93 3b
       -0.06560642 -0.15900318 0.18611728 0.004490314
000100 6f 24 1c be 7f 94 aa bb 97 c0 86 bd 2f 49 04 3e
       -0.15248273 -0.0052056904 -0.06579702 0.12918542
000110 db e4 b1 bd 08 e4 e0 bd 04 2b ae 3d e7 d3 17 3e
       -0.08686229 -0.109809935 0.08504298 0.14826928
000120 03 0f 68 bc c8 9d 19 3e d9 95 bb bc a4 32 5a be
       -0.014163735 0.15001595 -0.022898601 -0.2130838
000130 b9 29 bd 39 f9 5a be bd e7 6c 89 bc 05 49 e7 ba
       0.00036079975 -0.092946954 -0.016775561 -0.0017645663
000140 d4 a3 3f bb 4a 91 82 bd 51 cd 51 bd 97 c5 44 3d
       -0.0029241936 -0.06375368 -0.051221196 0.04804
000150 ff 93 06 be ad 7c ce 3c 31 f6 7f 3d c6 e0 4f bc
       -0.13142394 0.025205934 0.062490646 -0.0126878675
000160 3b 4a 34 be 57 e5 ad bc 7b a7 71 3d 20 3d 9f bb
       -0.17606442 -0.021227522 0.058997612 -0.0048595816
000170 f8 98 22 bc 9e 94 d9 3c 16 43 63 3d 1d 1e b0 bc
       -0.009924166 0.026560124 0.0554839 -0.021498734
000180 ab 2a fe 3d b2 3f ea 3d dc 8d c4 bc 87 b2 38 3d
       0.12410482 0.1143793 -0.023993425 0.045092132
000190 07 73 cf bd 6b e0 1c 3e 99 bf 63 3d 54 27 d6 bd
       -0.101293616 0.15319984 0.055602644 -0.1045672
0001a0 34 c7 31 3d aa b0 db bd 35 b2 0c 3e ce ac ff bd
       0.043402866 -0.10727055 0.13739856 -0.12484132
0001b0 cb b0 7f bc 1d 17 a9 3c 4e 98 fb 3c 6d 13 86 3d
       -0.015606116 0.020640904 0.030712273 0.06546674
0001c0 37 54 0e 3d 85 c5 95 3d 67 3b 6e 3d 4f 38 22 3d
       0.034748282 0.073130645 0.05816212 0.03960448
0001d0 2e fc 26 3e 3a c9 8e bc 53 98 70 3d 31 df ef 3d
       0.16307136 -0.017429937 0.058739018 0.11712492
0001e0 58 51 b0 39 9b d7 8f 3d bb 6a 7a bd dc 30 8c 3d
       0.00033629942 0.07023545 -0.061136942 0.06845257
0001f0 ff 24 4c 3d 78 20 8b 3c 78 fe 4c be a0 ce 57 3c
       0.04983997 0.016983256 -0.20018947 0.013171822
000200 2c c6 ad 3d ba 40 20 3e 96 a5 fa bd e9 b8 84 3c
       0.08485064 0.15649691 -0.12238614 0.016201453
000210 1f d1 c9 bd 01 c8 31 be c9 4d ab bd d9 d4 6b bd
       -0.0985434 -0.17361452 -0.08364446 -0.057576034
000220 62 f0 66 3d 9b 5b 2f bd 97 be 3a 3e c3 7f b5 bc
       0.05638159 -0.04281197 0.18236767 -0.022155648
000230 35 00 b0 bd 78 ac 96 bd 68 24 4c 3e 7f f1 f9 3d
       -0.085937895 -0.073571146 0.19935763 0.12204265
000240 6d 3f d7 bd 77 11 40 3e e8 fe 93 3c 1b 99 e3 3c
       -0.105101444 0.18756662 0.018065885 0.027782967
000250 51 9a b6 bb f7 d0 02 39 ad 1d e6 3b d6 95 ca bd
       -0.005572595 0.00012475612 0.0070225806 -0.0989186
000260 b8 d4 77 3c 97 6f a8 3b 34 4b 80 bd 24 23 ad bd
       0.0151264 0.0051402557 -0.06264344 -0.08453968
000270 96 55 37 3e b2 0d 23 be 3a d0 99 3d c6 f7 96 3c
       0.17903742 -0.15923193 0.07510419 0.018428694
000280 0d 49 8c 3d 02 83 2e be bb db 85 3d a2 e5 fb 3d
       0.06849871 -0.17042163 0.06536051 0.12299658
000290 43 27 5a 3c 7d ec 4c bd 16 86 72 bd 0c 43 e2 bb
       0.013315025 -0.05003022 -0.059209906 -0.0069049653
0002a0 89 d4 19 be 2c 8b 89 bd fc b6 91 bd 7b c8 52 3e
       -0.15022482 -0.06715998 -0.071149796 0.2058429
0002b0 85 28 2b bd ca 69 d3 bd 58 f7 8c 3d 44 18 78 3e
       -0.04178669 -0.10322912 0.068831146 0.24228007
0002c0 82 56 91 bd b6 ef 9f bd 63 b8 8a bc a0 89 c6 bb
       -0.07096578 -0.07809393 -0.016933626 -0.0060588866
0002d0 15 17 b8 3d 5c 56 f9 39 48 4f 29 bb 46 ad eb bd
       0.089887775 0.00047557324 -0.0025834609 -0.11507659
0002e0 e1 14 16 3d a8 4b 21 bd d0 4c 19 3d b9 75 3f 3e
       0.036641005 -0.039378792 0.03742677 0.18697251
0002f0 00 79 49 bb 6b fa 87 bb 4f c1 59 3e 82 5a 23 3e
       -0.0030742288 -0.004149725 0.21265148 0.15952495
000300 57 61 18 be bf d4 c6 bd 0f 61 54 3b 5e 13 de bd
       -0.14880882 -0.09708547 0.0032406484 -0.10843538
000310 a7 7e 1e 3e 39 2d a9 3c cf 6e 90 bd 67 30 26 3e
       0.15478002 0.020651447 -0.07052385 0.16229402
000320 5e 69 05 be 72 24 81 bd f9 2e 38 bc 7c 21 f4 bd
       -0.13028476 -0.063057795 -0.011241668 -0.11920449
000330 6e 41 62 bd 19 c0 49 bd 52 b8 42 bd 54 22 75 3d
       -0.05523818 -0.049255464 -0.047539063 0.05984719
000340 30 65 05 3d 21 07 c1 3d 16 6f 9a ba 53 e0 9f bd
       0.032567203 0.09425188 -0.0011782374 -0.07806458
000350 0b 9e 68 bc ff 8f 93 3d d0 db 92 3d 0c c2 41 3d
       -0.014197837 0.072051995 0.07170832 0.0473042
000360 5e bc f1 3d 4e f1 02 be ed 88 b4 bd 03 b2 3c bc
       0.11803506 -0.12787363 -0.08815179 -0.011517051
000370 1d 1c 2e be 9a 6c ac bd c3 d4 16 3e 3c d3 36 bd
       -0.17002912 -0.084191516 0.147296 -0.044635043
000380 24 18 99 3c d6 99 2f bd d2 fe c3 3d c1 44 ac bd
       0.018688269 -0.04287132 0.095700875 -0.08411551
000390 6c ad 4f bd 29 ef 1e 3d 30 ac ea bd c7 25 88 bd
       -0.050702497 0.0388023 -0.114586234 -0.066478305
0003a0 b4 65 70 3e 31 7c 22 3e 08 fc ad 3d 7b 49 7f bd
       0.23476297 0.15867688 0.08495337 -0.062325936
0003b0 ac 80 a1 bc 16 73 62 ba 33 58 57 bd fb 8d 48 bd
       -0.019714676 -0.0008638365 -0.052574348 -0.048963528
0003c0 a7 a3 28 be ac b4 fd 3d f3 b8 d5 bd bd 7c 6b 3d
       -0.16468678 0.12387976 -0.10435667 0.057492007
0003d0 25 6a 83 3d 91 60 8f bd ed 69 00 be 76 7b 4c 3e
       0.0641673 -0.070008405 -0.12540407 0.19968972
0003e0 b6 1f 29 3b 50 4c 55 3e 60 df c4 bd da cd 7a bd
       0.0025806255 0.20829892 -0.09612918 -0.06123147
0003f0 26 8e 47 bd 03 64 ff bc 8a 8b 51 bd 82 11 34 bd
       -0.048719548 -0.031175619 -0.051158465 -0.04396201

convs.0.student_disrespect_student.root f4 [128, 128]
000000 11 0c a1 bd 7e 69 61 be 26 69 88 3d 34 f4 ed 3c
       -0.078636296 -0.22012898 0.066606805 0.02904711
000010 a9 d4 92 bd 0f 48 05 be 41 8d 99 3d bb 66 b2 bd
       -0.07169468 -0.1301577 0.07497645 -0.087110005
000020 18 fc 2a be 7a ef 78 bd 02 03 34 be bb bc 02 be
       -0.16697729 -0.060775258 -0.17579272 -0.12767307
000030 34 af 9a bd 55 3b a5 bb e5 0b 85 be 77 4c af 3d
       -0.075529486 -0.0050424733 -0.25985637 0.085595064
000040 a3 f8 47 3d 7b 25 05 3c 16 d5 be 3c 38 6c ab bd
       0.048821103 0.008126612 0.023294967 -0.083702505
000050 e7 1b c2 b8 d8 aa 08 3d ee 8f e6 bd f1 46 94 bc
       -9.255838e-05 0.033366054 -0.11257921 -0.018100234
000060 1b 6a 31 bd 62 c8 7c 3c 77 ab 0c be 33 79 1d 3d
       -0.04331408 0.015428634 -0.13737284 0.038445663
000070 23 15 c2 3c 5e ac 32 bb 70 8f d0 bd d8 c7 09 be
       0.02369172 -0.0027263383 -0.101836085 -0.1345514
000080 b0 56 16 ba 7b 40 a4 3b 03 fb 00 be 20 29 34 be
       -0.00057349633 0.0050125695 -0.12595753 -0.17593813
000090 7e 1d fd bb 08 56 39 be 0e 24 a3 3d df 01 79 3d
       -0.007724463 -0.18099225 0.07965861 0.0607928
0000a0 5d 22 d4 bd 94 5c b3 3b 81 a7 11 bd ab ed 01 be
       -0.10358117 0.0054736827 -0.035560135 -0.1268832
0000b0 42 15 5a 3c 4b 6f 8f ba 30 b9 ee 3c c8 88 39 3c
       0.013310732 -0.0010943202 0.029141039 0.011324115
0000c0 a4 9c 85 bd 82 e0 50 bd 24 41 e4 bd 0f 46 41 bd
       -0.065240175 -0.050995357 -0.11145237 -0.047185954
0000d0 4b d8 1a be 7c f4 9a 3a 6e 14 62 bb 4b f5 00 3b
       -0.15121572 0.001182213 -0.003449704 0.0019677456
0000e0 5b 3b 2a be 08 7b 93 3c 6e b3 d0 bd 9f 3f 04 be
       -0.16624205 0.018003002 -0.101904735 -0.12914895
0000f0 5d 39 8a 3c 2c d5 18 bd 90 34 dd bd 35 52 2f be
       0.016873056 -0.03731267 -0.10801041 -0.17121203
000100 c8 ff 9b 3d ca e5 d8 bc 11 ea 9c bd d6 c9 35 be
       0.07617146 -0.02647676 -0.07661832 -0.17752776
000110 62 0e cf bc f3 31 b8 3c 8f 6b d4 bc 7b 65 39 be
       -0.025275413 0.022484755 -0.025930194 -0.18105118
000120 0a 49 07 be 3c 5c 2b be 82 5b e7 bd 0d 51 3a be
       -0.13211456 -0.16734403 -0.112967506 -0.18194981
000130 f1 cd 15 bd bf 51 29 be 86 b4 32 be 17 a3 0c 3c
       -0.036573354 -0.1653509 -0.17451677 0.0085838055
000140 e0 63 fd bd 70 1d 06 be ec f6 cf 38 67 26 11 be
       -0.12372565 -0.13097167 9.916522e-05 -0.14174806
000150 1b a0 8f 3d e0 dc bd ba a3 e2 86 bd 97 c7 f5 bd
       0.070129596 -0.0014485382 -0.06586196 -0.12000959
000160 d4 63 c5 3d de 03 80 3b 67 d6 aa bd 39 de 2a bb
       0.09638181 0.003906711 -0.08341675 -0.0026072396
000170 57 ea d6 3c 5a 08 2b be 64 5d 45 be 87 09 91 3d
       0.026234789 -0.16702405 -0.19273907 0.07081895
000180 8e bc 43 bc 9d 56 67 bd 25 11 1e 3d 86 25 a4 3d
       -0.01194681 -0.056479085 0.03859057 0.080149695
000190 6f 5a 92 bd d0 4a 42 bd 67 3e b4 bc 70 0d 38 be
       -0.07146155 -0.047434628 -0.022002412 -0.17973876
0001a0 16 3d 02 3d 80 d0 c8 3c cf c6 65 be 73 90 1b be
       0.031796537 0.024513483 -0.2243912 -0.15191822
0001b0 ec 90 7c bd 37 4a 08 be aa 98 65 3c 1c 82 92 bd
       -0.061661646 -0.1330956 0.014013449 -0.07153723
0001c0 83 f9 14 3d 8a 06 6a be b6 07 4f be 9a 2f 86 be
       0.036370765 -0.22854057 -0.20217785 -0.26208192
0001d0 a3 e1 47 bd 8d 63 14 be 8e 80 57 3d f5 11 0b be
       -0.04879917 -0.144911 0.052612834 -0.13581069
0001e0 2b 2a 82 b9 e2 f6 33 be 17 e8 ae 3d 3d 70 5a be
       -0.0002482695 -0.17574647 0.085403614 -0.21331878
0001f0 dc 91 13 3d 78 ad b1 3d 2c 1b 20 be ec d8 53 bd
       0.036027774 0.08675665 -0.15635365 -0.051720545
000200 ad d7 96 bd f1 8b 1d 3d 0d df c7 3d 93 fb 7c 3d
       -0.07365356 0.038463537 0.097593404 0.061763357
000210 21 f6 16 be 98 b6 aa bd 78 c3 73 3d 09 ed ee bd
       -0.14742328 -0.08335608 0.059512585 -0.116663046
000220 81 4c aa 3c 71 f9 b3 bd e3 8f 7e bd 53 68 c0 3c
       0.020788433 -0.087878115 -0.06214894 0.023487246
000230 fd 79 2a bc e0 78 3d be 5c 2e 93 3d 5c 99 d5 3c
       -0.010405061 -0.18503141 0.07186577 0.026074104
000240 7e c8 25 be 60 5b c3 3d cd 17 64 3d 39 9e db bc
       -0.16189763 0.09538913 0.05568676 -0.026808845
000250 72 b7 10 ba 3a 2f d1 bc b0 85 0f bd 2a 5e 2f be
       -0.00055204995 -0.025535215 -0.035039604 -0.17125764
000260 f1 73 51 bd 5a 75 05 be 48 1f 85 3c be 18 31 3c
       -0.05113596 -0.13033047 0.016250268 0.010809122
000270 af 5e 18 be 5b 61 d5 bd f2 da 26 bd af 9d 33 be
       -0.14879869 -0.1041896 -0.040736146 -0.1754062
000280 be e0 b0 3d 03 48 32 3d 4a aa 82 bd 82 76 e0 bd
       0.08636616 0.043525707 -0.06380136 -0.109601036
000290 a0 12 ae 3d b1 48 4f 3c 1b f6 06 be c7 fb 02 be
       0.08499646 0.012651608 -0.1317982 -0.12791358
0002a0 25 0b d1 3c 00 c2 a4 3c f8 28 69 3d bc cd 1c be
       0.02551801 0.020112038 0.056923836 -0.15312856
0002b0 66 72 59 bd 46 0f bd ba 5d d1 44 3d 5e 21 c2 bd
       -0.053087614 -0.0014424108 0.048051227 -0.094790205
0002c0 f4 e7 83 3c 65 35 e3 bc 9e 02 09 be 94 48 e0 bd
       0.016101815 -0.027735421 -0.13379905 -0.10951343
0002d0 bc 28 01 be e5 9c ce bc 7e c1 ad 39 5e 48 ca 3d
       -0.12613195 -0.025221298 0.00033141294 0.09877084
0002e0 94 b5 0a 3d 97 c0 86 bb 27 91 a8 bd 40 c8 10 bc
       0.033864573 -0.004112314 -0.082308106 -0.008836806
0002f0 09 28 c8 bc 8b 82 d9 bb f0 5b aa bd 17 8c ae bd
       -0.024433153 -0.0066378764 -0.08318317 -0.08522814
000300 5b 67 df bd 24 29 b1 3d 03 3b 2a be 06 98 8b bd
       -0.10908385 0.08650425 -0.16624074 -0.068161055
000310 94 54 3c bd f5 3b 05 be 83 68 db 3d e7 16 44 3c
       -0.045979097 -0.13011153 0.107132934 0.011968351
000320 6f bf b6 bd f3 4c a7 3d 0f ab b3 bd f1 f2 49 3d
       -0.08923232 0.08168974 -0.08772861 0.049303953
000330 e9 4b 82 3b 23 8f 4a 3d 1b fd 99 bd a8 12 07 bd
       0.0039763344 0.049452912 -0.07518979 -0.032976776
000340 a4 ed 1e be d4 a1 d3 bd a2 a5 d8 b8 05 69 9f 3c
       -0.1552034 -0.10333601 -0.00010330534 0.019459257
000350 9b 10 17 be 97 cd 4c 3d d3 48 95 3d 29 f9 1e 3c
       -0.14752428 0.050000753 0.07289281 0.009702959
000360 23 6d 6b bc a9 be 46 3d 7c 9d bb bd c3 5b 41 bc
       -0.014369282 0.04852167 -0.09160897 -0.011801663
000370 e5 db 02 be 26 25 99 bd 13 f2 68 3d 0b c1 3f be
       -0.12779196 -0.074777886 0.056871485 -0.18725984
000380 61 60 f6 bd 7b 12 b3 3d df 51 d4 bd de 8f f5 3c
       -0.120301016 0.08743759 -0.10367178 0.029975828
000390 4a ae 75 3d b3 03 55 bd 01 ff 18 be 9b 72 73 bd
       0.059980668 -0.05200548 -0.14941026 -0.05943547
0003a0 be 2d d5 3d 70 cb b7 bd 5b f8 65 3d 14 4c ad 3d
       0.10409115 -0.089743495 0.056145053 0.084617764
0003b0 87 ba 42 3c 94 bd ab bd ec 29 27 be b0 6a 2e be
       0.011885292 -0.083857685 -0.16324586 -0.17032886
0003c0 22 74 85 bd c2 ac aa b9 14 dd c6 bb 79 69 2d be
       -0.06516291 -0.0003255364 -0.006068835 -0.16934766
0003d0 0b b5 c9 bc 47 14 d0 3d f0 6c b7 3d 7e 29 5d 3a
       -0.02462246 0.101601176 0.08956325 0.0008436664
0003e0 15 45 16 ba 45 19 38 3d 60 53 bf 3d 39 d9 22 be
       -0.000573234 0.044945974 0.093420744 -0.15903176
0003f0 5c 4e 5d bc 13 1a 13 be 55 2b 33 3d 4f 40 80 bc
       -0.013507452 -0.14365415 0.043742497 -0.015655665

convs.0.student_disrespect_student.bias f4 [128]
000000 e0 07 9f 3d ca b2 b1 3d c0 fb 28 bd fa 69 73 bd
       0.07765174 0.086766794 -0.041255713 -0.05942724
000010 6e 09 75 bd 68 87 75 bd fb fd 5e 3d c8 84 19 bc
       -0.059823446 -0.059943587 0.054441433 -0.009370036
000020 3c 35 89 3d 2e 31 75 bd 6d 56 a9 3d 8c 09 73 bd
       0.06699607 -0.059861355 0.082684375 -0.059335276
000030 7c 7d 73 bd 93 d9 74 bd 76 fd 94 3d 39 ae 16 3d
       -0.059445843 -0.059777807 0.07274906 0.036787245
000040 9f 64 97 3d cb 65 50 3d 9a 4f 55 bd e5 fd ce 3d
       0.07392239 0.050878327 -0.052077867 0.1010702
000050 ca 40 6d bd 5e 22 74 bd 9a ad 54 bd a4 12 75 bd
       -0.057923116 -0.059603088 -0.05192337 -0.05983223
000060 be 00 75 bd bb 0c 60 bd 2a da 5d 3d e2 ca 77 bd
       -0.05981516 -0.05469964 0.054163136 -0.06049622
000070 5d 78 8f 3d 10 1f 41 bd 78 18 67 3d e9 15 9e 3c
       0.07005379 -0.047148764 0.05641982 0.019297557
000080 9d 04 72 bd e2 d4 2f bd a1 1a 77 bd fc 1d b0 3d
       -0.05908643 -0.04292763 -0.06032813 0.08599469
000090 fa d9 a2 3d 75 02 28 bd 7d f7 49 bd de 93 72 bd
       0.07951732 -0.04101797 -0.04930829 -0.05922305
0000a0 68 f4 65 bd 6e c7 7b bd 20 0f 9f 3d e9 fb a2 3d
       -0.056141287 -0.061469488 0.07766557 0.07958204
0000b0 64 22 40 bd d2 23 92 3d 7b 62 3e bd 5b fa 93 3d
       -0.046907797 0.071357384 -0.046480637 0.07225486
0000c0 09 dd 68 bd ff 7e 9a bd 33 13 9b 3d 31 a1 6d bd
       -0.05685142 -0.07543754 0.07572021 -0.058015052
0000d0 d7 88 ae ba 68 2d 6b bd 40 ba 73 bd c8 1e 57 bd
       -0.0013315928 -0.05741635 -0.059503794 -0.05251959
0000e0 67 2f ab 3d f2 2d 7e 3d 2c f6 9b 3d be 25 63 3d
       0.08358651 0.062055536 0.07615313 0.055455916
0000f0 5f 14 b2 3d f0 0e 05 bd c5 44 b5 3d 38 3b 97 3d
       0.08695292 -0.03248495 0.08851007 0.07384342
000100 de eb 73 bd 81 b8 74 bd e7 39 9a 3d 97 8c b3 3c
       -0.059551112 -0.05974627 0.07530575 0.021917624
000110 b9 c6 bc 3d b3 90 27 bd e6 27 a7 3d 1d ae a4 3d
       0.09217591 -0.04090948 0.08161907 0.08041022
000120 c9 a8 8d bd 53 12 af 3d 51 77 93 3d d5 56 4b bb
       -0.06916959 0.08548417 0.07200492 -0.0031027098
000130 11 e0 70 bd 58 31 75 bd 4a 4c 9b 3d cf 7a 74 bd
       -0.058807436 -0.05986151 0.0758291 -0.059687432
000140 28 55 a2 3d de f5 9d 3d c5 d8 6f bd 12 30 96 3d
       0.079263985 0.07712911 -0.058556337 0.073333874
000150 e5 f9 97 bc db 0e 64 bd 0a ba 74 bd c6 c3 95 3d
       -0.018551776 -0.05567823 -0.059747733 0.073127314
000160 27 53 5e bd 34 0d 75 bd 09 02 8c 3d e2 db 71 bd
       -0.05427852 -0.059827045 0.06836326 -0.059047587
000170 07 ec 19 bd ea 20 74 bd 8b df 96 3d 68 0f 75 bd
       -0.03757861 -0.0596017 0.07366856 -0.059829146
000180 f6 1b 91 3d d1 10 71 3d 8e 3b a3 3d 2e 38 d2 3b
       0.07085411 0.058853928 0.079703435 0.0064153885
000190 7e 09 9b 3d a1 5c af 3d 1f 8d 82 3d 71 aa 45 3d
       0.0757017 0.085625894 0.06374573 0.04825825
0001a0 fa aa 8e 3d e9 32 57 3d 95 19 8b 3d 53 c5 92 3d
       0.06966205 0.052538786 0.06791989 0.07166543
0001b0 e7 a8 60 bd 80 43 73 bd 09 29 a1 3d a6 30 ba 3d
       -0.054848578 -0.059390545 0.07869155 0.0909131
0001c0 61 a9 86 bc 01 c1 a1 3d 8e 05 6b 3d e7 20 b0 3d
       -0.016438188 0.07898141 0.057378344 0.086000256
0001d0 3a d1 45 3d 3f 7b 9c bc af f8 75 bd b7 03 d4 3d
       0.048295237 -0.019101737 -0.060051616 0.10352271
0001e0 05 32 a8 bc 4b af a6 3d 35 f9 5d bd 4c f2 ab 3d
       -0.020531664 0.08138903 -0.05419274 0.08395824
0001f0 d8 68 96 bd a6 9e 23 bd 96 17 75 bd 8e 75 2e 3d
       -0.07344216 -0.03994622 -0.059836946 0.042592578
