app/ml_models/Clustering/output/social_wellbeing_rgcn_model.pt (torch, 797661 bytes, 15 tensors)

embeddings.student.weight f4 [128, 4]
-0.32160276 -0.11821507 -0.3219026 0.13142557 0.34072903 -0.49825954 0.18791306 0.20891097
0.06712995 -0.22174817 0.28539157 0.28160274 0.18498819 -0.061746918 -0.11219266 0.034813527
-0.08911173 -0.2020917 0.35755524 0.39098594 0.027689895 -0.15647869 -0.044599783 0.05023304
0.13016672 0.08534245 -0.43685058 -0.18284126 0.4927042 0.09955533 -0.061736904 -0.22617511
-0.32737726 -0.4504575 -0.08193659 0.23748842 0.32024425 0.1952679 -0.3567886 -0.34497312
-0.028117888 0.4656829 0.051135212 -0.10697469 0.16822459 -0.1699911 -0.24989483 0.37516376
-0.2434034 -0.07377452 -0.48374242 0.3424778 0.4250203 0.17362987 -0.31303826 -0.47632986
-0.36536878 0.36914736 0.2352789 0.4447117 0.3810709 0.05886865 -0.14212294 -0.33649108
-0.39574358 -0.5238796 0.20433502 -0.22658974 -0.08020488 -0.33999473 -0.108863324 -0.3325771
-0.28195283 0.0489386 -0.23561129 0.32308528 -0.08332603 -0.3540678 -0.11273444 -0.19284908
-0.1216679 -0.61975247 0.2600004 -0.3163646 0.31781775 0.20396695 0.3336483 -0.3299378
0.33269188 -0.23943937 0.2207428 0.45873374 -0.03301851 -0.0814113 -0.16158299 -0.38960376
0.21193998 -0.5475429 0.38444716 0.3579406 0.48218754 -0.1103946 -0.36902443 0.13207006
0.269354 -0.47129783 -0.042332906 -0.3432441 -0.031972937 -0.28214255 -0.2249087 -0.14223002
-0.37323266 0.29292202 0.34643167 0.014152408 0.0109348465 -0.19804007 -0.45641586 -0.45339248
0.1648661 -0.2526694 -0.26802456 -0.06032838 -0.26852694 -0.34276053 0.33067653 -0.15469876
-0.20997795 -0.23831528 -0.39098844 0.43671885 -0.15480153 0.11954206 -0.15056428 0.09217303
0.47780922 0.23840083 -0.4204181 0.19474527 0.4670173 0.08049246 0.3455095 0.43379176
-0.03974732 0.043529436 -0.34948546 -0.050516926 0.41544792 0.23013072 -0.29890293 -0.38266662
-0.37509596 -0.49663287 -0.36035308 -0.17770848 0.37995136 0.0628049 -0.35276753 -0.41565856
0.19677682 -0.33228508 0.057855844 0.24176815 -0.2667627 -0.6651971 -0.048106935 -0.07990657
-0.25219887 -0.39334968 -0.34694606 -0.28290296 0.4789527 -0.22322433 -0.31419113 0.11605903
0.2096743 0.24994367 0.37135303 0.2974813 -0.5450198 0.10468333 0.36521372 -0.090633124
-0.3300948 0.5248236 -0.13442372 -0.27381805 -0.4467387 0.008377635 0.22322154 0.12720232
0.09959573 -0.37505046 -0.4383031 -0.021291902 0.38949 0.24324206 -0.24106607 -0.14335848
-0.32275286 -0.20735697 0.07028932 0.26677117 0.47217166 -0.49740005 0.39764386 -0.30806065
0.20727225 0.39091268 -0.026322255 0.43404225 -0.40082115 -0.25970617 0.26722053 -0.05316665
-0.040641945 -0.2792673 0.34676605 0.30133134 0.12915902 -0.2828121 -0.38251027 -0.031619545
0.084781885 -0.19830103 -0.045579933 0.34397078 0.055342764 0.004377343 -0.10356717 -0.4541359
-0.46163237 -0.19825275 -0.22129299 0.20369974 -0.11042369 -0.2272811 0.46382913 0.2879336
0.2960315 -0.1746718 -0.10751866 0.14839515 -0.27684397 -0.3840181 -0.080841444 -0.12431232
-0.41284168 0.31025085 0.41533774 -0.020639684 -0.07813119 -0.44393635 -0.1163729 0.13706087
00000000: 1ea9 a4be be1a f2bd 6bd0 a4be 6d94 063e
00000010: 0974 ae3e e01b ffbe 486c 403e c2ec 553e
00000020: 6d7b 893d f411 63be d81e 923e 3c2e 903e
00000030: 8b6d 3d3e 56ea 7cbd 44c5 e5bd a198 0e3d
00000040: 3680 b6bd 20f1 4ebe 7b11 b73e 4f2f c83e
00000050: ebd5 e23c f33b 20be 43ae 36bd 29c1 4d3d
00000060: 6d4a 053e 06c8 ae3d e1aa dfbe bd3a 3bbe
00000070: ba43 fc3e aae3 cb3d d6df 7cbd 739a 67be
00000080: fe9d a7be 5ea2 e6be 5fce a7bd 2a30 733e
00000090: 0ef7 a33e 4ff4 473e ffac b6be 51a0 b0be
000000a0: 7c57 e6bc fd6d ee3e 2873 513d 8c15 dbbd
000000b0: 1143 2c3e 2612 2ebe 6ee4 7fbe 7715 c03e
000000c0: be3e 79be 1817 97bd 16ad f7be 4059 af3e
000000d0: 439c d93e 07cc 313e 8d46 a0be 82e1 f3be
000000e0: 9e11 bbbe e200 bd3e f4ec 703e 40b1 e33e
000000f0: ba1b c33e 4120 713d ad88 11be 8f48 acbe
00000100: e79e cabe f91c 06bf 333d 513e 2407 68be
00000110: 7542 a4bd ca13 aebe bcf3 debd 8c47 aabe
00000120: 1f5c 90be d773 483d 1644 71be 6f6b a53e
00000130: d6a6 aabd 6048 b5be 50e1 e6bd 3b7a 45be
00000140: 052d f9bd 19a8 1ebf c61e 853e 8afa a1be
00000150: 02b9 a23e b6dc 503e f3d3 aa3e 9bed a8be
00000160: 9756 aa3e 982f 75be 670a 623e 26df ea3e
00000170: 6b3e 07bd f8ba a6bd 0376 25be 257a c7be
00000180: cb06 593e c62b 0cbf 42d6 c43e fe43 b73e
00000190: 49e1 f63e 9016 e2bd c5f0 bcbe 603d 073e
000001a0: c4e8 893e f34d f1be 4565 2dbd b1bd afbe
000001b0: 0ef6 02bd fd74 90be 774e 66be bfa4 11be
000001c0: 5a18 bfbe e0f9 953e 7e5f b13e 80df 673c
000001d0: 1228 333c 04cb 4abe 57af e9be 0f23 e8be
000001e0: a9d2 283e e25d 81be 843a 89be e41a 77bd
000001f0: 5d7c 89be 4f7e afbe 6f4e a93e 5a69 1ebe
00000200: 7604 57be ec08 74be a32f c8be 9d99 df3e
00000210: 4b84 1ebe 78d2 f43d 862d 1abe 37c5 bc3d
00000220: 69a3 f43e 591f 743e 0b41 d7be 4e6b 473e
00000230: e41c ef3e 3bd9 a43d 9fe6 b03e f419 de3e
00000240: 16ce 22bd ec4b 323d c2ef b2be d6ea 4ebd
00000250: 97b5 d43e 63a7 6b3e ce09 99be e1ec c3be
00000260: 940c c0be aa46 febe 3380 b8be 36f9 35be
00000270: fc88 c23e db9f 803d f29d b4be 33d1 d4be
00000280: dd7f 493e 4521 aabe 40fa 6c3d 1292 773e
00000290: 1f95 88be 5b4a 2abf c70b 45bd 0ea6 a3bd
000002a0: 3620 81be 2165 c9be eaa2 b1be a8d8 90be
000002b0: 4a39 f53e eb94 64be a9dd a0be 5bb0 ed3d
000002c0: dcb4 563e 3cf1 7f3e fc21 be3e 784f 983e
000002d0: 6b86 0bbf 3764 d63d 4bfd ba3e dc9d b9bd
000002e0: 3002 a9be d75a 063f 5fa6 09be e131 8cbe
000002f0: efba e4be 5942 093c 3094 643e 5341 023e
00000300: d9f8 cb3d 9d06 c0be 4469 e0be 5b6c aebc
00000310: 3c6b c73e 7214 793e 06da 76be 91cc 12be
00000320: dd3f a5be 6355 54be d9f3 8f3d 3b96 883e
00000330: 7cc0 f13e 38ab febe fa97 cb3e 20ba 9dbe
00000340: 2d3f 543e b525 c83e c5a1 d7bc c93a de3e
00000350: 6e38 cdbe 35f8 84be 21d1 883e 46c5 59bd
00000360: 2b78 26bd 20fc 8ebe 528b b13e 1a48 9a3e
00000370: 4342 043e bfcc 90be 63d8 c3be 7f83 01bd
00000380: 20a2 ad3d 6d0f 4bbe 06b2 3abd f01c b03e
00000390: 18af 623d d16f 8f3b 061b d4bd 8084 e8be
000003a0: 145b ecbe c502 4bbe a19a 62be aa96 503e
000003b0: d125 e2bd 60bc 68be 037b ed3e 086c 933e
000003c0: 7191 973e 2add 32be be32 dcbd e6f4 173e
000003d0: 7ebe 8dbe 059e c4be 3390 a5bd 7597 febd
000003e0: fc5f d3be 33d9 9e3e 26a7 d43e 8e14 a9bc
000003f0: 3f03 a0bd a04b e3be ea54 eebd af59 0c3e

embeddings.student.bias f4 [128]
-0.47906256 -0.11117851 -0.47903514 -0.18659657 0.20129402 0.55418026 0.123930596 0.55640244
0.1718097 0.297761 0.41439345 0.5584728 -0.25618652 0.4906521 0.3003905 -0.2726476
-0.28113008 -0.42252967 0.1777952 -0.4374199 0.24830115 0.12191714 -0.4334601 0.13977252
0.07027101 0.33576062 0.34707084 -0.4830715 0.40107557 0.47326827 0.26654026 -0.43432382
-0.13012397 -0.19147226 -0.08288708 0.3413627 0.2356674 0.4178241 -0.14539821 0.2311057
0.2623931 -0.40447164 -0.5167554 -0.22110175 0.4099718 -0.4815737 -0.44362465 0.28610566
0.36315757 0.47803038 -0.41561192 -0.33000988 0.32107612 0.47397885 0.36226335 0.17553096
0.25090402 0.51327604 -0.3385499 -0.23382832 0.45182738 -0.37248415 -0.2920381 0.47640496
0.21485436 0.1255972 -0.19460782 -0.030190924 0.40694463 -0.26328915 0.016088806 0.32225272
-0.32026204 0.5182883 -0.28476328 -0.11826251 -0.16964367 -0.34588104 -0.553822 0.25008106
0.17390895 -0.4947999 -0.36620185 0.55546427 0.22082183 0.19676685 -0.27649447 -0.23472123
-0.10891225 -0.013039151 -0.32265767 0.011695447 0.04549734 -0.0645696 0.046135653 -0.21130475
0.1681239 0.15246658 -0.27840012 -0.5101737 0.3502711 0.0901133 -0.29212892 0.4843507
-0.23796622 0.35770574 0.3413199 -0.4488208 0.3349442 -0.44740888 -0.25647283 -0.16072676
-0.33526707 0.56881386 -0.104021885 0.2571476 -0.47365347 0.36695698 -0.1557996 -0.34862712
0.04227999 0.24690896 0.44363734 -0.32074824 -0.28124925 0.0738304 0.112965815 0.25752035
00000000: b047 f5be 8fb1 e3bd 1844 f5be 2c13 3fbe
00000010: 0520 4e3e c2de 0d3f 53cf fd3d 6470 0e3f
00000020: e2ee 2f3e 2174 983e 612b d43e 13f8 0e3f
00000030: e12a 83be c136 fb3e c9cc 993e 7798 8bbe
00000040: 48f0 8fbe cf55 d8be f20f 363e 80f5 dfbe
00000050: a842 7e3e b2af f93d 7bee ddbe 8720 0f3e
00000060: 3fea 8f3d d1e8 ab3e 45b3 b13e 2655 f7be
00000070: c759 cd3e 3850 f23e f777 883e b15f debe
00000080: 383f 05be 4e11 44be b4c0 a9bd 18c7 ae3e
00000090: cb52 713e 0aed d53e 45e3 14be f9a6 6c3e
000000a0: 6358 863e e816 cfbe 154a 04bf 7f68 62be
000000b0: d3e7 d13e d490 f6be c522 e3be 717c 923e
000000c0: caef b93e 66c0 f43e 16cb d4be 0ef7 a8be
000000d0: 1764 a43e 5bad f23e 957a b93e 63be 333e
000000e0: 7e76 803e 0f66 033f 6a56 adbe b170 6fbe
000000f0: eb55 e73e 3eb6 bebe 0586 95be 5aeb f33e
00000100: c802 5c3e 8d9c 003e 4647 47be f552 f7bc
00000110: 0c5b d03e d6cd 86be accc 833c 4ffe a43e
00000120: 63f9 a3be 8bae 043f 7ecc 91be 9d33 f2bd
00000130: 12b7 2dbe 5217 b1be 47c7 0dbf a00a 803e
00000140: 3015 323e 6a56 fdbe cf7e bbbe e832 0e3f
00000150: 1e1f 623e 407d 493e af90 8dbe c35a 70be
00000160: 630d dfbd 2aa2 55bc 6333 a5be 439e 3f3c
00000170: 6b5b 3a3d 113d 84bd bdf8 3c3d 4660 58be
00000180: ac28 2c3e 3320 1c3e 768a 8ebe be9a 02bf
00000190: bc56 b33e 528d b83d ec91 95be d1fc f73e
000001a0: 6bad 73be 3525 b73e 7bc1 ae3e d7cb e5be
000001b0: ce7d ab3e c712 e5be 6850 83be 8e95 24be
000001c0: 20a8 abbe c99d 113f 6d09 d5bd daa8 833e
000001d0: b582 f2be c9e1 bb3e ee89 1fbe 417f b2be
000001e0: c82d 2d3d b4d5 7c3e 6f24 e33e 1d39 a4be
000001f0: e7ff 8fbe 6534 973d 9f5a e73d b5d9 833e

convs.0.student_friend_student.weight f4 [2, 128, 128]
0.077081524 -0.04993675 0.026593948 0.043908942 -0.047248486 0.047946937 0.057974156 0.1251013
-0.09596846 -0.13272385 -0.06862439 -0.029808536 0.029491242 -0.1418915 0.051474597 -0.08722389
0.0715913 -0.024376363 -0.17203605 -0.15357514 0.00091482385 0.010062264 -0.15061532 -0.07017264
-0.023294074 -0.13375726 0.043125268 -0.19381578 -0.12009925 -0.16451159 -0.06028307 -0.076501496
-0.0063948506 -0.081122845 0.011118453 0.12808132 0.05763479 -0.13179387 -0.19980416 0.022507776
-0.069404356 0.07909853 0.085839 0.04448241 0.080918394 0.12547493 -0.019189632 -0.12590757
0.07820605 -0.12276962 -0.081535414 0.06749132 0.095511526 -0.00028246982 0.00012541658 -0.1693008
-0.003704468 0.12257473 0.021966673 -0.007958823 -0.03052288 -0.10505445 0.08587153 0.01567938
0.038578894 -0.081073515 -0.031184666 0.065632716 0.013503688 0.044331975 0.09342842 0.121904254
0.02828154 -0.052244473 -0.13000207 0.0040977267 -0.01078865 -0.09382079 -0.027992692 -0.05083039
0.104575165 0.039444163 -0.022391787 -0.05691711 -0.042321555 -0.11585251 0.07302365 0.06861195
0.08242997 -0.05651339 0.0035830592 -0.002068438 -0.18278077 -0.03943358 -0.037929993 -0.14095215
-0.12096312 0.123208046 0.1185384 0.050320946 0.12274557 -0.060321935 -0.041347217 0.035282496
-0.029611798 -0.033762325 -0.14562567 0.014697672 -0.16892162 -0.04716603 0.1462953 -0.04216772
-0.0385659 0.06797291 -0.069182485 -0.045025833 0.11811875 -0.058313806 -0.1691344 -0.14891693
-6.0404604e-05 -0.07589402 -0.12843959 0.041720692 -0.020536704 -0.08171686 -0.16904998 -0.078745924
-0.067718714 -0.051342882 -0.19327292 -0.026353108 -0.16522011 -0.1791324 -0.11912418 0.08089763
-0.09157272 -0.12244804 0.10714675 0.01994004 0.02715352 -0.20337138 -0.116159484 -0.07753813
0.13706216 0.005655669 -0.17084694 -0.02258642 -3.144066e-05 -0.084879294 -0.088601634 0.07177556
-0.012521781 -0.08414732 0.033868786 -0.09704432 0.07918298 0.016305668 0.050327968 -0.0639874
0.06436144 -0.076477274 -0.1183358 0.10501284 0.13439123 0.09226232 -0.014205624 -0.06384605
0.10642608 0.14970295 -0.1572476 -0.01464866 -0.15972765 0.0129668135 0.0062052635 -0.033704784
-0.07058491 0.021009017 -0.02849044 -0.18713517 0.13374773 -0.04823684 -0.06963464 -0.03470423
0.020502616 -0.14091747 0.07483842 -0.07564161 -0.06589457 -0.024285723 -0.05707599 -0.052231565
-0.11079068 -0.115801156 -0.16119152 -0.018511724 0.029758072 -0.1688549 -0.0852938 0.007986011
-0.038019724 0.09778187 -0.095343925 0.057793736 0.02175139 0.024708446 -0.1332346 -0.11739809
-0.1229823 -0.08867411 0.013684869 -0.0064326823 0.08774824 -0.1474803 -0.036449924 -0.081233606
0.025121817 -0.12580775 -0.03784556 -0.13761985 -0.057550263 0.08337768 0.079797894 -0.14050223
0.012230197 -0.002223541 -0.11676439 0.11094794 0.0028693972 0.049892183 -0.059476823 -0.062336255
0.031152783 0.05331944 0.035710663 -0.07971289 0.09811722 -0.08085144 -0.08277846 -0.047945306
0.1872437 -0.007997314 -0.007822484 -0.07992015 -0.057991922 -0.12960267 -0.18038315 0.032243676
0.035276346 0.15801191 -0.16429277 0.06525647 -0.15079562 0.050233986 0.050052382 0.10986971
00000000: ebdc 9d3d 7a8a 4cbd 8ddb d93c ddd9 333d
00000010: a187 41bd 0264 443d 4f76 6d3d 8e1a 003e
00000020: 1d8b c4bd c3e8 07be f28a 8cbd 0831 f4bc
00000030: 9e97 f13c 014c 11be 07d7 523d 70a2 b2bd
00000040: 769e 923d f0b0 c7bc 382a 30be cd42 1dbe
00000050: cad0 6f3a 32dc 243c e73a 1abe acb6 8fbd
00000060: 37d3 bebc aaf7 08be 1fa4 303d a577 46be
00000070: 98f6 f5bd ba75 28be 61eb 76bd d1ac 9cbd
00000080: e58b d1bb bc23 a6bd 2c2a 363c c027 033e
00000090: 7512 6c3d f9f4 06be 7699 4cbe 3a62 b83c
000000a0: df23 8ebd 69fe a13d 5ccc af3d 3033 363d
000000b0: 8bb8 a53d 807c 003e 9333 9dbc eaed 00be
000000c0: 7e2a a03d a36e fbbd 0afc a6bd e438 8a3d
000000d0: 8c9b c33d 7518 94b9 4282 0339 305d 2dbe
000000e0: a9c6 72bb 7608 fb3d 74f3 b33c b965 02bc
000000f0: 1e0b fabc ca26 d7bd 6add af3d 0b72 803c
00000100: e704 1e3d df09 a6bd fc76 ffbc 726a 863d
00000110: 933e 5d3c 7295 353d 6657 bf3d f0a8 f93d
00000120: b0ae e73c 4dfe 55bd 431f 05be 3946 863b
00000130: e1c2 30bc 1d25 c0bd ee50 e5bc 8733 50bd
00000140: 812b d63d 3490 213d fb6e b7bc ea21 69bd
00000150: 5e59 2dbd 1544 edbd 6c8d 953d 6c84 8c3d
00000160: 0bd1 a83d 967a 67bd c2d1 6a3b a28e 07bb
00000170: e22a 3bbe 1b85 21bd 7b5c 1bbd c355 10be
00000180: 83bb f7bd 8054 fc3d 43c4 f23d 561d 4e3d
00000190: 0862 fb3d 2214 77bd b35b 29bd 6184 103d
000001a0: 7194 f2bc 5d4a 0abd e51e 15be 81ce 703c
000001b0: caf9 2cbe 2b31 41bd 6fce 153e 0fb8 2cbd
000001c0: 47f7 1dbd 6235 8b3d 8caf 8dbd 026d 38bd
000001d0: 3ee8 f13d 75da 6ebd 9131 2dbe ae7d 18be
000001e0: f35a 7db8 536e 9bbd ab85 03be 51e3 2a3d
000001f0: 973c a8bc 2b5b a7bd 701b 2dbe 8b45 a1bd
00000200: 1cb0 8abd ea4c 52bd 56e9 45be 79e2 d7bc
00000210: 762f 29be 7c6e 37be 61f7 f3bd a8ad a53d
00000220: 7a8a bbbd 0ac6 fabd c16f db3d 4b59 a33c
00000230: 0f71 de3c 9640 50be 06e5 edbd 50cc 9ebd
00000240: 065a 0c3e 3153 b93b 80f2 2ebe 2807 b9bc
00000250: 27df 03b8 32d5 adbd c674 b5bd 11ff 923d
00000260: 2828 4dbc 6e55 acbd ffb9 0a3d 2cbf c6bd
00000270: b02a a23d 7793 853c b324 4e3d d30b 83bd
00000280: eecf 833d 1ea0 9cbd 0a5a f2bd f910 d73d
00000290: db9d 093e 07f4 bc3d b5be 68bc b8c1 82bd
000002a0: ebf5 d93d bb4b 193e 8405 21be ef00 70bc
000002b0: a58f 23be c272 543c 8655 cb3b 070e 0abd
000002c0: d28e 90bd 1a1b ac3c c964 e9bc 5da0 3fbe
000002d0: 2af5 083e fe93 45bd 9b9c 8ebd 0626 0ebd
000002e0: 1af5 a73c ab4c 10be e344 993d fde9 9abd
000002f0: bbf3 86bd daf2 c6bc 83c8 69bd c4f0 55bd
00000300: 39e6 e2bd 2829 edbd 640f 25be e6a5 97bc
00000310: 33c7 f33c 4de8 2cbe 84ae aebd c2d7 023c
00000320: 92ba 1bbd dc41 c83d ad43 c3bd 20b9 6c3d
00000330: f92f b23c 5e69 ca3c a76e 08be 696e f0bd
00000340: 25de fbbd c69a b5bd 8036 603c 40c9 d2bb
00000350: 59b5 b33d 1305 17be 844c 15bd ce5d a6bd
00000360: 45cc cd3c bfd3 00be f203 1bbd 38ec 0cbe
00000370: d3b9 6bbd ebc1 aa3d 146d a33d d1df 0fbe
00000380: 2a61 483c d4b8 11bb 2b22 efbd ac38 e33d
00000390: 7f0c 3c3b bf5b 4c3d f89d 73bd 4d54 7fbd
000003a0: 1f34 ff3c 7c65 5a3d 5845 123d 8340 a3bd
000003b0: aef1 c83d 7195 a5bd c187 a9bd 4c62 44bd
000003c0: d0bc 3f3e 2b07 03bc e029 00bc 2dad a3bd
000003d0: f088 6dbd 90b6 04be 5cb6 38be f211 043d
000003e0: ee7d 103d e0cd 213e 5d3c 28be 2fa5 853d
000003f0: 2b6a 1abe 27c2 4d3d ba03 4d3d 5f03 e13d

convs.0.student_friend_student.root f4 [128, 128]
0.13606098 -0.0916748 -0.17067695 0.06414766 -0.00031465484 -0.12189777 -0.14723508 -0.015510104
0.045901734 0.07549674 0.07157634 1.0966825e-05 0.07375239 -0.010075135 0.05505588 -0.035743926
0.14024876 0.047977656 -0.07341695 0.016445706 -0.00025411605 -0.12549604 0.13526112 0.021889271
-0.01510027 -0.1426875 0.14242809 -0.074471295 0.02659349 -0.00032524433 -0.025344608 0.049989693
0.00011212885 -0.040462684 -0.101179205 -0.04719657 -0.12941727 0.024087917 -0.04887401 0.030465996
0.072098844 0.11370554 0.13459449 0.087830395 -0.06404558 0.04238593 0.010374065 0.097296774
-0.17480168 -0.14322852 -0.15083149 0.043082993 0.13342752 -0.0005230178 5.3293275e-05 -0.047725827
-0.08006241 0.13482235 0.13100608 0.019293293 -0.12300094 0.06412297 -0.07616798 -0.058667015
0.059074532 -0.13170211 0.05332933 0.08384763 -0.06320778 -0.15387323 -0.020239636 -0.120341875
-0.18198436 0.14639159 -0.047111746 -0.060220096 -0.00040210367 -0.075239435 -0.015430758 -0.16550441
-0.020033391 -0.10475604 0.0003668133 -0.13691619 0.033338785 -0.19844364 0.06371828 0.08331178
-0.019031566 -0.05937714 0.038912788 -3.9846964e-05 -0.1311591 0.0056082625 0.0027326185 -0.108284526
0.13882938 0.0436099 -0.14661343 -0.057041086 0.06936439 -0.09328003 -0.10422522 -0.111952946
0.05171342 -0.051013317 -0.08646825 0.08324663 0.068139926 0.036751714 -0.0024466987 -0.097818896
-0.00018045181 -0.022358982 0.10771986 0.06117015 -0.08217797 0.10896777 -0.012506815 -0.074271075
5.726608e-05 -0.051886693 0.059862 0.06603027 -0.0338496 0.12272021 0.027950808 0.114794195
0.027761696 0.032397363 -0.2058044 -0.12406971 0.02909122 -0.08357957 0.12110102 -0.07095077
0.15005194 0.07475142 -0.05617632 0.08749175 0.06042013 -0.10987268 0.119493835 -0.13106276
0.015733149 0.04101178 0.08008438 0.15795682 0.00052391086 2.9236373e-05 -0.14168486 -0.042346768
-0.18702823 -0.024397755 0.108692564 -0.0018929733 0.10876261 0.0755396 0.07920732 0.11361725
-0.0020669037 -0.1804919 -0.17856847 0.07938225 0.007770044 -0.050848275 -0.097388044 0.09091759
-0.12097439 0.030999145 0.0024795453 0.19957006 0.01659759 0.048428416 -0.15415384 -0.07662977
-0.18578695 -0.1266663 -0.10149939 0.0493219 0.19325748 -7.2994444e-05 -0.079929344 0.07944334
-0.023527348 0.09722117 -0.0828195 0.17489159 0.0066122236 -0.026665168 -0.09781819 0.050196845
-0.08363266 -0.15243667 -0.22127716 -0.020184878 0.18489316 -0.08707865 0.043652464 0.16683654
0.08221165 0.20512235 0.18214944 0.073320776 -0.028609741 0.08677283 -0.032103557 -0.0638385
0.016905239 0.075904556 -8.792154e-05 -0.023598483 0.07800151 -0.04790231 -0.07251214 0.13709128
0.03856921 -0.04679157 -0.08861262 -0.00070384145 -0.1468759 -0.19231746 0.17929204 -0.049917784
-0.080412805 0.016481552 0.08782313 -0.017278751 0.01641849 -0.052469507 0.18279405 0.06967166
0.16387294 0.043648306 0.13194308 -0.082478255 0.04105427 -0.15686268 0.18345813 -0.06666688
-0.105864815 -0.07784488 -0.110434085 -0.11374939 -0.09095711 0.12200496 -0.083371535 -0.051687706
0.00076703384 -0.054882593 -0.09990383 -0.079210535 0.091552295 -0.19020283 -0.16370831 0.003386166
00000000: 9253 0b3e ffbf bbbd f0c5 2ebe d95f 833d
00000010: 42f8 a4b9 8aa5 f9bd cbc4 16be 171e 7ebc
00000020: 7503 3c3d 099e 9a3d 9e96 923d 28fe 3737
00000030: 7e0b 973d 2e12 25bc 4682 613d 3968 12bd
00000040: 5f9d 0f3e 3884 443d a05b 96bd 25b9 863c
00000050: e13a 85b9 0982 00be e481 0a3e 2151 b33c
00000060: 1f67 77bc ac1c 12be abd8 113e 6884 98bd
00000070: 97da d93c 8e85 aab9 7f9f cfbc fec1 4c3d
00000080: b826 eb38 33bc 25bd 0b37 cfbd 3151 41bd
00000090: f685 04be 0654 c53c 1d30 48bd d393 f93c
000000a0: 8fa8 933d 73de e83d 23d3 093e 6ce0 b33d
000000b0: 542a 83bd de9c 2d3d fbf7 293c 8843 c73d
000000c0: 36ff 32be 7faa 12be 9273 1abe cb77 303d
000000d0: 39a1 083e 211b 09ba 3887 5f38 287c 43bd
000000e0: c3f7 a3bd df0e 0a3e 7526 063e f80c 9e3c
000000f0: ebe7 fbbd e752 833d f5fd 9bbd d34c 70bd
00000100: 23f8 713d ebdc 06be db6f 5a3d 4eb8 ab3d
00000110: 1573 81bd f290 1dbe 98cd a5bc cd75 f6bd
00000120: 1c5a 3abe ade7 153e 3ff8 40bd 59a9 76bd
00000130: 71d1 d2b9 2217 9abd 4ad1 7cbc fd79 29be
00000140: 111d a4bc 568a d6bd d950 c039 c233 0cbe
00000150: 408e 083d cf34 4bbe bb7e 823d 5e9f aa3d
00000160: 16e8 9bbc 7235 73bd 0463 1f3d 5a21 27b8
00000170: 924e 06be 84c5 b73b bb15 333b 47c4 ddbd
00000180: 4a29 0e3e 4ba0 323d d521 16be eaa3 69bd
00000190: eb0e 8e3d 9a09 bfbd 0874 d5bd 9647 e5bd
000001a0: 73d1 533d 57f3 50bd 4416 b1bd 367d aa3d
000001b0: f28c 8b3d f788 163d cb58 20bb 4655 c8bd
000001c0: aa37 3db9 2f2a b7bc 3b9c dc3d 8d8d 7a3d
000001d0: ec4c a8bd 7f2a df3d 62e9 4cbc 6f1b 98bd
000001e0: fc30 7038 2487 54bd db31 753d e13a 873d
000001f0: e1a5 0abd bc54 fb3d 18f9 e43c 3819 eb3d
00000200: 7f6c e33c 19b3 043d 63be 52be 4318 febd
00000210: b650 ee3c c42b abbd d003 f83d a34e 91bd
00000220: 37a7 193e 4617 993d 2419 66bd e02e b33d
00000230: 197b 773d ed04 e1bd 2fb9 f43d 5135 06be
00000240: cee2 803c f8fb 273d 4803 a43d 6fbf 213e
00000250: 1057 093a a240 f537 d615 11be ce73 2dbd
00000260: 5484 3fbe cddd c7bc 359a de3d a51d f8ba
00000270: eebe de3d 81b4 9a3d 7337 a23d 29b0 e83d
00000280: e474 07bb ded2 38be a7da 36be 2993 a23d
00000290: da9b fe3b 4846 50bd 6273 c7bd 0033 ba3d
000002a0: 6cc1 f7bd ebf1 fd3c de7f 223b 185c 4c3e
000002b0: abf7 873c e05c 463d 81da 1dbe 12f0 9cbd
000002c0: ef3e 3ebe d0b4 01be eade cfbd c305 4a3d
000002d0: 4ae5 453e 9814 99b8 ffb1 a3bd 31b3 a23d
000002e0: 6dbc c0bc e51b c73d 459d a9bd c816 333e
000002f0: 5aab d83b e970 dabc e754 c8bd 359b 4d3d
00000300: 9a47 abbd 5c18 1cbe 7b96 62be c25a a5bc
00000310: a254 3d3e 4b56 b2bd edcc 323d 33d7 2a3e
00000320: 955e a83d 980b 523e 6285 3a3e 3429 963d
00000330: fa5e eabc f4b5 b13d 057f 03bd c2bd 82bd
00000340: db7c 8a3c d973 9b3d 8462 b8b8 9b51 c1bc
00000350: 41bf 9f3d 3635 44bd 3f81 94bd a861 0c3e
00000360: bffa 1d3d 84a8 3fbd 897a b5bd 0082 38ba
00000370: a366 16be deee 44be 5598 373e 9776 4cbd
00000380: 78af a4bd 5204 873c 9ddc b33d 2b8c 8dbc
00000390: 1280 863c 44ea 56bd 5d2e 3b3e 04b0 8e3d
000003a0: 4fce 273e 91c8 323d 161c 073e 5cea a8bd
000003b0: 8628 283d 9ca0 20be 73dc 3b3e a588 88bd
000003c0: a7cf d8bd 236d 9fbd 442b e2bd 71f5 e8bd
000003d0: b947 babd bddd f93d b2be aabd 7db6 53bd
000003e0: c512 493a 92cc 60bd 619a ccbd 2239 a2bd
000003f0: c57f bb3d 88c4 42be 27a3 27be 70ea 5d3b

convs.0.student_friend_student.bias f4 [128]
0.091188386 0.08546081 -0.055145737 -0.05957129 -0.059595954 -0.06029496 0.081640184 0.08516681
0.07409974 -0.059970032 0.08783886 -0.05944781 -0.059853002 -0.059905626 0.080215774 -0.026373599
0.08354062 0.08197036 -0.05283182 0.09467885 -0.049891792 -0.05897545 -0.04411551 -0.059555188
-0.059807133 -0.05670833 0.086097546 -0.05391138 0.08087887 -0.04791837 0.06940686 0.09838672
-0.05880878 -0.05302249 -0.059922595 0.09096888 0.08081319 -0.02821028 -0.058721088 0.09797037
0.042796917 0.043163013 0.08690679 0.08480359 -0.051594988 0.066823006 -0.05275161 0.08330921
-0.057810064 -0.049265765 0.08586372 -0.059379388 0.08590973 -0.055791367 -0.058852267 -0.047491252
0.07544694 0.0860241 0.083295904 0.08879774 0.08696734 -0.06915383 0.07592586 0.053559363
-0.0599707 -0.059838854 -0.057132 0.027227871 0.023629261 -0.040221937 0.0893663 0.07467388
0.101844765 0.08500024 0.08164792 0.06788801 -0.05720623 -0.059948653 0.090185 -0.059888
0.08568992 0.09484871 -0.05548608 0.08544593 0.046597254 -0.055773962 -0.05988491 0.07674767
-0.052384365 -0.059941255 0.08179977 -0.057227686 -0.05948699 -0.059755135 0.08169495 -0.05993012
0.07686192 0.07505001 0.085740894 0.08491905 0.081489824 0.08359495 0.084405996 0.031744692
0.09110756 0.08624744 0.08535329 0.08098246 0.09003568 -0.05971102 0.08426972 0.04452777
0.050989002 0.07955329 0.073526904 0.08570337 0.0855582 -0.00076040876 -0.059133057 -0.06418501
-0.044749286 0.073750064 -0.05246137 0.08583581 -0.05258177 -0.04421508 -0.059955847 0.083954275
00000000: fac0 ba3d 1406 af3d 7fe0 61bd 0601 74bd
00000010: e31a 74bd d9f7 76bd f832 a73d f06b ae3d
00000020: 9bc1 973d 23a3 75bd dce4 b33d 8c7f 73bd
00000030: 6c28 75bd 9a5f 75bd 2b48 a43d 720d d8bc
00000040: 5817 ab3d 13e0 a73d 2e66 58bd fce6 c13d
00000050: 565b 4cbd 3e90 71bd 77b2 34bd 24f0 73bd
00000060: 53f8 74bd fe46 68bd e953 b03d 2ed2 5cbd
00000070: d2a3 a53d 0e46 44bd 2f25 8e3d fa7e c93d
00000080: 7ae1 70bd 1c2e 59bd 6571 75bd e44d ba3d
00000090: 6381 a53d 3f19 e7bc 8685 70bd b0a4 c83d
000000a0: d24b 2f3d b3cb 303d 30fc b13d 81ad ad3d
000000b0: 4455 53bd 80da 883d 1212 58bd 059e aa3d
000000c0: 3fca 6cbd e6ca 49bd 51d9 af3d cd37 73bd
000000d0: 71f1 af3d 7d85 64bd 130f 71bd 3086 42bd
000000e0: ed83 9a3d 672d b03d 0b97 aa3d 97db b53d
000000f0: ef1b b23d 86a0 8dbd 047f 9b3d 1061 5b3d
00000100: d6a3 75bd 9619 75bd 3e03 6abd fc0c df3c
00000110: 2792 c13c c2bf 24bd ae05 b73d 9fee 983d
00000120: fd93 d03d 9b14 ae3d 0637 a73d de08 8b3d
00000130: 1451 6abd b88c 75bd eab2 b83d 1f4d 75bd
00000140: 327e af3d 0a40 c23d 5f45 63bd 47fe ae3d
00000150: c3dc 3e3d 3d73 64bd e149 75bd e22d 9d3d
00000160: fd90 56bd f684 75bd a386 a73d 9467 6abd
00000170: a1a8 73bd cdc1 74bd af4f a73d 4979 75bd
00000180: c869 9d3d d2b3 993d ec98 af3d 0aea ad3d
00000190: 23e4 a63d d433 ab3d 0ddd ac3d b906 023d
000001a0: 9a96 ba3d 7fa2 b03d b5cd ae3d 22da a53d
000001b0: a064 b83d 8b93 74bd 9a95 ac3d c062 363d
000001c0: d8d9 503d d6ec a23d 4695 963d 4085 af3d
000001d0: 2339 af3d 2b56 47ba 8135 72bd 6e73 83bd
000001e0: 074b 37bd 460a 973d bce1 56bd afca af3d
000001f0: fb5f 57bd df1a 35bd 4394 75bd 38f0 ab3d

convs.0.student_disrespect_student.weight f4 [2, 128, 128]
0.046213597 0.013838185 0.0015996048 -0.00041256647 0.061355487 -0.07630138 -0.050994348 -0.0057345745
0.080000654 -0.14867999 0.18135071 -0.04606528 -0.032529157 0.03694686 -0.0026191997 -0.04852592
-0.16737878 0.14405926 0.0122817 -0.036999814 -0.03615859 -3.0264353e-05 -0.07944655 -0.015060023
-0.00017969069 0.01832075 -0.12081753 -0.17824417 -0.033722475 -0.14831264 -0.13344501 -0.07122684
3.966212e-05 -0.099542916 -0.012173879 -0.0445482 0.0065130712 -0.0040000775 -0.0065932716 0.011251457
-0.12236794 0.06341817 0.053774975 0.038430482 -0.12692688 -0.10782119 0.07212322 0.1568214
-0.008729411 0.03863236 0.00522286 0.054874036 -0.10760654 0.00076734775 -0.0002360264 -0.12364549
0.13330355 0.035168707 0.09799716 0.12984142 -0.064226456 -0.10695567 0.11744515 -0.048960842
-0.16036674 -0.0018873711 -0.23658946 0.0753197 -0.10646787 -0.11455184 0.06642801 0.12369953
0.093637496 0.14071731 -0.026487514 -0.12928312 -0.00093370554 -0.077990346 -0.019608539 -0.00075836305
0.0058422885 -0.05993618 7.670554e-05 0.015732445 -0.1290906 0.02701661 0.07650565 -0.041061845
-0.14996015 -0.020729315 0.0064664045 0.00023034782 -0.000105109066 0.025088347 0.026879447 -0.015286189
0.07547156 0.0814643 -0.009363183 0.084626056 -0.14645183 0.06342052 0.05671608 -0.18564476
0.02691148 -0.10253007 0.14538635 -0.11811782 0.039584603 -0.00043127302 0.03524465 -0.04990724
-0.031543396 0.08516956 0.05223893 -0.011260008 0.12186689 0.018307846 0.050436437 -0.051029917
-4.4046326e-05 0.03173716 -0.06688949 0.029858958 0.08191223 0.014270187 -0.19074447 0.035385743
0.036099482 0.08826176 -0.12668593 0.019272394 -0.03498545 -0.17158584 -0.08504174 -0.010134606
0.047458224 -0.04263935 0.13853516 7.068696e-05 -0.14312443 -0.04476783 0.120511904 0.11825621
-0.14011164 0.15565068 0.016958484 -0.056728777 0.00010915173 5.3793803e-05 -0.06515241 -0.00012784256
0.030884197 0.0058087227 -0.071297996 -0.03278101 0.15287942 -0.15132707 0.06261842 0.008095001
0.0076229684 -0.16345602 0.004423089 0.07364176 -0.039363433 -0.07554345 -0.061183937 0.007461407
-0.10906461 -0.040850308 -0.1331691 0.10967385 -0.10854037 -0.19080053 0.032083016 0.14345422
-0.07110252 -0.063631415 -0.056306165 -0.039261263 0.061711248 0.00054978963 0.020064365 -0.09902399
0.030137954 -0.08143074 -0.0057349913 0.1727221 -0.050698817 0.036302872 0.17629345 0.10072107
-0.14987971 -0.09215026 -0.24557982 -0.12851386 0.06073956 0.0014325446 -0.08790862 0.0970377
-0.30230257 -0.09405443 -0.049122926 -0.073661335 -0.052619737 -0.002378775 -0.094841726 0.06345567
-0.015646236 0.043197934 0.00019581735 -0.10617186 -0.012767043 0.067069724 0.07639808 0.04127612
0.17967162 -0.12512966 -0.14742446 -0.008994216 -0.047978543 -0.13672836 0.1131637 -0.036702342
-0.014310646 -0.10507413 0.07121773 -0.08866256 -0.044919867 0.021250365 -0.15099302 -0.06771662
0.16629064 0.11956355 0.05673571 -0.118429154 -0.08632077 -0.00043735903 -0.11374664 -0.07175664
-0.0810732 0.054591134 -0.09181405 -0.024882764 0.0049821096 -0.07853136 -0.016431224 -0.0027004834
0.0004743147 0.16842064 -0.093983375 -0.1160592 -0.053940568 -0.04787187 -0.04474823 -0.06159531
00000000: 784a 3d3d 8eb9 623c d5a9 d13a bc4d d8b9
00000010: e44f 7b3d e643 9cbd 73df 50bd 19e9 bbbb
00000020: 62d7 a33d 913f 18be 00b4 393e f2ae 3cbd
00000030: 4b3d 05bd 9755 173d e1a6 2bbb 1dc3 46bd
00000040: 5865 2bbe 4584 133e 2f39 493c 1e8d 17bd
00000050: 081b 14bd 34e0 fdb7 dfb4 a2bd 51be 76bc
00000060: 5a6b 3cb9 6615 963c 2e6f f7bd a485 36be
00000070: 9420 0abd 45df 17be cfa5 08be 61df 91bd
00000080: e15a 2638 28dd cbbd f374 47bc 2c78 36bd
00000090: 9a6b d53b 1513 83bb 5f0c d8bb 0858 383c
000000a0: 0b9c fabd 63e1 813d 2643 5c3d 4869 1d3d
000000b0: 1ff9 01be 5bd1 dcbd 57b5 933d ca95 203e
000000c0: ce05 0fbc f73c 1e3d 8624 ab3b 99c3 603d
000000d0: d160 dcbd d627 493a db7d 77b9 d939 fdbd
000000e0: ba80 083e 100d 103d bcb2 c83d 26f5 043e
000000f0: 2989 83bd 930b dbbd 1587 f03d 2a8b 48bd
00000100: 2e37 24be aa61 f7ba 8244 72be 3741 9a3d
00000110: d40b dabd 289a eabd 690b 883d 2e56 fd3d
00000120: 04c5 bf3d 3318 103e 58fc d8bc cb62 04be
00000130: ebc3 74ba 67b9 9fbd 16a2 a0bc e2cc 46ba
00000140: ab70 bf3b a47f 75bd f9dc a038 54e1 803c
00000150: 5430 04be f051 dd3c ffae 9c3d 7730 28bd
00000160: 278f 19be 86d0 a9bc 22e4 d33b 8689 7139
00000170: 006e dcb8 1486 cd3c 4932 dc3c ec72 7abc
00000180: d590 9a3d c1d6 a63d 0968 19bc 6d50 ad3d
00000190: 78f7 15be 9ee2 813d 1f4f 683d a919 3ebe
000001a0: 7775 dc3c 49fb d1bd 29e0 143e c1e7 f1bd
000001b0: 7723 223d 7c1c e2b9 b25c 103d 896b 4cbd
000001c0: a633 01bd 616d ae3d 7df8 553d e67b 38bc
000001d0: 5995 f93d 56fa 953c 7096 4e3d bf04 51bd
000001e0: 62be 38b8 d3fe 013d 5bfd 88bd c69a f43c
000001f0: 99c1 a73d 81cd 693c 8552 43be a4f0 103d
00000200: 0ddd 133d 95c2 b43d f5b9 01be 24e1 9d3c
00000210: e74c 0fbd 33b4 2fbe 5d2a aebd 9e0b 26bc
00000220: 8e63 423d 99a6 2ebd 29dc 0d3e c63d 9438
00000230: 368f 12be 795e 37bd f2ce f63d 5030 f23d
00000240: 6d79 0fbe e462 1f3e 85ec 8a3c 6f5c 68bd
00000250: 64e8 e438 a8a0 6138 a06e 85bd 7a0d 06b9
00000260: db00 fd3c 1957 be3b af04 92bd 6145 06bd
00000270: 6c8c 1c3e 7cf5 1abe 163e 803d e5a0 043c
00000280: 18ca f93b 0461 27be 8fef 903b 7ed1 963d
00000290: 8d3b 21bd 86b6 9abd 029c 7abd d27e f43b
000002a0: 445d dfbd a752 27bd 7b5d 08be af9c e03d
000002b0: 6a4a debd 3761 43be 7b69 033d aae5 123e
000002c0: 339e 91bd 3051 82bd 4ba1 66bd 6bd0 20bd
000002d0: efc4 7c3d c21f 103a 065e a43c 17cd cabd
000002e0: dfe3 f63c 29c5 a6bd 98ec bbbb 10de 303e
000002f0: 90a9 4fbd 52b2 143d 4586 343e d946 ce3d
00000300: 117a 19be 47b9 bcbd 4779 7bbe 2399 03be
00000310: 0bca 783d 38c4 bb3a 6f09 b4bd b4bb c63d
00000320: 67c7 9abe 9c9f c0bd 1f35 49bd c1db 96bd
00000330: cb87 57bd 39e5 1bbb 613c c2bd 0cf5 813d
00000340: 892c 80bc 51f0 303d 5254 4d39 a270 d9bd
00000350: dc2c 51bc da5b 893d 9976 9c3d 2611 293d
00000360: d6fb 373e fd21 00be 70f6 16be 7a5c 13bc
00000370: 2685 44bd 8502 0cbe 5fc2 e73d 3255 16bd
00000380: 3377 6abc 1b31 d7bd 9ada 913d b794 b5bd
00000390: e5fd 37bd 3f15 ae3c ea9d 1abe 03af 8abd
000003a0: 1848 2a3e bcdd f43d b463 683d fc8a f2bd
000003b0: f2c8 b0bd 564d e5b9 00f4 e8bd 25f5 92bd
000003c0: b509 a6bd f49a 5f3d 0109 bcbd f0d6 cbbc
000003d0: f740 a33b 0dd5 a0bd c69a 86bc 98fa 30bb
000003e0: 71ad f839 7676 2c3e 5b7a c0bd 72b0 edbd
000003f0: c9f0 5cbd 4b15 44bd ec49 37bd 5d4b 7cbd

convs.0.student_disrespect_student.root f4 [128, 128]
0.049224433 -0.09728149 0.05974914 0.026492702 0.00047619452 -0.13083963 0.14064927 -0.039422434
-0.08231016 -0.07618347 -0.045897186 0.0005415118 -0.0772823 -0.07004667 -0.1405078 0.12317965
0.13552646 0.050748445 -0.08742905 0.0175959 -2.4603456e-05 0.026949935 -0.06817649 -0.01872224
-0.036569815 0.015468191 -0.08697019 0.039148685 0.09819517 -0.00052521954 -0.010713354 -0.06229637
-1.441142e-05 0.0006161403 -0.08564026 -0.03373244 0.08872162 -0.23460925 0.07958003 0.14383766
-0.0424395 0.061068658 0.10051175 0.018506402 -0.040473934 0.064409964 0.044449218 0.13428448
-0.06579994 -0.028566023 0.013104741 -0.06908068 -0.07476004 0.00027156633 0.0005146723 0.004251096
-0.08981254 0.09655442 0.01590939 -0.044484977 0.1611426 -0.05535584 -0.010478572 -0.082108974
0.07776858 -0.025811195 0.04838831 -0.11064468 0.06438649 -0.046457853 0.08683403 -0.08750382
-0.08896635 -0.056938812 -0.020450953 -0.11046039 0.0014095661 -0.15052041 -0.06493711 0.018744055
-0.025583738 -0.01821272 5.3103537e-05 -0.040524967 0.085253105 -0.004105937 -0.07274112 -0.031566575
0.06908013 0.0038418032 0.012877145 -0.0003202606 0.008701604 -0.05134638 -0.10122902 0.07664503
0.08117611 0.00693369 0.14894003 0.12793575 0.046584483 0.06630883 0.07210554 -0.09792465
0.10628066 0.06028395 -0.10974493 -0.044462632 -0.00705562 -0.12054414 0.12392522 0.037102997
0.1005734 -0.13843298 -0.14915912 -0.14416379 0.007466227 -0.08481691 0.048430026 0.07665968
0.0002724586 -0.07489368 0.081466004 -0.0882719 0.10932102 0.03894138 -0.15326639 0.011288209
0.00987059 0.12552775 0.09495792 0.056209795 -0.151608 -0.0840417 0.14191625 -0.043139275
0.09176802 -0.08811451 0.045134813 0.023770059 -0.010544579 -0.1854582 0.15275852 0.06708157
-0.09426718 0.14390098 0.055753116 0.084242254 0.00022762812 -3.948998e-05 -0.023825366 -0.17104994
-0.05622119 -0.13044874 0.0736709 0.017350145 -0.06631972 -0.103205234 0.035290256 -0.112991266
0.08668759 0.043818995 -0.06373801 -0.049387496 0.15307094 -0.032406688 -0.1472054 -0.029851362
0.08315591 0.12387607 0.13016945 -0.07800782 -0.05353012 0.070770286 0.04797883 -0.024011426
0.013123271 -0.0075856764 -0.06033736 -0.11045854 -0.047864884 8.8826375e-05 -0.11402904 0.10132618
0.08743301 0.070971504 -0.013844287 0.06171225 0.044809524 -0.008480584 0.0011817088 -0.00047403737
-0.10621071 0.08885619 -0.10434379 0.031077985 0.07619595 -0.13241284 0.16955379 0.08934032
-0.052105214 0.16426797 -0.03177718 0.20347425 0.0044790544 0.0493909 0.0060281386 -0.033192437
-0.10027002 -0.03450984 4.5499997e-05 0.0942044 -0.09035297 0.049984135 0.07326827 0.08102968
-0.014758026 0.048955344 -0.019867677 -4.8524435e-05 -0.12310614 -0.073056124 0.12797084 -0.19382758
-0.047221538 0.1642273 -0.03783615 0.08833524 0.15451191 0.009747533 -0.05356249 0.046304055
0.16806944 -0.03330645 0.1355587 0.1670617 0.046773832 -0.084276035 -0.0693978 -0.07149172
0.016211653 0.06211622 0.03197589 -0.088624835 0.026310433 0.13372786 0.08794541 -0.047751326
6.287169e-05 0.09998589 0.09147298 -0.07579968 0.034285072 -0.16523226 0.043681115 0.050102618
00000000: 8f9f 493d 853b c7bd 84bb 743d 3907 d93c
00000010: bfa9 f939 d3fa 05be 5d06 103e 6b79 21bd
00000020: 3b92 a8bd 1406 9cbd b0fe 3bbd 3ef4 0d3a
00000030: 2f46 9ebd a174 8fbd 47e1 0fbe 9d45 fc3d
00000040: 73c7 0a3e 9add 4f3d 000e b3bd 4725 903c
00000050: 8563 ceb7 1cc6 dc3c 1ea0 8bbd 625f 99bc
00000060: 3bca 15bd 4c6e 7d3c 6d1d b2bd 5f5a 203d
00000070: 8d1a c93d e3ae 09ba 1087 2fbc 7a2a 7fbd
00000080: 94c8 71b7 7a84 213a 2964 afbd 072b 0abd
00000090: aeb3 b53d 683d 70be dbfa a23d 2e4a 133e
000000a0: 0bd5 2dbd 2123 7a3d 1bd9 cd3d bd9a 973c
000000b0: ffc7 25bd 5fe9 833d 6210 363d df81 093e
000000c0: 1ec2 86bd 4b03 eabc 45b5 563c 2c7a 8dbd
000000d0: cb1b 99bd 0461 8e39 13eb 063a c74c 8b3b
000000e0: a3ef b7bd 53be c53d 6954 823c e135 36bd
000000f0: 9102 253e cebc 62bd 51ae 2bbc c028 a8bd
00000100: 2245 9f3d 0072 d3bc d232 463d ae99 e2bd
00000110: 10dd 833d 974a 3ebd 0ad6 b13d 3435 b3bd
00000120: fd33 b6bd ac38 69bd c288 a7bc 0f39 e2bd
00000130: 31c1 b83a 0622 1abe bffd 84bd 228d 993c
00000140: fd94 d1bc d832 95bc 7dbb 5e38 82fd 25bd
00000150: 2e99 ae3d 198b 86bb 4cf9 94bd f44b 01bd
00000160: e279 8d3d c3c6 7b3b a9fa 523c a6e8 a7b9
00000170: 2c91 0e3c 9550 52bd 2951 cfbd 12f8 9c3d
00000180: a93f a63d 0234 e33b bc83 183e 9701 033e
00000190: 5fcf 3e3d edcc 873d 12ac 933d b88c c8bd
000001a0: ada9 d93d 4eec 763d f3c1 e0bd 731e 36bd
000001b0: d532 e7bb d9df f6bd 81cc fd3d 50f9 173d
000001c0: 6df9 cd3d 60c1 0dbe 2bbd 18be ac9f 13be
000001d0: 40a7 f43b 7db4 adbd 905e 463d c0ff 9c3d
000001e0: c6d8 8e39 dc61 99bd a6d7 a63d e6c7 b4bd
000001f0: b3e3 df3d ff80 1f3d ddf1 1cbe 2ef2 383c
00000200: 41b8 213c 598a 003e 4c79 c23d 3e3c 663d
00000210: 213f 1bbe 0e1e acbd 7e52 113e cfb2 30bd
00000220: dff0 bb3d 6175 b4bd 48df 383d 6db9 c23c
00000230: 2bc3 2cbc c1e8 3dbe bb6c 1c3e 1062 893d
00000240: 270f c1bd c75a 133e 615d 643d 3487 ac3d
00000250: 75af 6e39 0ba2 25b8 6a2d c3bc b727 2fbe
00000260: 3148 66bd 5b94 05be c5e0 963d e421 8e3c
00000270: a2d2 87bd 445d d3bd 848c 103d f767 e7bd
00000280: 4389 b13d 8c7b 333d 1389 82bd 8b4a 4abd
00000290: a1be 1c3e e0bc 04bd 03bd 16be d88a f4bc
000002a0: a54d aa3d bdb2 fd3d 244b 053e 90c2 9fbd
000002b0: 6642 5bbd 03f0 903d 7385 443d 9cb3 c4bc
000002c0: fd02 573c 4491 f8bb 4f24 77bd 1638 e2bd
000002d0: f80d 44bd 4c48 ba38 0f88 e9bd 1a84 cf3d
000002e0: 1410 b33d 8259 913d 26d3 62bc fcc5 7c3d
000002f0: 318a 373d 26f2 0abc 91e3 9a3a 3888 f8b9
00000300: 0085 d9bd 3cfa b53d 32b2 d5bd 4297 fe3c
00000310: 9f0c 9c3d 3b97 07be 829f 2d3e 0ff8 b63d
00000320: 476c 55bd dd35 283e ca28 02bd 8e5b 503e
00000330: 08c5 923b 1d4e 4a3d b187 c53b cbf4 07bd
00000340: 5e5a cdbd 315a 0dbd 40d7 3e38 3dee c03d
00000350: fa0a b9bd 2abc 4c3d ad0d 963d e4f2 a53d
00000360: a6cb 71bc 6685 483d 8ac1 a2bc b786 4bb8
00000370: 121f fcbd 739e 95bd ca0a 033e bd7a 46be
00000380: 5f6b 41bd 342b 283e 14fa 1abd 1be9 b43d
00000390: 5f38 1e3e 1eb4 1f3c 5764 5bbd 52a9 3d3d
000003a0: 651a 2c3e 586c 08bd e6cf 0a3e 3912 2b3e
000003b0: eb95 3f3d ea98 acbd 6f20 8ebd 406a 92bd
000003c0: 4dce 843c 946d 7e3d 27f9 023d f080 b5bd
000003d0: fa88 d73c f5ef 083e b91c b43d e596 43bd
000003e0: fbd9 8338 67c5 cc3d 3056 bb3d dd3c 9bbd
000003f0: 816e 0c3d a532 29be f8ea 323d 6738 4d3d

convs.0.student_disrespect_student.bias f4 [128]
0.091188386 0.08546081 -0.055145737 -0.05957129 -0.059595954 -0.06029496 0.081640184 0.08516681
0.07409974 -0.059970032 0.08783886 -0.05944781 -0.059853002 -0.059905626 0.080215774 -0.026373599
0.08354062 0.08197036 -0.05283182 0.09467885 -0.049891792 -0.05897545 -0.04411551 -0.059555188
-0.059807133 -0.05670833 0.086097546 -0.05391138 0.08087887 -0.04791837 0.06940686 0.09838672
-0.05880878 -0.05302249 -0.059922595 0.09096888 0.08081319 -0.02821028 -0.058721088 0.09797037
0.042796917 0.043163013 0.08690679 0.08480359 -0.051594988 0.066823006 -0.05275161 0.08330921
-0.057810064 -0.049265765 0.08586372 -0.059379388 0.08590973 -0.055791367 -0.058852267 -0.047491252
0.07544694 0.0860241 0.083295904 0.08879774 0.08696734 -0.06915383 0.07592586 0.053559363
-0.0599707 -0.059838854 -0.057132 0.027227871 0.023629261 -0.040221937 0.0893663 0.07467388
0.101844765 0.08500024 0.08164792 0.06788801 -0.05720623 -0.059948653 0.090185 -0.059888
0.08568992 0.09484871 -0.05548608 0.08544593 0.046597254 -0.055773962 -0.05988491 0.07674767
-0.052384365 -0.059941255 0.08179977 -0.057227686 -0.05948699 -0.059755135 0.08169495 -0.05993012
0.07686192 0.07505001 0.085740894 0.08491905 0.081489824 0.08359495 0.084405996 0.031744692
0.09110756 0.08624744 0.08535329 0.08098246 0.09003568 -0.05971102 0.08426972 0.04452777
0.050989002 0.07955329 0.073526904 0.08570337 0.0855582 -0.00076040876 -0.059133057 -0.06418501
-0.044749286 0.073750064 -0.05246137 0.08583581 -0.05258177 -0.04421508 -0.059955847 0.083954275
00000000: fac0 ba3d 1406 af3d 7fe0 61bd 0601 74bd
00000010: e31a 74bd d9f7 76bd f832 a73d f06b ae3d
00000020: 9bc1 973d 23a3 75bd dce4 b33d 8c7f 73bd
00000030: 6c28 75bd 9a5f 75bd 2b48 a43d 720d d8bc
00000040: 5817 ab3d 13e0 a73d 2e66 58bd fce6 c13d
00000050: 565b 4cbd 3e90 71bd 77b2 34bd 24f0 73bd
00000060: 53f8 74bd fe46 68bd e953 b03d 2ed2 5cbd
00000070: d2a3 a53d 0e46 44bd 2f25 8e3d fa7e c93d
00000080: 7ae1 70bd 1c2e 59bd 6571 75bd e44d ba3d
00000090: 6381 a53d 3f19 e7bc 8685 70bd b0a4 c83d
000000a0: d24b 2f3d b3cb 303d 30fc b13d 81ad ad3d
000000b0: 4455 53bd 80da 883d 1212 58bd 059e aa3d
000000c0: 3fca 6cbd e6ca 49bd 51d9 af3d cd37 73bd
000000d0: 71f1 af3d 7d85 64bd 130f 71bd 3086 42bd
000000e0: ed83 9a3d 672d b03d 0b97 aa3d 97db b53d
000000f0: ef1b b23d 86a0 8dbd 047f 9b3d 1061 5b3d
00000100: d6a3 75bd 9619 75bd 3e03 6abd fc0c df3c
00000110: 2792 c13c c2bf 24bd ae05 b73d 9fee 983d
00000120: fd93 d03d 9b14 ae3d 0637 a73d de08 8b3d
00000130: 1451 6abd b88c 75bd eab2 b83d 1f4d 75bd
00000140: 327e af3d 0a40 c23d 5f45 63bd 47fe ae3d
00000150: c3dc 3e3d 3d73 64bd e149 75bd e22d 9d3d
00000160: fd90 56bd f684 75bd a386 a73d 9467 6abd
00000170: a1a8 73bd cdc1 74bd af4f a73d 4979 75bd
00000180: c869 9d3d d2b3 993d ec98 af3d 0aea ad3d
00000190: 23e4 a63d d433 ab3d 0ddd ac3d b906 023d
000001a0: 9a96 ba3d 7fa2 b03d b5cd ae3d 22da a53d
000001b0: a064 b83d 8b93 74bd 9a95 ac3d c062 363d
000001c0: d8d9 503d d6ec a23d 4695 963d 4085 af3d
000001d0: 2339 af3d 2b56 47ba 8135 72bd 6e73 83bd
000001e0: 074b 37bd 460a 973d bce1 56bd afca af3d
000001f0: fb5f 57bd df1a 35bd 4394 75bd 38f0 ab3d

convs.1.student_friend_student.weight f4 [2, 128, 128]
0.03305785 0.022772942 0.10468619 0.15470828 0.19144434 -0.04310398 0.00034060125 0.039103933
-0.004358516 0.11929134 0.08962497 -0.18324752 -0.0019204551 -0.054664448 0.10744062 -0.20509887
0.029009407 0.074359655 0.019137334 0.0054346295 0.011276888 -0.07822374 0.019025106 -0.038952526
-0.0859173 0.075342804 -0.05931522 -0.11304581 0.06112424 -0.13020295 -0.087992534 0.07960471
0.04093787 0.08644733 0.03750244 -0.004259011 0.1536958 0.017244294 0.026093062 0.15650907
-0.1493513 -0.04199367 -0.13852997 -0.09914167 -0.15768659 0.10738401 0.0877588 -0.043267343
0.026609134 -0.037042547 -0.14826113 0.130611 0.07717872 0.08278656 0.012825138 -0.00010646159
-0.15696442 0.067922 -0.1023527 0.037690308 0.0060191094 -0.02831165 0.03850173 0.046478737
0.13782491 0.087198876 0.03203602 -0.035271455 -0.109934635 -0.07946583 0.056677528 0.12559852
0.011164355 0.16096492 0.07542741 0.0927192 -0.08154034 -0.118082024 -0.005069307 0.009656845
-0.10406897 -0.11731014 -0.17938872 -0.050123923 0.19336368 0.15123436 0.097691074 -0.024920855
0.06131562 0.116920315 0.043207962 -0.047737867 -0.004462523 0.020258138 -0.08241566 0.16734606
-0.1965127 -0.08770957 -0.09532343 0.10075433 0.016527914 -0.14442892 0.058528394 0.023293799
0.017962687 -0.13355674 0.044552162 0.07909695 -0.0991134 -0.04258643 -0.14254275 -0.00014843742
-0.080998406 -0.17698137 -0.085774176 -0.016593574 0.06544088 -0.045974046 -0.0017147596 0.033299617
-0.077641904 0.17466457 -0.029657368 0.0068071065 0.0076684267 0.109712355 -0.019490153 0.061771832
-0.020045359 -0.101763725 -0.015716042 0.18784963 0.18075624 0.06674139 0.20222922 0.015704948
0.04101149 -0.041792065 -0.028663572 -0.05974954 -0.060955893 0.14816435 0.04462608 -0.1755251
-0.21057563 -0.048102867 -0.112586394 0.07687345 0.0022062908 -0.1966283 -0.05511916 0.15338536
0.03820697 0.06988193 -0.062385455 -0.004476047 -0.18950354 -0.150327 -0.13805392 -0.106275804
0.06560307 0.018949524 0.1225042 -0.07611633 0.11883426 0.022098724 -0.21206985 0.03609856
-0.06622887 -0.04845751 -0.17234996 -0.06874702 -0.012970334 -0.009737906 0.023376007 -0.14486986
-0.096229516 -0.0972805 0.02530165 0.036998224 -0.06944149 -0.09913955 0.023249846 0.13306119
0.088115916 0.0032842394 0.008473929 -0.12906998 -0.14529821 0.10449979 -0.037591502 0.005481214
-0.004339487 -0.040478345 0.13769433 -0.10756261 0.13312294 0.03888334 -0.1453511 0.0740824
-0.11281349 0.015282114 -0.004730934 0.06548181 -0.12843825 -0.07787411 0.10141214 -0.08712366
0.13947108 -0.051140428 -0.10453207 0.18063134 -0.046743054 -0.07146325 -0.034194045 0.120913796
0.08351788 0.124834396 0.15905686 0.2145884 -0.039560284 -0.11911728 0.04382338 0.1457244
0.016001156 0.003357521 -0.021783505 -0.059279036 -0.02382278 0.031902574 -0.022732968 0.16470338
-0.07022531 -0.060181476 0.11993432 -0.05174936 -0.10273655 0.011177983 0.02475903 0.07045921
-0.05431302 -0.18107875 -0.10165118 0.024896195 0.13872913 0.14454763 -0.19046901 0.01759988
0.13380487 0.15009351 0.041254554 -0.012870753 0.13543518 0.040077377 0.0010092924 -0.034018736
00000000: ab67 073d 528e ba3c b765 d63d d96b 1e3e
00000010: fc09 443e cd8d 30bd ba92 b239 722b 203d
00000020: e2d1 8ebb 054f f43d 4c8d b73d 3da5 3bbe
00000030: c8b7 fbba d4e7 5fbd d409 dc3d 7005 52be
00000040: 23a5 ed3c e049 983d e6c5 9c3c fa14 b23b
00000050: b2c2 383c c533 a0bd 8ada 9b3c af8c 1fbd
00000060: 69f5 afbd 544d 9a3d 84f4 72bd 9084 e7bd
00000070: 695d 7a3d ec53 05be 6e35 b4bd cb07 a33d
00000080: 78ae 273d 4c0b b13d 299c 193d 2c8f 8bbb
00000090: 6f62 1d3e e843 8d3c 1ec1 d53c ea43 203e
000000a0: 8cef 18be 8e01 2cbd cdda 0dbe ca0a cbbd
000000b0: 9878 21be 26ec db3d e3ba b33d 1939 31bd
000000c0: 66fb d93c edb9 17bd c4d1 17be e4be 053e
000000d0: e00f 9e3d 008c a93d 8720 523c 2244 dfb8
000000e0: 48bb 20be b11a 8b3d 4b9e d1bd 2761 1a3d
000000f0: f33b c53b d5ed e7bc fdb3 1d3d 7d60 3e3d
00000100: f921 0d3e 5395 b23d 3438 033d cd78 10bd
00000110: 6925 e1bd fbbe a2bd b226 683d e69c 003e
00000120: b3ea 363c fdd3 243e b079 9a3d 90e3 bd3d
00000130: 9ffe a6bd fdd4 f1bd 6e1c a6bb be37 1e3c
00000140: 1d22 d5bd 4c40 f0bd adb1 37be be4e 4dbd
00000150: 2101 463e 2edd 1a3e 4212 c83d d226 ccbc
00000160: 1626 7b3d eb73 ef3d d5fa 303d c888 43bd
00000170: 5b3a 92bb 65f4 a53c 8bc9 a8bd c45c 2b3e
00000180: a03a 49be 13a1 b3bd ee38 c3bd 4958 ce3d
00000190: 8c65 873c 2de5 13be 78bb 6f3d a3d2 be3c
000001a0: 7c26 933c 19c3 08be 547c 363d 95fd a13d
000001b0: f7fb cabd 1c6f 2ebd baf6 11be dea5 1bb9
000001c0: 7ee2 a5bd 9b3a 35be 5faa afbd 3fef 87bc
000001d0: de05 863d 484f 3cbd c9c1 e0ba 2e65 083d
000001e0: b802 9fbd 45db 323e 02f4 f2bc 260e df3b
000001f0: 6d47 fb3b dfb0 e03d d0a9 9fbc 7604 7d3d
00000200: 2a36 a4bc 8069 d0bd eebe 80bc a75b 403e
00000210: 2a18 393e b6af 883d 2d15 4f3e aaa7 803c
00000220: aafb 273d 282e 2bbd decf eabc efbb 74bd
00000230: e3ac 79bd 65b8 173e d6c9 363d dabc 33be
00000240: 23a1 57be 8307 45bd b293 e6bd d46f 9d3d
00000250: 6b97 103b ee58 49be a1c4 61bd 0d11 1d3e
00000260: e97e 1c3d 421e 8f3d e487 7fbd ceab 92bb
00000270: 370d 42be 52ef 19be 025e 0dbe 21a7 d9bd
00000280: e75a 863d 083c 9b3c 7be3 fa3d e1e2 9bbd
00000290: 605f f33d 6208 b53c d728 59be 15dc 133d
000002a0: 00a3 87bd 627b 46bd 827c 30be 3dcb 8cbd
000002b0: 8681 54bc bd8b 1fbc 0a7f bf3c c458 14be
000002c0: fb13 c5bd 003b c7bd 6845 cf3c 738b 173d
000002d0: 5737 8ebd ad09 cbbd 7676 be3c 3141 083e
000002e0: 1e76 b43d 653c 573b 3cd6 0a3c ec2a 04be
000002f0: 0ec9 14be fc03 d63d 8cf9 19bd c19b b33b
00000300: 4132 8ebb 9fcc 25bd beff 0c3e c949 dcbd
00000310: 6151 083e 2344 1f3d ebd6 14be 83b8 973d
00000320: c20a e7bd d561 7a3c f305 9bbb 541b 863d
00000330: 5185 03be 767c 9fbd 2bb1 cf3d e46d b2bd
00000340: 82d1 0e3e a078 51bd e914 d6bd 6cf7 383e
00000350: a575 3fbd 535b 92bd 0e0f 0cbd a7a1 f73d
00000360: 6c0b ab3d 2da9 ff3d cddf 223e 10bd 5b3e
00000370: f709 22bd c3f3 f3bd 2580 333d c738 153e
00000380: db14 833c db09 5c3b 5273 b2bc 93ce 72bd
00000390: fe27 c3bc 46ac 023d 7d3a babc 01a8 283e
000003a0: 4ad2 8fbd da80 76bd 20a0 f53d 23f7 53bd
000003b0: 8a67 d2bd dc23 373c 73d3 ca3c eb4c 903d
000003c0: 5477 5ebd b56c 39be 7e2e d0bd 1bf3 cb3c
000003d0: 020f 0e3e 4b04 143e 4f0a 43be a02d 903c
000003e0: 2504 093e 1db2 193e 89fa 283d dadf 52bc
000003f0: 85af 0a3e 2d28 243d 3c4a 843a 3b57 0bbd
