app/ml_models/R-GCN_files/model_isolated.pt (torch, 10254 bytes, 5 tensors)

weight f4 [6, 7, 16]
0	0xbe339486	-0.17537126
1	0x3eec0d5e	0.46103948
2	0xbe03b22f	-0.1286094
3	0x3ed2a33e	0.4114017
4	0xbd26bdc3	-0.040708315
5	0x3e4d7a62	0.20066217
6	0x3e28eaff	0.16495894
7	0xbe98cb6c	-0.298427
8	0xbddada06	-0.10686116
9	0xbec19c37	-0.37814495
10	0x3efe2fd8	0.49645877
11	0x3e923f2a	0.28563815
12	0x3c92befe	0.017913338
13	0x3e055252	0.13019684
14	0xbc266fdc	-0.010158505
15	0x3df56ae9	0.11983282
16	0x3e39f89d	0.18161245
17	0xbe8ff2a8	-0.2811482
18	0xbd2de25b	-0.042452198
19	0xbe249023	-0.16070609
20	0x3e99a3c4	0.30007756
21	0xbe2cc191	-0.16870715
22	0x3eb40acd	0.3516449
23	0xbea045d0	-0.31303263
24	0xbdbb8a02	-0.09157182
25	0xbf022e57	-0.5085196
26	0xbe616f3b	-0.22015087
27	0xbe4c5d41	-0.19957449
28	0xbe383d7c	-0.17992204
29	0x3e3e2c6b	0.18571632
30	0xbe824522	-0.2544337
31	0xbe84e5d9	-0.2595661
32	0x3f1391fb	0.57644624
33	0x3ed574a3	0.4169055
34	0xbe74ea47	-0.23917495
35	0xbd05d403	-0.032672893
36	0xbd8adccc	-0.06780395
37	0x3e92732c	0.28603494
38	0x3eec7a30	0.46186972
39	0xbd345433	-0.04402561
40	0x3d775b90	0.060390055
41	0x3e5777e0	0.21041822
42	0xbecce91b	-0.40021595
43	0xbd04e01a	-0.032440282
44	0xbe4bdb8d	-0.1990797
45	0x3d6c7797	0.057731237
46	0xbd009e2d	-0.03140085
47	0xbe53950b	-0.20662324
48	0x3dcbc3ff	0.09949493
49	0xbe36b320	-0.17841768
50	0xbc5fff42	-0.013671698
51	0x3e7bf83a	0.2460641
52	0xbe9fe632	-0.31230313
53	0x3f130550	0.5742998
54	0xbf027414	-0.5095837
55	0x3e1e4234	0.15454942
56	0xbd4dc5a5	-0.050237317
57	0x3ea262b1	0.3171592
58	0x3b58ce7d	0.003308206
59	0x3ea44d27	0.32090113
60	0xbd5c7c3b	-0.053829413
61	0xbe3ed186	-0.18634614
62	0x3f04cc81	0.5187455
63	0xbe103678	-0.14083278
64	0x3e7c18d8	0.24618852
65	0xbeb15863	-0.34637746
66	0xbe39c340	-0.18140888
67	0x3ddf0e9b	0.10891458
68	0xbeb6cfb1	-0.3570533
69	0xbbbff7d9	-0.005858403
70	0xbe95e2ae	-0.29274505
71	0x3db2f985	0.08738998
72	0xbdf0b08c	-0.11752424
73	0xbd90253f	-0.07038354
74	0xbea96d18	-0.33091044
75	0x3d60c96d	0.054879595
76	0x3e87f745	0.2655584
77	0xbb2d27c4	-0.0026421407
78	0x3f0bf40a	0.5466925
79	0xbed77d04	-0.42087567
80	0x3e9c90ed	0.3057932
81	0xbe5c7dd3	-0.21532373
82	0xbe351ac9	-0.17685999
83	0xbdb6df86	-0.089293525
84	0x3ebd39eb	0.3695825
85	0x3e4d2d55	0.20036824
86	0xbee3fb57	-0.44527695
87	0x3e736842	0.2377024
88	0xbecfaec1	-0.40563014
89	0x3dd76be8	0.10518628
90	0x3e1f90b3	0.15582542
91	0xbeaf78fb	-0.34271988
92	0x3e182228	0.1485678
93	0xbca0d284	-0.019631632
94	0xbe5e17f5	-0.21688826
95	0xbdce49fe	-0.10072707
96	0x3e3a8498	0.18214643
97	0xbe63d6f2	-0.22249964
98	0xbd89fa67	-0.067372136
99	0xbd1ef287	-0.03880551
100	0x3e521f06	0.20519647
101	0x3e87910e	0.26477855
102	0xbe816838	-0.25274825
103	0x3ddf30c9	0.10897977
104	0x3e94867c	0.29008853
105	0xbe7ff513	-0.24995832
106	0xbe697022	-0.22796682
107	0x3ebe1431	0.3712478
108	0x3e83b847	0.2572653
109	0x3cb53e40	0.02212441
110	0xbe9abcc2	-0.30222136
111	0xbe10735f	-0.1410651
112	0x3e9adb31	0.30245355
113	0xbe2ccc64	-0.16874844
114	0xbce0f9ed	-0.027462924
115	0x3e1564d5	0.14589246
116	0x3e274f4c	0.16338843
117	0xbe67b25c	-0.22626632
118	0xbe05d1b1	-0.13068272
119	0x3eb69091	0.3565717
120	0x3c1df5dc	0.009641137
121	0x3e9448d1	0.28961805
122	0x3f06f9fe	0.5272521
123	0x3e3efb34	0.18650514
124	0x3e9d1978	0.30683494
125	0xbe39159c	-0.1807465
126	0xbe290d9d	-0.165091
127	0xbe5db1be	-0.21649835
128	0xbddda228	-0.108219445
129	0x3eda8edb	0.42687115
130	0x3da776ea	0.08176978
131	0x3e15b477	0.14619623
132	0xbd86212b	-0.06549295
133	0xbcad2a97	-0.021138472
134	0xbb95a980	-0.004567325
135	0x3e07d719	0.13265647
136	0x3b9159c2	0.004435749
137	0xbd58216f	-0.05276626
138	0x3eaf28d7	0.34210846
139	0xbea31934	-0.31855166
140	0x3ea3c0ba	0.31982976
141	0x3d513295	0.05107363
142	0xbda59784	-0.0808554
143	0x3d76c796	0.060248934
144	0x3e1f3f18	0.15551412
145	0x3edfab38	0.43685317
146	0x3d341b72	0.043971486
147	0x3eb61f2e	0.35570663
148	0xbe2469d1	-0.16055991
149	0xbe3f6d20	-0.18693972
150	0xbe9a6eb5	-0.30162588
151	0x3e126583	0.14296536
152	0x3b97a594	0.0046278927
153	0x3e4579b6	0.1928471
154	0x3ee26143	0.4421483
155	0x3de5b402	0.112159744
156	0x3e8c2b1b	0.27376637
157	0xbd884177	-0.066531114
158	0xbce6ff76	-0.028197985
159	0xbe4d2d69	-0.20036854
160	0xbea1f775	-0.31634107
161	0xbe2d234e	-0.16907999
162	0xbdce8a8f	-0.10085022
163	0x3ec77c9d	0.3896226
164	0x3eb05d4b	0.34446177
165	0xbc8ae848	-0.016956463
166	0x3edec4a7	0.4350941
167	0xbeaf407f	-0.34228894
168	0x3be58488	0.0070043243
169	0xbe92c3a9	-0.28664902
170	0xbe8eace3	-0.27866277
171	0x3dc79dbc	0.09746882
172	0x3c0691fd	0.008213517
173	0xbe6d7408	-0.23188794
174	0x3dd14a8b	0.10219296
175	0xbc072d70	-0.008250579
176	0xbea930a4	-0.33044922
177	0x3df34e10	0.118801236
178	0xbcdf8f96	-0.027290147
179	0x3e8de2f8	0.27712226
180	0x3eb42126	0.3518154
181	0xbd300bf1	-0.04298014
182	0xbe49f20b	-0.19721238
183	0x3e9155a9	0.28385666
184	0x3bd0359e	0.006354048
185	0xbec941bf	-0.39307973
186	0x3eba6aa7	0.36409494
187	0xbdceb0c4	-0.10092309
188	0xbe0ac3ce	-0.13551256
189	0xbe08adff	-0.13347624
190	0x3f0d6fb5	0.55248576
191	0x3eac90d4	0.33704245
192	0x3df6ff64	0.12060431
193	0x3d07d7e5	0.033164877
194	0xbd5facbd	-0.054608095
195	0xbe6cad03	-0.23112874
196	0x3df18298	0.11792487
197	0xbe4e49dc	-0.20145363
198	0x3efcaaa9	0.49348953
199	0xbecf5d85	-0.40501037
200	0x3bc990b8	0.006151285
201	0xbecbc056	-0.39795178
202	0x3f070138	0.52736235
203	0x3e1379bf	0.14401911
204	0xbe3093f7	-0.17243944
205	0xbe1c4f5e	-0.15264651
206	0x3efc7cfc	0.49314106
207	0x3ebdcce2	0.37070376
208	0x3d96203a	0.073303655
209	0xbe4b23cc	-0.19837874
210	0xbd972e6c	-0.07381901
211	0xbd954fb5	-0.072905935
212	0x3e18e4eb	0.14931075
213	0xbd09dd14	-0.033658102
214	0xbeccfbf2	-0.4003597
215	0xbe0e90cc	-0.13922423
216	0x3be6eab8	0.0070470236
217	0x3dad5ceb	0.08464988
218	0x3e983377	0.29726765
219	0x3e48b3cc	0.19599837
220	0x3dc69cc9	0.09697873
221	0xbddc7658	-0.1076476
222	0xbe35ff1f	-0.17773102
223	0x3cf42bbe	0.029806014
224	0xbefd6234	-0.49488986
225	0xbdac131c	-0.08402082
226	0x3d89fc27	0.06737547
227	0xbdbd1e52	-0.09234299
228	0xbe39db5f	-0.1815009
229	0xbdfe4d08	-0.12417036
230	0x3ecb6e77	0.39732715
231	0xbe9b3620	-0.30314732
232	0x3e08b48d	0.13350125
233	0x3db6c832	0.08924903
234	0xbe28582c	-0.16439885
235	0xbe1a0658	-0.15041482
236	0x3ed103b9	0.40823153
237	0x3da62447	0.08112388
238	0x3ea2d99e	0.31806654
239	0xbe2c48f0	-0.16824698
240	0xbf01ee69	-0.5075441
241	0x3e9d3178	0.30701804
242	0x3e0d6050	0.13806272
243	0x3e3d3321	0.18476535
244	0x3cd26c41	0.025686385
245	0xbee0f5b9	-0.43937472
246	0xbe94edf4	-0.29087794
247	0xbeb5a3da	-0.3547657
248	0xbd6fa28a	-0.05850462
249	0xbedcd038	-0.43127608
250	0xbe96d375	-0.29458204
251	0x3d64e3d3	0.055881333
252	0xbe94248e	-0.2893414
253	0x3e6017e9	0.21884121
254	0xbe6638bf	-0.22482584
255	0xbc33c024	-0.010971103

root f4 [7, 16]
0	0xbeb88912	-0.36042076
1	0x3e13c71e	0.14431426
2	0x3e1f5e7f	0.15563391
3	0x3e97bc6e	0.29635948
4	0x3e8316f8	0.2560346
5	0xbe9fd1f8	-0.3121488
6	0xbec3dd43	-0.38254747
7	0x3e40fca6	0.18846378
8	0xbe04b2c0	-0.12958813
9	0xbeb45ee9	-0.3522866
10	0x3e8e4b71	0.27791932
11	0x3e7d135b	0.24714415
12	0xbed037ac	-0.40667474
13	0x3dc6aeed	0.09701333
14	0x3ddf076b	0.10890087
15	0x3e4a0f37	0.19732367
16	0x3da665b7	0.08124869
17	0xbe5999f5	-0.21250136
18	0x3c0962f0	0.008385405
19	0xbed08c27	-0.40731928
20	0x3c8d5704	0.017253406
21	0xbd8ee0f8	-0.06976503
22	0x3e755080	0.2395649
23	0x3e06f3e3	0.13178973
24	0x3eaa0fb1	0.33215097
25	0x3b617abb	0.0034405428
26	0x3edae217	0.42750618
27	0x3d568df9	0.05238149
28	0x3b7aef9b	0.0038289789
29	0x3e1bb3d4	0.15205318
30	0xbd450a93	-0.048105787
31	0xbf1eb73f	-0.6199836
32	0xbec8d428	-0.39224362
33	0x3d5eaba8	0.054362923
34	0x3ea89808	0.3292849
35	0xbed71397	-0.42007133
36	0xbdb8a5a2	-0.09015967
37	0x3e1cab99	0.15299834
38	0xbe9fb0d9	-0.31189612
39	0xbeade488	-0.33963418
40	0xbe305d7c	-0.17223161
41	0xbe9a4f6d	-0.30138722
42	0xbe33ce94	-0.17559272
43	0xbd5c92f1	-0.05385107
44	0xbef0fa0e	-0.47065777
45	0x3eb27b27	0.34859583
46	0xbdfb9715	-0.12284676
47	0xbe65c993	-0.22440176
48	0xbd279ead	-0.04092281
49	0x3ea2e3c9	0.3181441
50	0x3ec41f8d	0.3830532
51	0xbece9da8	-0.40354657
52	0x3d96d1a2	0.07364203
53	0xbdbf42ee	-0.09338938
54	0x3ecc1dde	0.39866537
55	0x3ea49a2f	0.32148883
56	0xbdf3ee54	-0.11910692
57	0x3e840af0	0.25789595
58	0xbf0096b0	-0.5022993
59	0xbdc1b9cb	-0.09459265
60	0xbeac122a	-0.33607608
61	0xbe39ac6e	-0.18132183
62	0xbeee590f	-0.4655232
63	0xbc498b1e	-0.0123012345
64	0x3d439afe	0.047755234
65	0xbed3c88a	-0.41363937
66	0x3eabe717	0.33574745
67	0x3cf46e37	0.02983771
68	0x3db6fab4	0.089345366
69	0xbe67df70	-0.22643828
70	0xbe060cd2	-0.13090828
71	0x3c1237e6	0.00892446
72	0xbeb0fdb7	-0.3456857
73	0xbc8cd8c4	-0.017193206
74	0x3e8985ac	0.26859796
75	0xbcd86798	-0.026416585
76	0xbeb71268	-0.3575623
77	0x3d1d3269	0.038378153
78	0x3eb3f6c4	0.35149205
79	0x3e3b81a6	0.18311176
80	0x3cbc925d	0.02301901
81	0xbd672b2f	-0.056437667
82	0x3eb43e7c	0.35203922
83	0x3ee69c37	0.45041057
84	0xbec8e7dd	-0.39239398
85	0x3e6f70dc	0.23382896
86	0x3d2536d7	0.040335502
87	0xbe9706b6	-0.29497308
88	0xbd8bf645	-0.068340816
89	0xbd606a35	-0.054788787
90	0x3da33f07	0.07971006
91	0xbed4bd91	-0.41550878
92	0x3eca4798	0.39507747
93	0x3d7b8e1a	0.061414815
94	0x3c298444	0.010346476
95	0x3dc37911	0.09544576
96	0x3f0daa18	0.5533767
97	0xbe8c7862	-0.27435595
98	0x3e6ba7ac	0.2301318
99	0x3da5fa94	0.081044346
100	0x3e181c41	0.14854528
101	0xbdd4f707	-0.10398679
102	0x3d00db66	0.031459235
103	0x3e0ca258	0.13733804
104	0xbe1713d0	-0.14753652
105	0x3e179ac8	0.14805138
106	0x3d53e9af	0.05173653
107	0xbe479210	-0.19489312
108	0xbeb07c43	-0.34469804
109	0x3d88dd70	0.06682861
110	0x3cb99f1c	0.022658877
111	0xbec554cd	-0.3854126

bias f4 [16]
0	0x3b4c2989	0.0031152687
1	0x3cfb9990	0.030712873
2	0x3d1513e5	0.036395926
3	0x3d195e9a	0.037443735
4	0xbd9ffea2	-0.07812239
5	0x3c5a1341	0.013310255
6	0x3a93db1d	0.0011280511
7	0xbdad3f3f	-0.08459329
8	0xbd3fcc76	-0.04682585
9	0xbe055c7c	-0.13023561
10	0x3c07b8f0	0.008283839
11	0xbd297dc0	-0.04137969
12	0xbb02fd4d	-0.0019987405
13	0x3c37f3ce	0.011227561
14	0xbd04ebbf	-0.032451387
15	0xbe3ad308	-0.18244565

weight f4 [6, 16, 1]
0	0x3ea0c77a	0.3140219
1	0xbcebca91	-0.028783115
2	0xbe83e00b	-0.2575687
3	0xbeb5cdd4	-0.35508597
4	0xbedcb4dc	-0.43106735
5	0x3e4e74ef	0.20161794
6	0xbe6911e2	-0.22760728
7	0x3e134a91	0.14383914
8	0xbd205986	-0.039147876
9	0x3ca114e1	0.019663276
10	0x3ee62561	0.44950393
11	0x3eda2c9c	0.4261216
12	0x3cdd9c28	0.027052
13	0xbf59314e	-0.8484086
14	0x3cfc5b27	0.030805184
15	0x3eee4099	0.4653366
16	0xbe99c118	-0.3003013
17	0xb6dfdb36	-6.6714374e-06
18	0xbdf83154	-0.121187836
19	0x3eec535e	0.46157354
20	0xbee7e597	-0.4529235
21	0xbd11dda6	-0.03561177
22	0xbf094c3f	-0.5363197
23	0xbf0501f5	-0.5195611
24	0xbee24dc6	-0.4419996
25	0xbe4371d4	-0.1908639
26	0xbf17c27c	-0.59281135
27	0x3ef6b9d6	0.48188657
28	0x3e286e52	0.16448334
29	0x3d971af0	0.07378185
30	0xbe65f7c2	-0.22457793
31	0x3d9c059b	0.07618257
32	0x3d5afdaf	0.053464588
33	0xbeb19a68	-0.34688115
34	0xbcdf9fe8	-0.027297929
35	0x3ede6294	0.43434584
36	0xbee52cbd	-0.44760695
37	0xbe8d1164	-0.2755233
38	0x3d2ee79c	0.04270135
39	0x3e17dbde	0.14829966
40	0x3d19d699	0.037558172
41	0xbe4f7880	-0.20260811
42	0x3dd4ae6c	0.10384831
43	0xbf09414b	-0.53615254
44	0x3d550d64	0.052014723
45	0xbd8d716e	-0.069064006
46	0x3d8d65b4	0.06904164
47	0xbefccfe5	-0.4937736
48	0x3e90d11a	0.28284532
49	0xbd85ed5f	-0.065394156
50	0xbe229a7c	-0.15879244
51	0x3f03ddfd	0.515106
52	0xbc887884	-0.016659029
53	0x3f1f22e3	0.6216261
54	0xbf1a5496	-0.6028532
55	0xbdde8fa8	-0.10867244
56	0xbdb3b29d	-0.08774302
57	0x3eae8a4f	0.34089896
58	0x3ee4ffd0	0.4472642
59	0xbe3fc679	-0.18728055
60	0xbecee696	-0.40410298
61	0xbeb36cc0	-0.35043907
62	0x3e14e9c7	0.14542304
63	0xbe56f6e5	-0.2099262
64	0x3e231b11	0.15928294
65	0xbc5e1697	-0.0135551905
66	0x3a1db644	0.00060162344
67	0xbe18f1ab	-0.14935939
68	0x3cfcf0c5	0.030876527
69	0x3e74001c	0.23828167
70	0xbeba32a2	-0.36366755
71	0xbed00cd9	-0.40634802
72	0xbc79321a	-0.015209699
73	0x3d082620	0.033239484
74	0xbcb255b7	-0.021769388
75	0x3d2037cb	0.03911571
76	0xbec79b4c	-0.3898567
77	0xbd826772	-0.06367387
78	0x3e6811d3	0.2266305
79	0xbe15f860	-0.14645529
80	0xbdcb0849	-0.0991369
81	0xbd68a8d4	-0.056801632
82	0x3db8e1cf	0.090274446
83	0xbef5643e	-0.4792804
84	0x3ee3cffc	0.44494617
85	0x3e1dac57	0.15397774
86	0xbccbba6f	-0.024869172
87	0xbcefac33	-0.029256916
88	0xbd0a0104	-0.033692375
89	0x3e5045f0	0.20339179
90	0xbe00683b	-0.12539761
91	0xbf129b2b	-0.5726802
92	0xbc0ccef7	-0.008594266
93	0x3c782a06	0.015146738
94	0x3dc2fb60	0.09520602
95	0x3eec68ae	0.46173614

root f4 [16, 1]
0	0xbf4ac9a5	-0.79213935
1	0x3f48cc23	0.7843649
2	0x3f12bac8	0.57316256
3	0x3ea0a42e	0.3137526
4	0xbefdcaed	-0.49568883
5	0xbeb583e5	-0.3545219
6	0x3c012f76	0.007884851
7	0xbe9f8e6d	-0.3116335
8	0xbdbf8f45	-0.09353498
9	0xbeb0abd8	-0.34506106
10	0xbdd7431e	-0.105108485
11	0x3e86fd68	0.2636521
12	0xbe28167d	-0.16414829
13	0x3e0cb9c0	0.13742733
14	0xbf1b091f	-0.6056079
15	0xbe85ab4c	-0.26107252
