app/ml_models/R-GCN_files/model_friendship_link.pt (torch, 87442 bytes, 11 tensors)

weight f4 [6, 7, 16]
0	0x3e85414e	0.26026386
1	0xbead3555	-0.33829752
2	0x3e2ded22	0.1698499
3	0xbf0cce79	-0.5500255
4	0x3e0d1ae9	0.13779797
5	0xbdfd2219	-0.12360019
6	0x3cd897d8	0.026439592
7	0xbec4b3a0	-0.38418293
8	0x3e6d86d1	0.2319596
9	0x3e2394ed	0.1597478
10	0xbd02dd65	-0.03194942
11	0xbc963d26	-0.018339705
12	0xbebcf9be	-0.36909288
13	0xbedeb981	-0.43500903
14	0xbe86b704	-0.26311505
15	0xbe204cd5	-0.15654309
16	0x3ed3a562	0.41337115
17	0x3e8efcce	0.2792725
18	0x3e4e10b9	0.20123567
19	0x3de64a12	0.112445965
20	0x3ec0fc4a	0.3769248
21	0x3e696c84	0.22795302
22	0xbed62eed	-0.41832677
23	0xbdc9932e	-0.098425254
24	0xbf166c86	-0.58759344
25	0x3ed2de2d	0.41185132
26	0xbb31824f	-0.0027085727
27	0xbe7653c8	-0.24055398
28	0xbeebef8b	-0.46081194
29	0x3ec0c344	0.37648976
30	0xbf01a9ff	-0.5065002
31	0xbebd8b75	-0.3702046
32	0x3ee3decc	0.44505918
33	0xbdf18150	-0.117922425
34	0xbe549331	-0.20759274
35	0xbe3b9ce2	-0.18321565
36	0xbdd8839e	-0.10571979
37	0x3e8771e9	0.26454094
38	0xbe9ccc6d	-0.30624714
39	0x3eb9ebf1	0.36312822
40	0x3e1795c5	0.14803226
41	0x3d58df77	0.052947488
42	0xbb25e41b	-0.0025312963
43	0xbba83280	-0.005132973
44	0x3e84b4d6	0.25919217
45	0xbebc3e80	-0.36766434
46	0xbe3fef63	-0.18743663
47	0xbe9758a8	-0.29559827
48	0xbd0c5f84	-0.03427078
49	0xbe40c83b	-0.18826382
50	0xbe97714c	-0.29578626
51	0x3e868937	0.26276562
52	0xbe3116a1	-0.17293788
53	0x3dae7722	0.085188165
54	0x3bd15269	0.006387998
55	0xbe92755d	-0.28605166
56	0xbe205ce4	-0.15660435
57	0xbe3e7df5	-0.18602736
58	0xbc91d046	-0.017799508
59	0x3d885543	0.066568874
60	0x3e982fa4	0.29723847
61	0xbdc92017	-0.09820574
62	0x3d8f2918	0.0699026
63	0x3d8e4b32	0.06947936
64	0x3efbcd5d	0.49180117
65	0xbe64b4c5	-0.22334583
66	0xbea6a85d	-0.32550326
67	0x3ebba834	0.36651766
68	0xbeaa610f	-0.33277175
69	0xbea1247c	-0.31473148
70	0x3e4a3046	0.19744977
71	0x3ea86056	0.32885998
72	0xbe368ab4	-0.17826349
73	0x3dbf0759	0.09327573
74	0xbc7e058d	-0.015504253
75	0x3d4d3bf2	0.050105996
76	0xbebd879c	-0.37017524
77	0xbc7997bd	-0.015233931
78	0xbd67a7df	-0.05655658
79	0xbe1effe3	-0.155273
80	0xbdec0412	-0.11524214
81	0xbe3b55f7	-0.18294512
82	0xbeb069e6	-0.34455794
83	0x3ed232e2	0.41054446
84	0x3e0bd594	0.13655692
85	0x3e6de75e	0.23232791
86	0xbf06ab5a	-0.5260521
87	0x3e3db876	0.18527398
88	0x3e0137ff	0.12619017
89	0xbd9901e3	-0.07471063
90	0xbc82a5c7	-0.01594819
91	0xbf030c02	-0.511902
92	0xbe807282	-0.25087363
93	0x3e1f482f	0.1555488
94	0xbe9399bf	-0.28828236
95	0x3d803086	0.06259255
96	0xbeafa24d	-0.34303513
97	0x3daba6e3	0.083814405
98	0x3e40b238	0.18817985
99	0xbecc7d34	-0.39939272
100	0x3e07a32a	0.13245836
101	0xbe474f45	-0.19463833
102	0x3eba41e1	0.36378387
103	0xbeea6170	-0.45777464
104	0x3df0fd90	0.11767113
105	0x3de93d08	0.11388594
106	0xbc56b37e	-0.013104318
107	0xbeb7d987	-0.35908148
108	0x3e68c4d5	0.22731335
109	0x3e1e301c	0.1544804
110	0x3d829c3b	0.06377455
111	0x3ec50a25	0.38484302
112	0xbef6b646	-0.4818594
113	0xbebbdc1a	-0.36691362
114	0x3ddc1d0b	0.10747727
115	0x3df3bd7b	0.11901375
116	0x3e1a71ea	0.15082517
117	0x3e1b4223	0.15161948
118	0xb78b1ec1	-1.6584412e-05
119	0xbedea644	-0.43486226
120	0xbecffe43	-0.40623674
121	0x3e7b1db0	0.24523044
122	0xbba648a1	-0.005074576
123	0x3aabd69c	0.0013110223
124	0xbe38aa95	-0.18033822
125	0xbed7f5f3	-0.42179832
126	0xbed909e7	-0.42390367
127	0xbf06e32e	-0.526904
128	0xbea60111	-0.3242269
129	0x3cdd9bac	0.02705177
130	0xbd38bc22	-0.045101292
131	0x3d80eaea	0.06294806
132	0xbe7930fd	-0.24335094
133	0x3ec2ce83	0.3804818
134	0xb55899c7	-8.0690046e-07
135	0xbdfcb50f	-0.12339222
136	0x3de8d028	0.11367828
137	0x3e0a3a3f	0.13498782
138	0x3a585979	0.00082530786
139	0xbddf7c0f	-0.10912334
140	0x3e592341	0.21204855
141	0xbe2356b6	-0.15951046
142	0x3f1a2ec1	0.6022759
143	0x3e986083	0.29761133
144	0xbeb981ba	-0.36231786
145	0xbf072d9d	-0.52803975
146	0xbe7fa625	-0.24965723
147	0xbf09da35	-0.5384858
148	0x3eb1aa2d	0.34700146
149	0x3f1a7ad7	0.6034369
150	0xb5038852	-4.8999675e-07
151	0x3ed9b5ec	0.42521608
152	0xbd3bbc0f	-0.045833644
153	0x3e7c7513	0.24654035
154	0x3a1af8e0	0.0005911719
155	0xbe19ecd7	-0.15031753
156	0xbecae694	-0.39629042
157	0x3dbf61bb	0.093448125
158	0xbe8ef243	-0.27919206
159	0xbef189d3	-0.47175464
160	0xbeedc477	-0.46438953
161	0x3ed05f78	0.40697837
162	0x3e7a9deb	0.24474303
163	0x3c84be6b	0.01620408
164	0x3e66f7da	0.22555485
165	0xbe739024	-0.23785454
166	0x3746834a	1.1832288e-05
167	0x3e285c4e	0.16441461
168	0x3d74bd63	0.059750926
169	0x3dcaf689	0.09910304
170	0xba5baa1d	-0.0008379536
171	0xbf3f8524	-0.7481253
172	0x3e0b7b3a	0.13621226
173	0xbd0ece72	-0.03486485
174	0xbd9c5aeb	-0.07634529
175	0x3e52a2df	0.20569943
176	0xbeee93bb	-0.46597084
177	0xbea09780	-0.31365585
178	0xbe0e8807	-0.13919078
179	0x3e925fa0	0.2858858
180	0xbdee9a05	-0.11650471
181	0xbe6d1b3d	-0.23154922
182	0x35e39f3c	1.6959161e-06
183	0xbd8e30a0	-0.06942868
184	0x3de63ad4	0.11241689
185	0x3e9dc87f	0.3081703
186	0x39a1edff	0.00030885634
187	0x3e1c4db8	0.15264022
188	0xbe94de5b	-0.29075894
189	0xbed4056c	-0.41410387
190	0xbc8e150c	-0.01734402
191	0x3ee7e9cc	0.4529556
192	0xbecd5a35	-0.40107885
193	0xbeb5de9f	-0.3552141
194	0xbc88d4fd	-0.016703123
195	0xbe6cba7d	-0.23118015
196	0xbe1310db	-0.14361899
197	0xbebec11d	-0.3725671
198	0xb658ef0e	-3.2325656e-06
199	0xbef86251	-0.4851251
200	0x3de279eb	0.1105841
201	0x3e92f980	0.28705978
202	0xb962939c	-0.00021608028
203	0xbed7e2d1	-0.42165235
204	0x3d6529a4	0.055947915
205	0x3d43d6c5	0.047812242
206	0x3e94e2fe	0.2907943
207	0x3e0a6c86	0.13517961
208	0xbef90837	-0.4863908
209	0xbe67f6af	-0.22652696
210	0xbd4a018f	-0.049317893
211	0xbec259fa	-0.37959272
212	0xbe9f86c0	-0.31157494
213	0xbe9a62ea	-0.3015359
214	0x3603dd8e	1.9649483e-06
215	0x3c7db89f	0.015485912
216	0x3ea5ae83	0.32359704
217	0x3d268bc2	0.040660627
218	0xba5325f0	-0.00080546644
219	0xbe38b39d	-0.18037267
220	0x3e39874d	0.1811802
221	0xbe955c45	-0.2917196
222	0xbe303ffa	-0.17211905
223	0xbd184ff1	-0.037185613
224	0xbc41977f	-0.011815905
225	0x3ee19795	0.4406096
226	0xbdedd624	-0.1161311
227	0xbeb606a8	-0.35551953
228	0xbdca13a9	-0.09867031
229	0xbe60bef4	-0.21947843
230	0x3ddcc84a	0.107803896
231	0xbe2ff7a3	-0.1718431
232	0xbe56e30f	-0.20985053
233	0xbd5aae64	-0.053388968
234	0xbc2cbf33	-0.010543632
235	0x3db5cf4c	0.08877429
236	0x3d9de7de	0.07710241
237	0x3e36c76b	0.1784951
238	0x3dfb99a3	0.12285163
239	0xbdb60e2e	-0.08889423
240	0x3d2242fc	0.039614663
241	0x3e9925ea	0.2991174
242	0xbe24edbe	-0.16106316
243	0xbe9ad3b6	-0.30239648
244	0x3eafe63c	0.34355342
245	0xbdb8faf5	-0.09032241
246	0x3e5f429d	0.21802755
247	0xbe23f5c4	-0.16011721
248	0xbf0ad725	-0.54234535
249	0x3dc6f4fe	0.09714697
250	0x3a98fb6e	0.0011671612
251	0x3e1188d5	0.14212354
252	0xbb3173d2	-0.002707709
253	0xbed41553	-0.4142252
254	0x3e1e27f6	0.15444931
255	0x3d935bae	0.07195221

root f4 [7, 16]
0	0x3e857f8c	0.26073873
1	0x3e7ef44f	0.24897884
2	0x3ec53cca	0.3852294
3	0xbe8e6cd6	-0.2781741
4	0xbe3d75e5	-0.18502004
5	0x3c1d98fc	0.009618994
6	0xbe44e06b	-0.19226234
7	0xbed3efa7	-0.41393778
8	0x3e9e7590	0.30949068
9	0xbc7349c2	-0.014849128
10	0x3b7bbd14	0.003841226
11	0xbea1058b	-0.3144954
12	0x3eb3d9d2	0.3512712
13	0xbec458d3	-0.38349018
14	0xbd221733	-0.039572906
15	0xbd89cc18	-0.06728381
16	0x3eac86f0	0.336967
17	0xbf0a40f2	-0.5400535
18	0xbd9a2386	-0.07526307
19	0xbe2730af	-0.16327165
20	0xbebfc6e2	-0.37456423
21	0x3de33734	0.110945135
22	0x3eb86cca	0.360205
23	0x3da420ed	0.080140926
24	0xbe703910	-0.23459268
25	0x3e5d0915	0.21585496
26	0xba104d6a	-0.00055046997
27	0x3f656972	0.8961402
28	0xbb4de38e	-0.003141615
29	0x3d3a7e08	0.04553035
30	0x3dad637b	0.0846624
31	0x3e96c47e	0.29446787
32	0x3cc39d4e	0.02387872
33	0x3ed0e295	0.40797868
34	0xbe377fe4	-0.1791988
35	0xbee11a93	-0.43965587
36	0xbe7780b7	-0.24170195
37	0x3e878ba9	0.2647374
38	0x3c140c01	0.009036065
39	0x3e7d84bb	0.24757664
40	0xbf06033c	-0.52348685
41	0x3c1e4c1a	0.009661699
42	0xbab338d2	-0.001367355
43	0x3f0cf68c	0.550637
44	0xbe0ad4de	-0.13557765
45	0xbd2cb700	-0.04216671
46	0xbe752575	-0.2394007
47	0xbe475f7a	-0.19470015
48	0xbecbbe65	-0.39793697
49	0x3ed7b5f7	0.42131016
50	0x3c3e86a5	0.011628781
51	0x3e8e9431	0.27847436
52	0x3eb18e96	0.34679097
53	0x3eae779e	0.34075636
54	0xbebcb134	-0.36853945
55	0x3e979807	0.29608175
56	0x3e1132cc	0.14179534
57	0xbd768135	-0.060181815
58	0xbcd0f3d5	-0.025506893
59	0xbf0139f3	-0.5047905
60	0x3eb77414	0.35830748
61	0xbdfd5781	-0.12370206
62	0xbe885f7a	-0.26635343
63	0xbe0d2002	-0.13781741
64	0xbec2be5d	-0.3803586
65	0xbe8f5372	-0.2799335
66	0xbea4c933	-0.32184753
67	0x3eb5e798	0.35528255
68	0xba12c351	-0.00055985624
69	0xbedc9978	-0.43085837
70	0xbe184e8e	-0.14873716
71	0x3db759e5	0.08952693
72	0x3e384106	0.17993554
73	0x3d8f6ab9	0.070027776
74	0xbcad1a7c	-0.021130793
75	0x3e2d362a	0.16915193
76	0xbc76bfa8	-0.015060343
77	0x3e976953	0.29572544
78	0xbeb30200	-0.34962463
79	0x3afcee33	0.0019297063
80	0x3ddf0b61	0.10890842
81	0xbe30e9ef	-0.17276739
82	0x3e28f5c0	0.16499996
83	0xbe6a954c	-0.22908515
84	0xbef9c481	-0.48782733
85	0x3e4d25b3	0.20033912
86	0xbf095cd6	-0.5365728
87	0x3e5fc306	0.2185174
88	0x3ea9b7b8	0.3314798
89	0xbd9e9536	-0.077433035
90	0xbcccd630	-0.025004476
91	0x3c863674	0.016383387
92	0xbe70ae21	-0.23503925
93	0xbe338d19	-0.17534293
94	0x3ea4ce7f	0.32188794
95	0xbe8232c8	-0.25429368
96	0xbf08354f	-0.5320634
97	0x3bdbdf9b	0.0067100055
98	0xbea10430	-0.31448507
99	0xbe5e0c8a	-0.21684471
100	0xbf191786	-0.5980152
101	0x3e753cde	0.23949
102	0xbe9d454d	-0.30716935
103	0x3e84bb4e	0.25924152
104	0xbe42fb92	-0.19041279
105	0x3e1fce48	0.15606034
106	0xbc630d3a	-0.013858134
107	0xbe95e4a3	-0.29275998
108	0xbea6501d	-0.32482997
109	0xbd9391eb	-0.07205566
110	0x3ef0aa71	0.47005036
111	0x3ed5b4ce	0.41739506

bias f4 [16]
0	0x3d54c745	0.05194785
1	0xbced537d	-0.028970474
2	0xbccf465a	-0.0253021
3	0xbd6eaef7	-0.05827233
4	0xbdce319d	-0.10068057
5	0x3d12a687	0.035803344
6	0xbd6c3a24	-0.057672635
7	0xbd4d7adf	-0.050166007
8	0xbdafe618	-0.08588809
9	0x3ca182a0	0.019715607
10	0xb8b887c7	-8.799094e-05
11	0x3e2a67ba	0.16641131
12	0x3d931bb0	0.07183015
13	0xbdc0eb32	-0.0941986
14	0x3c80525e	0.015664276
15	0xbd53c651	-0.0517028

weight f4 [6, 16, 16]
0	0xbdc64dc8	-0.09682804
1	0xbe9d65f0	-0.30741835
2	0x3e9d60e3	0.3073798
3	0x3ca19565	0.019724557
4	0x3e6c40c5	0.23071583
5	0xbf11233d	-0.56694394
6	0xbdec289d	-0.11531184
7	0x3e9bbd9a	0.30418092
8	0x3e8413f2	0.25796467
9	0xbf26134b	-0.6487319
10	0xbedfeca7	-0.4373524
11	0x3f8dc64e	1.1076143
12	0xbe04b979	-0.12961377
13	0x3ed50327	0.41603968
14	0x3e1715c0	0.1475439
15	0xbf5bf66e	-0.85922897
16	0xbef31bd4	-0.4748217
17	0xbe3afdff	-0.18260954
18	0xbd801148	-0.06253296
19	0x3e028f41	0.1274996
20	0xbd4a2eba	-0.04936097
21	0x3eafc585	0.34330383
22	0x3e8650c2	0.26233488
23	0xbc3da8af	-0.011575862
24	0xbd659d34	-0.056058124
25	0xbd6b828f	-0.057497557
26	0x3ec37f87	0.38183233
27	0x3ed33d88	0.41257882
28	0xbe106eae	-0.14104721
29	0xbe044bbb	-0.12919514
30	0xbe9d6c56	-0.30746716
31	0x3e08c60c	0.13356799
32	0xbbcaa10c	-0.006183749
33	0xb81cb0e2	-3.7358033e-05
34	0xbc5bdc2d	-0.013419193
35	0x393ee3db	0.00018204695
36	0x38aa0dfa	8.108835e-05
37	0x38562b43	5.1061867e-05
38	0xbbbb3682	-0.005713285
39	0x3e8d7bfc	0.27633655
40	0xbb68cb95	-0.0035521735
41	0x38e4e24f	0.000109140405
42	0xba1fd954	-0.0006097753
43	0x38b8cfc3	8.812502e-05
44	0xb8cb853c	-9.704611e-05
45	0xbc089b22	-0.008337768
46	0x38fe21a5	0.000121179306
47	0xb91c50c5	-0.00014907408
48	0xbe8eae73	-0.2786747
49	0xbd6d1334	-0.05787964
50	0xbf086c16	-0.53289926
51	0x3f0d3dcd	0.55172426
52	0x3e027bc4	0.12742525
53	0xbe27d334	-0.16389161
54	0xbea0b509	-0.3138812
55	0x3e65ed46	0.22453794
56	0xbe7a7828	-0.24459898
57	0x3de2a7fc	0.11067197
58	0xbe1afb24	-0.15134865
59	0xbea416d6	-0.32048672
60	0x3e1dc887	0.15408526
61	0x3c90fb72	0.017698023
62	0x3da8ab8d	0.08235846
63	0x3d980a9d	0.07423899
64	0xbbf544fb	-0.0074850298
65	0x3e7de731	0.24795224
66	0x3d2af3c5	0.041736383
67	0xbdc5c6b5	-0.09657041
68	0x3d5bdaf1	0.053675596
69	0xbe92ca39	-0.2866991
70	0xbebd6599	-0.36991575
71	0xbdf4c783	-0.11952116
72	0xbe45c1b4	-0.19312173
73	0x3e723eca	0.23656765
74	0xbe5b7675	-0.21431907
75	0xbe8dec41	-0.2771931
76	0xbe851f34	-0.2600037
77	0xbea1d511	-0.3160787
78	0x3e912865	0.2835113
79	0xbe94ac9d	-0.29037943
80	0x3e66e2d9	0.22547473
81	0x3da2e79b	0.079543315
82	0xbeb79d01	-0.35861972
83	0x3d5a3495	0.053272802
84	0xbe4fa747	-0.20278655
85	0x3f10f042	0.56616604
86	0x3ef20e06	0.47276324
87	0xbeb6ff49	-0.35741642
88	0x3ea48784	0.3213464
89	0x3e949cbb	0.29025826
90	0xbe31fb56	-0.17381033
91	0xbe4d06f6	-0.20022187
92	0xbcc43af9	-0.023953902
93	0x3e167d75	0.14696296
94	0xbd4c6d6b	-0.049909037
95	0xbe2622ba	-0.16224185
96	0xbd83ed44	-0.06441739
97	0x3af2525a	0.0018487677
98	0xbdb077ba	-0.08616586
99	0x35693524	8.6876594e-07
100	0x3aa73753	0.0012757577
101	0xbbb632d7	-0.00556026
102	0x36fad70a	7.4756144e-06
103	0xbe503c9e	-0.20335624
104	0x3d2d582b	0.04232041
105	0xb92d33f6	-0.00016517923
106	0xb7b35a1b	-2.1380421e-05
107	0xb74cdfeb	-1.22114825e-05
108	0xbb2d2c71	-0.0026424194
109	0xbcc3fc89	-0.02392413
110	0xbc5777ca	-0.0131511185
111	0x37175ad3	9.021448e-06
112	0x3d0e58f9	0.03475282
113	0xbeb2992f	-0.34882495
114	0xbde563cc	-0.11200675
115	0x3e1060fc	0.14099497
116	0x3e92f8bf	0.28705403
117	0x3de1841c	0.11011526
118	0x3dbdc70e	0.09266482
119	0x3e870efd	0.26378623
120	0x3e23c2df	0.15992306
121	0x3d835699	0.064130016
122	0x3e87bcb1	0.26511148
123	0x3ebb87e2	0.36627108
124	0xbd747b4a	-0.05968789
125	0xbe13cffb	-0.14434807
126	0xbe2ab78e	-0.16671583
127	0xbd6c0e55	-0.057630856
128	0x3deefeba	0.11669679
129	0xbd0f587e	-0.034996502
130	0x3e59ac0f	0.21257041
131	0xbea9df64	-0.33178246
132	0xbebabab6	-0.36470574
133	0x3ed84512	0.42240196
134	0xbec08099	-0.37598112
135	0xbd9a095e	-0.07521318
136	0x3eedfe63	0.46483144
137	0x3e5381cf	0.20654987
138	0xbea95ff0	-0.33081007
139	0x3f05aaf4	0.5221398
140	0xbd22e8da	-0.039772846
141	0xbd312f55	-0.04325803
142	0xbe092078	-0.13391292
143	0x3e8d4223	0.2758952
144	0xbe30cba1	-0.17265178
145	0xbe25fe33	-0.1621025
146	0xbe15d468	-0.14631808
147	0xbeeb0f4e	-0.45910114
148	0xbd3dbeed	-0.04632466
149	0x3d062b34	0.032756045
150	0x3d93f7d3	0.07225003
151	0x3e5462b3	0.20740776
152	0xbee1e4c9	-0.44119862
153	0xbdebede8	-0.115199864
154	0x3d180269	0.037111674
155	0xbe46e0bc	-0.19421667
156	0x3d92bcdf	0.071649306
157	0xbccad3b8	-0.024759158
158	0x3e6a73e7	0.22895776
159	0x3e955fc9	0.2917464
160	0x3a331a5c	0.0006832236
161	0xb8f97a2e	-0.00011896003
162	0xba2a411c	-0.00064946874
163	0x39761b4e	0.0002347056
164	0x3a0f2479	0.0005460452
165	0x37bb30c4	2.2314845e-05
166	0xb924ea7d	-0.00015727612
167	0xb8d9a820	-0.00010378682
168	0xb914b080	-0.00014180131
169	0x3a9e45aa	0.0012075205
170	0xba181778	-0.0005801837
171	0x3aa7e308	0.001280875
172	0x39847cb8	0.00025269925
173	0xbb29e13b	-0.0025921601
174	0xbc73a115	-0.014869948
175	0x3a7ac0ff	0.0009565502
176	0x3c9c7961	0.019100847
177	0xbf1df280	-0.6169815
178	0xbdf0d5b4	-0.11759511
179	0x3f33b9f8	0.7020564
180	0x3ed4851f	0.41507813
181	0xbee10ed6	-0.4395663
182	0xbd9004d5	-0.07032172
183	0xbeb93b35	-0.36177984
184	0xbea99209	-0.33119228
185	0x3e7e350b	0.24824922
186	0x3e57d8ed	0.21078844
187	0x3f50f527	0.8162407
188	0x3e32b5cc	0.17452163
189	0x3e6f8b8f	0.23393081
190	0xbf283812	-0.65710557
191	0x3f294f1a	0.66136324
192	0xbec813d4	-0.39077628
193	0x3efca587	0.49345037
194	0x3f3fd143	0.74928683
195	0x3e3c6500	0.18397903
196	0x3eb0a438	0.3450029
197	0x3ea1ddca	0.31614524
198	0x3e6b6645	0.22988231
199	0xbded7074	-0.11593714
200	0x3f171e64	0.5903075
201	0x3f48686f	0.78284353
202	0x3e4e6355	0.2015508
203	0x3f077349	0.52910286
204	0x3e1b2dd5	0.15154202
205	0x3e56cd15	0.2097667
206	0x3b3f603a	0.0029201643
207	0x3ee47ca4	0.44626343
208	0xbeb53223	-0.35389814
209	0xbdb7666d	-0.08955083
210	0x3e5593cc	0.20857161
211	0x3d624845	0.055244703
212	0xbdcf075a	-0.10108824
213	0xbe08a64e	-0.1334469
214	0x3de6c744	0.11268476
215	0x3e7ecfa5	0.24883898
216	0x3ee6f442	0.4510823
217	0xbee02a9c	-0.43782508
218	0xbd4930c1	-0.04911876
219	0xbe95393c	-0.2914523
220	0x3ee3fc64	0.44528496
221	0x3e6db767	0.23214494
222	0x3edff46b	0.43741164
223	0x3d22cc84	0.039745823
224	0xbe34d930	-0.17660975
225	0x3ebe925d	0.3722104
226	0xbe8e40a4	-0.27783692
227	0x3f8cc081	1.0996248
228	0xbdc3fceb	-0.09569725
229	0xbe749864	-0.23886257
230	0xbe30e2c3	-0.17274003
231	0xbdbb35f3	-0.09141149
232	0xbf23b427	-0.63946766
233	0x3e352041	0.17688085
234	0x3ea76036	0.3269059
235	0x3f2b9d59	0.6703697
236	0xbea40496	-0.3203475
237	0x3ea9cc44	0.33163655
238	0x3dc5080f	0.09620678
239	0xbea31826	-0.3185436
240	0x3d961870	0.0732888
241	0x3e24501a	0.16046181
242	0xbf071a30	-0.52774334
243	0x3d1eb905	0.038750667
244	0xbe49d7a1	-0.19711162
245	0xbe8e0920	-0.27741337
246	0xbdb0068e	-0.08595
247	0xbec912ad	-0.3927206
248	0x3ef78182	0.48340994
249	0xbd1c6bd1	-0.03818876
250	0xbeb49d52	-0.35276276
251	0xbe70591c	-0.23471493
252	0xbeb8a975	-0.36066785
253	0x3ecb8ae7	0.39754412
254	0x3eef4df0	0.4673915
255	0xbcd33bc1	-0.025785329

root f4 [16, 16]
0	0x3c0e1788	0.0086726025
1	0x3e1e7b0d	0.15476628
2	0x3da36f9d	0.07980273
3	0x3bd9a189	0.006641571
4	0xbe83612f	-0.25660083
5	0xbf0899f0	-0.5335989
6	0xbe859ee8	-0.26097798
7	0xbed2ede6	-0.41197127
8	0x3e21ef55	0.15813954
9	0xbd355ca8	-0.044277817
10	0x3d29ca4e	0.0414527
11	0x3eece6bd	0.4626979
12	0xbe3d60a9	-0.18493904
13	0x3e7d1fd0	0.24719167
14	0xbe0b78d8	-0.13620317
15	0xbeadab62	-0.33919817
16	0xbeae151f	-0.3400049
17	0xbe9ce919	-0.3064659
18	0x3cd0152b	0.025400719
19	0x3eadd1e2	0.3394919
20	0x3eb4894c	0.35261
21	0xbd74ae47	-0.059736516
22	0xbc1aa5b5	-0.009438922
23	0x3de1ce34	0.11025658
24	0x3ee75fd3	0.45190296
25	0xbeef1937	-0.46698925
26	0x3e835024	0.2564708
27	0x3e072f97	0.13201748
28	0x3e184cdb	0.14873068
29	0x3e95da06	0.292679
30	0xbe52c394	-0.2058242
31	0xbeca1314	-0.3946768
32	0xbdabea11	-0.08394254
33	0x3cac1407	0.021005644
34	0xbd62dc03	-0.0553856
35	0x39a0f238	0.00030698045
36	0x3ad6a34b	0.0016375569
37	0x3e12d468	0.14338839
38	0x3c9e30a1	0.019310297
39	0x3e0134b5	0.12617762
40	0xbe74d6ec	-0.23910111
41	0xb95b782c	-0.00020930235
42	0x3decbd9f	0.11559605
43	0x3c8f4a6e	0.017491546
44	0x3cc5342e	0.024072733
45	0x3d79f72b	0.061026733
46	0x3b9c3b58	0.0047678165
47	0xba317535	-0.00067694794
48	0x3e61ddea	0.2205731
49	0x3e0a5a8a	0.135111
50	0x3e2d3e48	0.1691829
51	0xbd8cba6c	-0.06871495
52	0xbe736a9e	-0.2377114
53	0xbdce1018	-0.100616634
54	0x3e9fd9f5	0.31220976
55	0x3e36c4ca	0.17848507
56	0xbe74e1c4	-0.23914248
57	0xbc4cca27	-0.012499369
58	0xbe8f2474	-0.279575
59	0xbe9be49a	-0.30447847
60	0x3d181eaa	0.03713862
61	0x3e7f6635	0.24941333
62	0xbe991e81	-0.29906085
63	0x3e59c3d9	0.21266116
64	0xbea5230f	-0.3225331
65	0x3e8122c7	0.25221846
66	0x3e122b30	0.14274287
67	0x3e30588b	0.17221276
68	0x3db8020e	0.08984767
69	0x3d6c8f03	0.057753574
70	0xbe640838	-0.2226876
71	0x3ddec078	0.10876554
72	0xbe8f9bc0	-0.28048515
73	0xbe862268	-0.26198125
74	0x3eb0e275	0.34547773
75	0x3e6614d2	0.2246888
76	0x3ea805fd	0.3281707
77	0x3d791920	0.060814977
78	0x3e9fc4d0	0.31204844
79	0xbe1d5c32	-0.15367201
80	0xbe9b4476	-0.3032567
81	0xbb8867b8	-0.004162755
82	0x3e34c55c	0.17653412
83	0x3d274310	0.04083544
84	0xbd9888cd	-0.07447968
85	0x3e0b3444	0.13594157
86	0xbf14d74a	-0.58141005
87	0xbe802ceb	-0.2503427
88	0x3d4c88c4	0.049935117
89	0xbe7f97b0	-0.24960208
90	0xbd9fea0b	-0.07808312
91	0x3da367e2	0.079787984
92	0x3ea154a0	0.31509876
93	0x3eeb9fe1	0.46020415
94	0xbe219e2d	-0.15782996
95	0x3df2c90f	0.11854755
96	0x3d9c0a87	0.076191954
97	0x3c7f9009	0.0155983055
98	0xbc4b148f	-0.012395038
99	0x37b94392	2.2085183e-05
100	0xb81d0056	-3.743203e-05
101	0x3d35d1e6	0.044389628
102	0x3b1b2af0	0.0023676716
103	0xbd5f9678	-0.054586858
104	0xbd921827	-0.07133513
105	0xb5c8b77a	-1.495456e-06
106	0xb97841dd	-0.00023675659
107	0x378c08eb	1.6693453e-05
108	0xbc62ad60	-0.013835281
109	0xbb968e4c	-0.0045946
110	0xbb9d83d7	-0.0048069763
111	0x3581dd89	9.675724e-07
112	0xbe9f7792	-0.31145912
113	0xbe4286cb	-0.18996732
114	0x3e74db7e	0.23911855
115	0x3db010db	0.08596965
116	0xbe7cd7e3	-0.24691729
117	0xbe5c3379	-0.2150401
118	0xbe029166	-0.12750778
119	0x3e33168f	0.17489074
120	0x3d923a11	0.071399815
121	0xbe930565	-0.28715053
122	0x3c38748e	0.011258258
123	0x3e594b4c	0.2122013
124	0x3e87a5eb	0.26493773
125	0x3ecdb24a	0.40175086
126	0xbea4e120	-0.32203007
127	0xbe98e4b8	-0.29862
128	0x3d87c8f4	0.06630126
129	0x3e437b36	0.1908997
130	0xbeb453ac	-0.35220087
131	0x3e523693	0.20528631
132	0x3e36cd86	0.17851838
133	0xbc7b1b7b	-0.015326376
134	0x3de10d51	0.10988868
135	0x3d9b6fea	0.07589705
136	0x3e20e20e	0.15711233
137	0x3ea4aed3	0.3216463
138	0x3eba9753	0.36443576
139	0xbcb82971	-0.022480698
140	0x3ef23ce7	0.4731209
141	0xbea313b8	-0.31850982
142	0x3d4c187f	0.04982805
143	0x3e1a7660	0.15084219
144	0x3d8ea8ee	0.069658145
145	0xbe0674ae	-0.13130447
146	0xbe62fc93	-0.22166662
147	0x3d39e2cb	0.045382302
148	0x3db3cc54	0.08779207
149	0xbe2ef54f	-0.17085765
150	0xbd7e6500	-0.06210804
151	0xbdebbe98	-0.11510962
152	0xbe274a26	-0.16336879
153	0x3dd7fc9e	0.1054623
154	0xbe065754	-0.1311925
155	0x3d70fd02	0.058835037
156	0x3e24745c	0.16060013
157	0xbd9e5f02	-0.07732965
158	0xbe1521df	-0.14563702
159	0x3da64a21	0.08119608
160	0x3a1635f6	0.00057300867
161	0xb952aba0	-0.00020091096
162	0x39f74f35	0.00047170525
163	0xb92f5a8e	-0.00016723035
164	0x3a98674c	0.0011627465
165	0xb985d739	-0.0002552809
166	0x39683144	0.00022143597
167	0x38b0054f	8.393323e-05
168	0xb99cf372	-0.0002993602
169	0xba72538e	-0.0009244018
170	0x3a76e306	0.00094179844
171	0x399f0a5a	0.00030334556
172	0x39cd7d16	0.00039193843
173	0xb9b66aaa	-0.00034793216
174	0xbc4c0d30	-0.012454316
175	0x3a6f96a9	0.00091395766
176	0x3f18a5dd	0.5962809
177	0xbee84541	-0.45365337
178	0xbde325ec	-0.110912174
179	0x3ecc6aa5	0.39925113
180	0xbe291e5c	-0.16515487
181	0xbe902e15	-0.28160158
182	0xbe343139	-0.17596902
183	0xbe51738d	-0.20454235
184	0x3e23d15b	0.15997832
185	0xbd8ee77d	-0.06977747
186	0xbdb22f51	-0.08700431
187	0x3dcec7a3	0.100966714
188	0x3e8c3af6	0.27388734
189	0x3ecad4dc	0.39615524
190	0x3d620ffc	0.055191025
191	0x3ef56a3f	0.47932622
192	0xbdcd2129	-0.100160904
193	0x3ee3aa16	0.44465703
194	0x3e59aa6e	0.2125642
195	0x3ec43b90	0.38326693
196	0x3c40ec63	0.011775109
197	0x3cec018d	0.028809333
198	0xbebec68b	-0.3726085
199	0x3d865aaa	0.065602615
200	0x3e9ce42a	0.30642825
201	0x3ec11b1e	0.37716
202	0xbe82d07a	-0.2554968
203	0x3e2cb5b2	0.16866186
204	0xbe3c0660	-0.18361807
205	0xbe873aef	-0.2641215
206	0xbe78ffe8	-0.2431637
207	0x3e495438	0.19661033
208	0x3c970385	0.018434295
209	0xbe47e122	-0.19519475
210	0x3ea4c9dd	0.3218526
211	0xbe4a131a	-0.19733849
212	0xbe330bf1	-0.17485024
213	0x3ed431d9	0.4144428
214	0x3e9354b1	0.28775552
215	0x3e712d18	0.23552358
216	0xbe8dd8b8	-0.27704406
217	0xbd0cd13a	-0.03437922
218	0xbe1e221e	-0.15442702
219	0x3ef619a8	0.4806645
220	0xbeaa3b27	-0.33248255
221	0xbe8a3315	-0.26992097
222	0x3e745dcd	0.23863907
223	0x3ea15675	0.31511274
224	0x3e513fc5	0.20434482
225	0xbd939f1c	-0.07208082
226	0xbdc234ba	-0.09482713
227	0x3e97be70	0.2963748
228	0x3ec178cb	0.3778747
229	0xbda2f8f2	-0.07957639
230	0x3e678786	0.22610292
231	0xbdd9a655	-0.106274284
232	0xbee69788	-0.45037484
233	0x3d89eec7	0.06734996
234	0xbdd3487d	-0.103165604
235	0x3ec97f83	0.39355096
236	0xbeb86e99	-0.3602188
237	0x3d85bd82	0.06530286
238	0xbe7015c7	-0.23445807
239	0xbe08aa52	-0.13346222
240	0xbe2ea803	-0.17056279
241	0x3e306d4d	0.17229195
242	0xbebf98fd	-0.37421408
243	0x3f018c42	0.5060464
244	0x3eb43501	0.3519669
245	0x3dbca74f	0.09211599
246	0xbbe2d4fe	-0.0069223633
247	0x3ea80c27	0.32821772
248	0x3e108540	0.14113331
249	0x3dfaa2bf	0.122380726
250	0xbea42410	-0.32058764
251	0xbdf745b5	-0.120738424
252	0x3dd64fe8	0.1046446
253	0xbe58778f	-0.21139358
254	0x3eb53af5	0.35396543
255	0xbc30f4c0	-0.01080054

bias f4 [16]
0	0xbd4df395	-0.050281126
1	0xbd5f7a6f	-0.05456012
2	0xbdd8e240	-0.10590029
3	0x3c6273f0	0.013821587
4	0x3bae4dab	0.0053193173
5	0x3d08855b	0.033330303
6	0xbd256866	-0.040382765
7	0xbd61fd41	-0.055173162
8	0x3d7efda1	0.062253598
9	0xbcdcfb1b	-0.026975205
10	0x3d9be71f	0.07612442
11	0x3e0c802f	0.13720773
12	0x3d5f221a	0.05447588
13	0x3dcc52a0	0.09976697
14	0x3d4f237a	0.050570942
15	0x3db58737	0.08863681

weight f4 [128, 64]
0	0xbc18e223	-0.009331259
1	0xbe2e373c	-0.17013258
2	0xbe19b996	-0.15012202
3	0x3e2df20e	0.16986868
4	0xbc869f93	-0.016433513
5	0x3e1c3fe6	0.1525875
6	0x3d871017	0.06594866
7	0xbe1eda77	-0.15513025
8	0x3c954b9c	0.01822453
9	0xbc5b9882	-0.01340306
10	0x3e26805d	0.16259904
11	0x3dc78b2d	0.097433425
12	0x3c9dc686	0.019259702
13	0xbacc78d7	-0.0015599978
14	0x3d8d34ec	0.0689486
15	0x3d228de9	0.039686117
16	0xbc1eab0f	-0.009684338
17	0xba9f58e4	-0.0012157229
18	0xbbf13416	-0.0073609455
19	0x3d9ebab8	0.077504575
20	0xbe101927	-0.14072095
21	0x3dc69235	0.096958555
22	0xbd39db47	-0.045375135
23	0xbce8be08	-0.028410926
24	0x3e19d5fb	0.15023033
25	0x3d8c3364	0.068457395
26	0x3d92a730	0.07160795
27	0xbd91fe4b	-0.07128581
28	0x3dd74cbd	0.105126835
29	0x3cc7f7b6	0.02441011
30	0x3d8dd3a9	0.069251366
31	0x3c28efa3	0.01031104
32	0xbd7acdef	-0.06123155
33	0xbdfa37e4	-0.122176915
34	0xbe3bce29	-0.18340363
35	0x3c2615df	0.01013705
36	0x3bbc6e94	0.0057504866
37	0x3d70277c	0.058631405
38	0x3aaea069	0.0013322952
39	0xbe07b8d2	-0.13254097
40	0xbe178f7c	-0.14800829
41	0xbdd9c5dc	-0.10633442
42	0xbc9886f7	-0.018619044
43	0xbd05a965	-0.03263225
44	0xbe15ff63	-0.14648204
45	0xbe0dbf91	-0.13842608
46	0xbe156382	-0.1458874
47	0xbb3870b9	-0.002814336
48	0x3d18ba97	0.03728732
49	0xbd28e60f	-0.041235026
50	0xbe0b1de0	-0.13585615
51	0xbc8cce78	-0.017188296
52	0xbe1b15c7	-0.15145026
53	0xbdfb2186	-0.122622535
54	0xbe1c735f	-0.15278386
55	0x3c8fa03c	0.01753246
56	0xbe2521f1	-0.16126229
57	0x3e0f0595	0.13966973
58	0x3d0ec907	0.034859683
59	0xbd71b25e	-0.059007995
60	0xbdd44d75	-0.10366336
61	0xbd7f8a2a	-0.062387623
62	0xbcba2b63	-0.022725767
63	0xbd4b9709	-0.049704585
64	0x3cc75bdf	0.0243358
65	0xbdc484ef	-0.095956676
66	0xbdf4e9b5	-0.119586386
67	0xbc496870	-0.012292966
68	0xbd9437c0	-0.07237196
69	0xbc7d0967	-0.015444136
70	0x3dba66a1	0.09101606
71	0x3cc8b980	0.024502516
72	0x3df7795d	0.12083695
73	0xbd8dccd6	-0.06923835
74	0x3d4d2afc	0.05008982
75	0x3afc0078	0.0019226214
76	0xbd2f2cde	-0.042767398
77	0x3c5fd674	0.013661969
78	0xbc4083a0	-0.011750132
79	0x3c0f052f	0.008729263
80	0xbdd94974	-0.10609713
81	0xbc91adaf	-0.017783014
82	0xbddd39fd	-0.10802076
83	0xbbb7c439	-0.0056081084
84	0xbe000612	-0.12502316
85	0x3df6a35b	0.12042876
86	0xbbaa7757	-0.0052022147
87	0x3cde75cd	0.027155781
88	0x3d94ae8a	0.07259853
89	0x3bc90925	0.0061351233
90	0x3e16157f	0.14656638
91	0xbc6af05c	-0.014339533
92	0x3dbb6e6e	0.09151922
93	0x3d86ad0e	0.06575976
94	0xbcdbc6ca	-0.026828188
95	0xbd34e4f2	-0.04416365
96	0xbce7bd4f	-0.028288512
97	0xbdbf1d11	-0.09331716
98	0xbd69cd44	-0.057080522
99	0xbd41075d	-0.047126163
100	0xbe30407a	-0.17212096
101	0x3d0bcf07	0.034132984
102	0xbe4224ea	-0.18959394
103	0xbd98ca6a	-0.074604824
104	0xbe30b970	-0.17258239
105	0xbd3c7988	-0.04601434
106	0xbe2e75cb	-0.17037122
107	0xbe061e5c	-0.13097519
108	0xbd7e38d1	-0.062065903
109	0xbe23cfbc	-0.15997213
110	0x3c6acf39	0.014331632
111	0xbd7e1865	-0.062034983
112	0xbdbddf5d	-0.09271119
113	0xbda6084d	-0.08107052
114	0xbe0a0078	-0.13476741
115	0xbae2ba7a	-0.0017298006
116	0x3d143c3d	0.03619026
117	0xbcb0777c	-0.02154135
118	0xbe127f53	-0.14306383
119	0xbd2dd570	-0.042439878
120	0xbb44be24	-0.003002056
121	0xbd39438d	-0.045230437
122	0x3d2f1259	0.042742107
123	0x3d08383d	0.033256758
124	0x3cc3bede	0.023894724
125	0xbdbc93a7	-0.0920785
126	0xbdde1b86	-0.108450934
127	0x3c915bf1	0.017744036
128	0xbe12364b	-0.14278524
129	0xbe342e87	-0.17595874
130	0xbe28dd64	-0.16490704
131	0x3a544723	0.00080977584
132	0x3b8b286e	0.004246763
133	0x3d53a516	0.05167111
134	0x3d938179	0.07202429
135	0xbe44fafe	-0.19236371
136	0x3e24baf3	0.1608694
137	0xbe0c9c10	-0.13731408
138	0x3d1b008b	0.037842315
139	0x3dfe29aa	0.124102905
140	0x3df5f9dd	0.12010548
141	0xbcbf5398	-0.02335529
142	0xbcdbb64d	-0.026820326
143	0xbc9e0ca8	-0.019293144
144	0xbe134955	-0.14383443
145	0xbdc39572	-0.09549989
146	0xbd40fbc8	-0.047115117
147	0xbcd77aa8	-0.026303604
148	0xbe0c98ed	-0.13730212
149	0x3d7b8324	0.061404362
150	0x3ce92dae	0.028464165
151	0xbe38a650	-0.18032193
152	0x3e224855	0.15847905
153	0xbdc2c78d	-0.095107175
154	0x3d21fffd	0.03955077
155	0xbc9cbfcd	-0.019134426
156	0x3cf9bb51	0.030484827
157	0x3c219d85	0.009864216
158	0x3d79ac60	0.060955405
159	0xbdc8d8de	-0.09806989
160	0xbc02beb1	-0.007980035
161	0xbe3c2ff4	-0.18377668
162	0xbe1cabf2	-0.15299967
163	0xbe16b2f7	-0.14716707
164	0xbd9401b2	-0.07226886
165	0xbe2c7b15	-0.16843827
166	0xbdf3d535	-0.119059004
167	0xbdd106d9	-0.10206384
168	0xbd54dce3	-0.051968466
169	0xbe2b8221	-0.16748859
170	0xbe02323f	-0.1271448
171	0xbce2b821	-0.02767569
172	0xbe44964a	-0.19197956
173	0xbd6f0bb4	-0.05836077
174	0xbe2f2779	-0.17104901
175	0xbdeff2fb	-0.11716267
176	0xbe3143a1	-0.17310955
177	0x3aabea69	0.0013116124
178	0xbe0fdbce	-0.14048693
179	0x3c761ad5	0.015021046
180	0xbda01a44	-0.0781751
181	0x3c3d248a	0.011544356
182	0xbcfe0713	-0.031009233
183	0xbd2ee28b	-0.042696517
184	0xbe0cc583	-0.1374722
185	0x3b7f539c	0.0038959747
186	0xbdbc94bd	-0.09208057
187	0x3d2aac55	0.041668255
188	0xbdb5a1fa	-0.08868785
189	0xbcfd9ca0	-0.030958474
190	0xbddb1292	-0.106969014
191	0x3c8548f6	0.016270142
192	0xbd83cd82	-0.06435682
193	0xbd9fa86f	-0.07795798
194	0xbcc1b1f6	-0.023644429
195	0x3daa7a2c	0.08324084
196	0x3d0607cf	0.03272229
197	0x3d565922	0.052331097
198	0x3db46520	0.088083506
199	0xbd8b0936	-0.06788866
200	0x3dd8099b	0.10548707
201	0x3d6459be	0.055749647
202	0x3da64e26	0.081203744
203	0xbc1df630	-0.009641215
204	0x3ddbdc07	0.10735326
205	0x3b34abf8	0.0027568322
206	0x3d574340	0.05255437
207	0xbcb82469	-0.0224783
208	0xbd53735f	-0.0516237
209	0x3bc66365	0.006054329
210	0xbe11c1bc	-0.1423406
211	0xbdd3f23b	-0.10348936
212	0xbd3abe3d	-0.04559158
213	0x3d985b3a	0.07439275
214	0xbaca436e	-0.0015431473
215	0xbda220f6	-0.07916443
216	0x3d889743	0.06669476
217	0x3d90f233	0.07077446
218	0xbd1917f7	-0.03737637
219	0xbd960e54	-0.073269516
220	0x3d4c1309	0.04982284
221	0x3db2916a	0.08719142
222	0xbcd0cfc2	-0.025489692
223	0x3cb1d0fd	0.021706099
224	0x3d2a4827	0.041572716
225	0xbe343a83	-0.17600445
226	0xbd5eb727	-0.054373886
227	0xbe20394a	-0.15646854
228	0xbd2bde77	-0.041960206
229	0xbe1a7917	-0.15085255
230	0x3d83a03a	0.06427045
231	0x3c98863c	0.018618695
232	0x3c4db280	0.012554765
233	0x3c61a691	0.013772623
234	0xbd42c8a6	-0.047554635
235	0xbdaa02a1	-0.08301283
236	0xbcf6e185	-0.030136833
237	0xbe0648a5	-0.13113649
238	0x3d6053c7	0.054767396
239	0xbe5e2e32	-0.2169731
240	0x3d01c745	0.03168418
241	0x3dfb71d2	0.12277569
242	0xbd3ad6fe	-0.04561519
243	0xbd3f5574	-0.046712354
244	0xbe136e85	-0.14397629
245	0xbcf1a086	-0.029495489
246	0xbd977a22	-0.07396342
247	0xbdc38032	-0.09545936
248	0xbd33b720	-0.043875813
249	0xbcd4e4a4	-0.02598793
250	0x3cb57a43	0.022153025
251	0x3db272e7	0.08713322
252	0x3d537f35	0.051634986
253	0x3d09eea6	0.03367486
254	0xbd61e87a	-0.055153348
255	0x3db41d08	0.087946

bias f4 [128]
0	0xbe0ecd0d	-0.13945408
1	0xbdc0515d	-0.09390519
2	0xbdb62921	-0.088945635
3	0x3c08f930	0.008360192
4	0xbd19e821	-0.03757489
5	0xbc5f649d	-0.013634828
6	0x3d40beae	0.047056846
7	0xbbd1fb1a	-0.0064081075
8	0xbda6655c	-0.081248015
9	0xbdbd6488	-0.092476904
10	0xbd8c8f2c	-0.06863245
11	0xbd22246a	-0.03958551
12	0xbc73c2a2	-0.014877947
13	0x3cbf84df	0.023378788
14	0x3d748541	0.059697393
15	0xbd9265ac	-0.071482986
16	0xbdcc1ca3	-0.099663995
17	0xbd2334d8	-0.039845318
18	0xbdd323e3	-0.10309579
19	0xbcebec31	-0.028799148
20	0xbc86e728	-0.016467646
21	0xbd5f824e	-0.054567628
22	0xbdcf4250	-0.1012007
23	0xbe1fc2c6	-0.15601644
24	0xbd419512	-0.047261305
25	0xbcbd5734	-0.02311287
26	0x3889af50	6.5653236e-05
27	0xbc410ec4	-0.011783306
28	0xbc06a95d	-0.00821909
29	0x3c58358b	0.013196359
30	0xbe0e31e7	-0.13886224
31	0xbda09d34	-0.07842484
32	0xbe19fdff	-0.15038298
33	0xbbb13a64	-0.005408572
34	0xba7106de	-0.00091944437
35	0xbd086985	-0.033303756
36	0xbd0f8107	-0.03503516
37	0xbd8cd440	-0.06876421
38	0xbba77fbe	-0.0051116636
39	0xbd12c5d5	-0.0358332
40	0xbce7b20f	-0.028283147
41	0x3cfdaf85	0.030967483
42	0xbc251ef0	-0.010078177
43	0xbcc99d85	-0.024611244
44	0x3cc06dae	0.0234898
45	0xbd47bd50	-0.048764527
46	0x3d31bd05	0.043393154
47	0x3c806385	0.015672455
48	0x3c43e526	0.011956489
49	0x3aa07fb8	0.0012245094
50	0xbc6c0716	-0.014405986
51	0xbafb4a54	-0.0019171932
52	0xbdd96158	-0.1061427
53	0xbd5fdb19	-0.054652307
54	0xbbcad854	-0.006190339
55	0x3d04c93b	0.03241847
56	0x3d8bda4c	0.06828746
57	0x3b7a8d72	0.003823128
58	0x3b4f1691	0.0031599144
59	0xbde32bb8	-0.11092323
60	0x3d7b7a10	0.061395705
61	0xbac09845	-0.0014693817
62	0xbdea0870	-0.114273906
63	0xbd964290	-0.073369145
64	0xbc432af8	-0.0119121
65	0x3c5eae51	0.013591365
66	0xbd55abda	-0.052165844
67	0xbd340b33	-0.043955993
68	0x3c4fbfb8	0.012679987
69	0xbd2eeb06	-0.042704605
70	0xbd2920af	-0.041290935
71	0x3da61053	0.08108582
72	0xbd01820f	-0.031618174
73	0xba44e1ea	-0.00075104705
74	0xbceb3cd8	-0.028715536
75	0xbdca6052	-0.09881653
76	0x3cfadcf1	0.030622931
77	0x3c35f348	0.011105366
78	0xbd41fb97	-0.047359075
79	0xbc5bd7be	-0.013418136
80	0x3d669db6	0.05630275
81	0xbd167223	-0.036729943
82	0x3de2943b	0.11063429
83	0x3bc6c675	0.0060661384
84	0xbd90d23a	-0.070713475
85	0x3c55f71d	0.013059405
86	0x3d239347	0.039935376
87	0x3b9ef1a8	0.004850585
88	0xbe0d71a5	-0.13812883
89	0x3afb70df	0.0019183418
90	0xbbccfa19	-0.0062554
91	0xbc536d1e	-0.0129044335
92	0x3d7965a5	0.06088795
93	0xbdd3b351	-0.10336936
94	0xbd30a415	-0.04312523
95	0xbd71b9c9	-0.05901507
96	0xbca075da	-0.019587446
97	0xbc4cc4c9	-0.012498089
98	0x3cd25032	0.025673006
99	0x3d1c8b9a	0.038219072
100	0xbd7b373e	-0.06133198
101	0xbd8ea7a3	-0.06965568
102	0x3c0d8e34	0.008639861
103	0xbb191e49	-0.0023363999
104	0xbbc88c07	-0.006120208
105	0xbcc8558d	-0.024454856
106	0x3d61df0c	0.055144355
107	0xbd3a9e68	-0.045561224
108	0xbc72bf44	-0.014816109
109	0xbd93cfb9	-0.07217354
110	0x3d3ad6d7	0.045615043
111	0xbd19ff7a	-0.037597157
112	0x3d86c5be	0.06580685
113	0xbcfcf2fe	-0.030877586
114	0xbe0c8e86	-0.13726243
115	0x3d2f6cc0	0.04282832
116	0x3d2cdc59	0.042202327
117	0xbc633354	-0.013867218
118	0x3aeae477	0.0017920871
119	0x3ddfe8c0	0.109330654
120	0x3a110014	0.00055313227
121	0xbcdd973f	-0.027049659
122	0xbc3d4659	-0.011552417
123	0xbd94632f	-0.0724548
124	0xbbc7f2dc	-0.006101949
125	0x3d39fcbb	0.04540704
126	0xbdaa270e	-0.0830823
127	0xbdabc0a0	-0.0838635

weight f4 [64, 128]
0	0xbb933b59	-0.004493159
1	0x3c3e9f67	0.011634684
2	0xbd3a44bd	-0.04547571
3	0xbbb27cb5	-0.005446995
4	0xbdf3ac65	-0.11898116
5	0xbd8a32e2	-0.067479864
6	0x3c3b6b3e	0.011439143
7	0xbd18f562	-0.03734339
8	0x3d9ecaff	0.07753562
9	0xbdc65a53	-0.09685197
10	0xbdbb19a4	-0.0913575
11	0xbc7332af	-0.014843627
12	0x3e079b51	0.13242842
13	0xbd332ed5	-0.043745834
14	0x3c43d12f	0.011951729
15	0xbd922b92	-0.07137217
16	0x3cb7e63a	0.022448648
17	0xbd5ee372	-0.054416128
18	0xbda3af09	-0.0799237
19	0xbd270c84	-0.04078342
20	0x3cfb857e	0.030703302
21	0x3cbf50cf	0.023353962
22	0xbce45ad3	-0.02787534
23	0xbd87669c	-0.06611368
24	0xbd7797e2	-0.06044758
25	0x3de25a03	0.110523246
26	0xbdc01064	-0.09378126
27	0xbcc4623a	-0.02397262
28	0xbd34176a	-0.043967642
29	0x395755a8	0.00020535907
30	0xbdc8e4a5	-0.098092355
31	0xbddc8c47	-0.10768943
32	0xbc2675b3	-0.010159898
33	0xbccf2b1b	-0.025289109
34	0x3a4dc79a	0.00078498723
35	0x3d1a06fb	0.037604313
36	0x3d397909	0.045281444
37	0xbd7ead21	-0.062176827
38	0x3c9d3370	0.019189566
39	0xbd52dd24	-0.051480427
40	0xbd068b92	-0.03284795
41	0x3dd4407b	0.10363861
42	0x3d0146fc	0.031561837
43	0xbd22e603	-0.039770138
44	0xbe0794f9	-0.13240422
45	0xbd205f54	-0.039153412
46	0x3ce8c86e	0.028415885
47	0x3d47c0c6	0.048767827
48	0xbab419d9	-0.0013740613
49	0xbca6aa44	-0.02034486
50	0x3bdd9669	0.006762315
51	0xbd9898a8	-0.07450992
52	0xbd853e5c	-0.06506035
53	0x3aab84b5	0.0013085814
54	0xbb0a5443	-0.0021107353
55	0xbdac8866	-0.084244534
56	0xbc842cea	-0.016134698
57	0xbd327d8b	-0.04357676
58	0xbda5db39	-0.08098454
59	0xbd13f43e	-0.0361216
60	0xbe039ab3	-0.12851982
61	0xbca78769	-0.02045031
62	0xbcc87d0d	-0.024473691
63	0xbc17cd24	-0.009265218
64	0x3d6d8bc3	0.057994615
65	0xbe04dcf9	-0.1297492
66	0x3d258504	0.040410057
67	0xbb182ef0	-0.0023221336
68	0xbccad9d3	-0.02476207
69	0x3cf42dde	0.029807027
70	0x3cadba43	0.02120698
71	0xbdbdb84c	-0.092636675
72	0xbdf270e8	-0.118379414
73	0x3b0cac9f	0.0021465195
74	0xbcc884ff	-0.02447748
75	0xbca29339	-0.019845592
76	0x3b73e01e	0.0037212442
77	0x3e0bacff	0.13640212
78	0x3ba72b0a	0.005101566
79	0x3d245c9c	0.04012738
80	0x3d5b1935	0.053490836
81	0x3deb0da2	0.1147721
82	0x3bd685a3	0.0065466925
83	0x3deb367f	0.11485004
84	0xbb1cbab8	-0.0023915004
85	0xbc4d1448	-0.012517042
86	0xbc233d36	-0.009963324
87	0xbe2a2110	-0.16614175
88	0x3cc6ad12	0.024252448
89	0xbbc93da0	-0.0061413795
90	0xbc6cd548	-0.014455147
91	0x3d43dd39	0.047818396
92	0xbc1b2c65	-0.009471034
93	0xbd34f058	-0.044174522
94	0xbd3f5bcb	-0.0467184
95	0x3dc19aff	0.09453391
96	0xbdc7bbb2	-0.09752597
97	0xbd2f9792	-0.042869158
98	0x3ca3046a	0.019899566
99	0xbdb4c0b0	-0.08825815
100	0xbddd9289	-0.10818965
101	0xbe10ab76	-0.14127907
102	0xbd0245b4	-0.031804755
103	0x3cd0b9d1	0.02547923
104	0x3d7b08a1	0.061287526
105	0xbcefbb5b	-0.029264143
106	0x3d284e8a	0.041090526
107	0xbd9e8433	-0.07740059
108	0xbcb5ca54	-0.022191204
109	0xbd620ff9	-0.055191014
110	0xbd489bda	-0.048976757
111	0x3d976a74	0.07393351
112	0xbd65cc43	-0.056103002
113	0xbe03fe67	-0.12890016
114	0x3cc59088	0.02411677
115	0xbe14be08	-0.14525616
116	0xbe01da25	-0.12680872
117	0xbd9aed16	-0.07564752
118	0xbc8ce8a6	-0.01720078
119	0xbc0e9313	-0.008702057
120	0xbc12f03c	-0.008968409
121	0x3d0d00e2	0.03442467
122	0xbd28c645	-0.04120471
123	0xbe03169f	-0.12801598
124	0x3de050b9	0.109528966
125	0x3e094af3	0.13407497
126	0x3d811d91	0.063044675
127	0xbdeb3868	-0.11485368
128	0xbda91227	-0.082554154
129	0xbd716d1c	-0.058941945
130	0x3b227b36	0.0024792678
131	0x3dcb95b1	0.09940661
132	0xbdc599db	-0.09648486
133	0x3cf2e665	0.029650876
134	0x3de8c545	0.11365751
135	0xbd370540	-0.04468274
136	0x3d5e2028	0.054229885
137	0xbd07d54b	-0.033162396
138	0xbd022082	-0.031769283
139	0xbccf2713	-0.025287187
140	0x3d1ce058	0.03829989
141	0x3d8ae4f3	0.0678195
142	0xbd17c04a	-0.037048616
143	0xbdab40c5	-0.08361963
144	0x3d52484d	0.051338483
145	0xbda0c78e	-0.07850562
146	0xbdde2a24	-0.108478814
147	0x3d083064	0.033249274
148	0xbccb915a	-0.024849582
149	0x3b87c1ec	0.0041429903
150	0x3bbadd42	0.0057026455
151	0xbd788342	-0.060672052
152	0xbdbed724	-0.093183786
153	0x3cdbc1dd	0.02682584
154	0x3c3b271e	0.0114229005
155	0xbdd926e9	-0.10603125
156	0xbd92840a	-0.07154091
157	0xbd814042	-0.06311084
158	0xbdda5b8c	-0.106619924
159	0x3c5f309b	0.013622428
160	0xbd0bf0cd	-0.034165192
161	0xbd36d1b2	-0.044633575
162	0x3d8e8986	0.06959824
163	0x3b26e075	0.0025463377
164	0x3d97883f	0.07399034
165	0xbd97a2ce	-0.074040994
166	0x3cfec901	0.031101706
167	0x3ce43782	0.0278585
168	0xbdca1f5d	-0.09869263
169	0x3d4f0284	0.05053951
170	0xbd143882	-0.036186703
171	0xba41ad37	-0.0007388177
172	0xbd7385f6	-0.059453927
173	0xbdb262b1	-0.0871023
174	0xbda6dfdf	-0.08148169
175	0x3d4fea5c	0.050760612
176	0x3ca7f5b3	0.0205029
177	0x3bab078a	0.0052194046
178	0x3d190274	0.037355855
179	0x38ef476e	0.00011409713
180	0x3cf97951	0.030453356
181	0x3c389c77	0.011267773
182	0xbc0e9499	-0.008702421
183	0x3d102bb9	0.035197947
184	0xbd8a7aef	-0.06761729
185	0x3d70e7b3	0.058814716
186	0xbbbc6868	-0.005749751
187	0xbdb388ab	-0.08766302
188	0xbdcbc63b	-0.09949919
189	0x3ce4df26	0.027938437
190	0x3a039061	0.00050187676
191	0xbaca6c0c	-0.0015443577
192	0xbc561410	-0.013066307
193	0xbcd7032b	-0.026246628
194	0xbd10b025	-0.035324235
195	0xbc880198	-0.016602322
196	0x3bb651af	0.0055639367
197	0x3d54bb01	0.051936153
198	0x3d84e838	0.06489605
199	0x3c21a229	0.009865322
200	0xbd8b743d	-0.0680928
201	0x3de663cf	0.11249506
202	0x3d672006	0.056427024
203	0x3dad5f8f	0.08465492
204	0xbd8a8ece	-0.06765519
205	0xbbdb979b	-0.0067014224
206	0xbc6b5dcc	-0.014365625
207	0xbb789df3	-0.0037935942
208	0x3e154411	0.14576747
209	0x3d78cf8f	0.06074482
210	0x3dec8707	0.11549192
211	0xbc86c2d3	-0.016450321
212	0xbbfc0ce6	-0.0076919673
213	0xbd02166e	-0.031759672
214	0xbdacaa18	-0.0843088
215	0xbe12c3c9	-0.14332499
216	0xbd5ff64b	-0.054678243
217	0xbd5d88a7	-0.0540854
218	0x3d9d6207	0.07684713
219	0xbcc8f44e	-0.024530556
220	0x3c4b856d	0.012421948
221	0x3c6dde7c	0.014518376
222	0x3b928dc1	0.004472465
223	0x3d8dd74d	0.06925831
224	0xbd0859e7	-0.033288863
225	0xbd53bbe2	-0.05169285
226	0xbded1087	-0.11575418
227	0xbd0496d2	-0.032370396
228	0x3d8f287e	0.06990145
229	0xbd0d4d1b	-0.03449736
230	0x3c64ffbd	0.013976988
231	0xbc93b258	-0.018029377
232	0xbb0896af	-0.0020841768
233	0xbd53b60e	-0.051687293
234	0x3ca0f926	0.019650053
235	0xbbd354a9	-0.0064493013
236	0xbc167144	-0.009182278
237	0xbd23ee13	-0.040021967
238	0x3d29e31b	0.04147635
239	0x3dbbeadf	0.091756575
240	0xbdec7e00	-0.1154747
241	0xbdc5289d	-0.09626887
242	0xbc0405c7	-0.008058018
243	0xbd3d9276	-0.046282254
244	0xbdc28efa	-0.09499927
245	0x3d7b264b	0.061315816
246	0xbb605811	-0.003423218
247	0x3d4170a0	0.04722655
248	0x3d03c08a	0.03216604
249	0xbdb8753c	-0.09006736
250	0xbd173436	-0.036915027
251	0xbd9b2396	-0.07575147
252	0x3d65fcf5	0.05614944
253	0x3da01f5a	0.0781848
254	0x3dc3652d	0.09540782
255	0x3cb92b8a	0.022603769

bias f4 [64]
0	0x3ca79272	0.020455573
1	0x3cf31e4a	0.029677529
2	0xbc38dcc5	-0.011283104
3	0xbd29cea3	-0.04145683
4	0xbd8066f4	-0.06269637
5	0xbc4a21d6	-0.012337169
6	0xbd68ea00	-0.056863785
7	0xbd91f85d	-0.0712745
8	0xbd866450	-0.06562102
9	0xbc416721	-0.011804373
10	0xbd9a0c91	-0.07521928
11	0xbc46ccdd	-0.012133804
12	0xbb8d5d01	-0.0043140654
13	0x3c653077	0.013988606
14	0xbd04e069	-0.032440577
15	0xbbb79e17	-0.0056035626
16	0xbd9a3745	-0.07530073
17	0x3a45fa94	0.00075522927
18	0xbd3f5a54	-0.046717003
19	0xbdddbf5f	-0.10827517
20	0xbd415b5a	-0.04720626
21	0xbd7e8c27	-0.06214538
22	0x3a948d4f	0.0011333617
23	0xbd64ec69	-0.05588952
24	0xbdcb32ca	-0.099217966
25	0xbd0a8a8d	-0.03382354
26	0x3c5ef366	0.013607835
27	0xbc0f6add	-0.008753506
28	0xbc23a5c7	-0.009988255
29	0xbd90912c	-0.07058939
30	0xbc893a5e	-0.016751464
31	0xbd8fd326	-0.07022695
32	0xbd864b30	-0.0655731
33	0xbcbe4370	-0.023225516
34	0xbdc465e6	-0.09589748
35	0xbcaf6605	-0.021410951
36	0xbda58f33	-0.08083954
37	0xbd8b313f	-0.06796502
38	0xbcbda96b	-0.023152074
39	0xbcc19077	-0.023628457
40	0xbc7f2f79	-0.015575283
41	0xbc3a2ee4	-0.011363719
42	0x3ea1bc41	0.3158894
43	0xbd8ac7d1	-0.06776393
44	0xbd278b3a	-0.04090426
45	0xbeaaaf8a	-0.3333705
46	0xbdefbed7	-0.11706322
47	0xbd99fbb4	-0.07518712
48	0xbdae9d9b	-0.085261546
49	0xbd8a2341	-0.067450054
50	0xbdf6d35a	-0.12052031
51	0xbd393736	-0.04521867
52	0xbdb43f51	-0.08801139
53	0xbda4f0cb	-0.0805374
54	0xbdc88673	-0.09791269
55	0xba4c354b	-0.00077899237
56	0x3c507355	0.01272281
57	0x3e200521	0.15626957
58	0xbdd26a24	-0.10274151
59	0x3b1c0726	0.0023807972
60	0x3b08b904	0.002086223
61	0xbd563f79	-0.052306626
62	0xbbaaea41	-0.0052159135
63	0xbd599247	-0.053118017

weight f4 [1, 64]
0	0x3c00c058	0.007858358
1	0x3c11ae9b	0.008891727
2	0x3b0a63ae	0.0021116543
3	0x3d170edb	0.0368794
4	0x3d935552	0.07194008
5	0x3adc3b63	0.0016802367
6	0xbca0835f	-0.019593893
7	0x3ba3886f	0.0049906294
8	0x3cbde019	0.023178147
9	0x3cf0b402	0.02938271
10	0x3c25c4b1	0.010117696
11	0xbc9c6d9c	-0.019095235
12	0xbd0eaffa	-0.034835793
13	0xbccce85b	-0.02501314
14	0x3d6ee911	0.05832774
15	0x3d958bd5	0.073020615
16	0xbc4c2582	-0.012460114
17	0x3cc82932	0.024433706
18	0x3bf53f0b	0.007484322
19	0xbd1246b2	-0.03571195
20	0xbc86da97	-0.016461654
21	0x3ca84f24	0.02054555
22	0xbcd4c63f	-0.025973437
23	0xbd3204e1	-0.043461684
24	0xbca34694	-0.019931115
25	0xbd4875cb	-0.04894046
26	0x3d20ebd0	0.03928739
27	0x3d003278	0.03129813
28	0xbc0b51ee	-0.00850342
29	0x3d69dec8	0.057097226
30	0x3d97f589	0.07419879
31	0xbd58e93a	-0.052956797
32	0x3910103a	0.00013738955
33	0x3d265cd9	0.04061589
34	0xbd24212e	-0.040070705
35	0xbc8c6c60	-0.017141521
36	0xbcc6a630	-0.024249166
37	0xbd67bec4	-0.056578413
38	0x3d14edd2	0.036359616
39	0x3d0e082b	0.03467576
40	0x3cfa78eb	0.030575236
41	0xbcdf0969	-0.027226167
42	0x3da72e64	0.08163145
43	0x3c695f31	0.014243887
44	0xbd0e7d0e	-0.03478723
45	0xbea50d35	-0.3223664
46	0x3c71c26f	0.014755829
47	0xbcf54c88	-0.02994372
48	0x3d86b1eb	0.06576904
49	0x3d34a133	0.044099044
50	0xbd165fc0	-0.036712408
51	0x3c848bb3	0.016179895
52	0x3cf47d8f	0.029845027
53	0x3afa56e7	0.0019099385
54	0x3c2ad07a	0.010425681
55	0xbb923c36	-0.004462744
56	0x3cc9bad9	0.024625229
57	0x3dd7257a	0.10505195
58	0xbc8b5fc4	-0.017013438
59	0xbbbcd626	-0.005762833
60	0xbce46a1d	-0.02788263
61	0xbaa12b07	-0.0012296148
62	0xbd4e8e76	-0.05042883
63	0xbc01a582	-0.007912995
