app/ml_models/R-GCN_files/model_influential.pt (torch, 10284 bytes, 5 tensors)

weight f4 [6, 7, 16]
000000 7b b2 11 be 16 e5 e4 3e 1b 5f 1d be c7 e1 82 3e
       -0.14228241 0.4470603 -0.15368311 0.2556288
000010 1b 3b e4 be d0 4f 72 bc ab d7 2d be bd ef 9d 3c
       -0.44576344 -0.014789537 -0.16976802 0.019279355
000020 6e 10 a7 3e 3d f1 46 3e 07 60 b1 ba f9 3c 2e be
       0.32629722 0.19427963 -0.0013532647 -0.17015447
000030 08 ca c8 be b0 ad 49 bd 6c ee 43 bd 32 c1 64 be
       -0.39216638 -0.049237907 -0.0478348 -0.22339323
000040 7e 62 16 3f 6d c7 62 be 99 f6 eb 3e 9e f3 78 bd
       0.5874404 -0.22146387 0.46086577 -0.060779206
000050 c2 db 61 3e ad da 09 be 13 76 b1 be 72 f1 b0 3c
       0.22056487 -0.13462324 -0.34660396 0.021599505
000060 8d 6f e6 bd 53 f5 00 3e 65 ff d7 38 da 1e ac be
       -0.112517454 0.12593584 0.0001029957 -0.33617288
000070 93 cb 4a be ed ea f8 be 1e 80 13 be 0b 9c c2 3d
       -0.1980422 -0.48616734 -0.14404342 0.09502419
000080 e2 dc 0b 3f e8 6b 4e 3e 2a f8 b7 3e fa a0 bf 3d
       0.54633915 0.2015835 0.35931522 0.09356876
000090 60 fe 3f 3e 85 2b bf bd a8 a7 d8 3d 10 d6 3e bc
       0.1874938 -0.093344726 0.10578853 -0.011647716
0000a0 6d 18 f1 be fb 19 20 3d 53 c7 0a 37 22 e5 8e 3d
       -0.47088948 0.039087277 8.27185e-06 0.06977297
0000b0 24 8a eb 3e 79 0a ca 3d a2 27 9d 3e 6b 91 00 3e
       0.4600383 0.09865279 0.306943 0.12555473
0000c0 2e 9a 35 3e 0f a0 a7 bc c6 03 2b 3e 7e be 39 3e
       0.17734596 -0.020462064 0.16700658 0.18139073
0000d0 a8 ae 40 3e 75 4c e5 bd fb d6 3b 3d ac 87 d1 bc
       0.18816626 -0.11196224 0.04585932 -0.025577389
0000e0 6d bf f1 be fb 1b 82 3e 91 61 d6 37 5c 5b 14 3e
       -0.4721636 0.25411972 2.555622e-05 0.14487976
0000f0 51 db 0f be f6 41 f4 be 3d a1 00 bf f3 b3 7e be
       -0.14048506 -0.47706574 -0.5024603 -0.24873333
000100 47 84 fe 3e 7f f3 34 bd 5a f1 01 3f 52 81 90 3e
       0.49710295 -0.04417753 0.507589 0.28223664
000110 67 2a 05 bf fc 63 2b be 8f e8 bf 3e e6 e5 11 3c
       -0.52017826 -0.1673736 0.37482116 0.00890491
000120 10 90 ad 3e ea e3 be bd 24 44 8e b9 ff 1f 28 3d
       0.33898973 -0.09320815 -0.0002713512 0.04104614
000130 17 51 12 be 43 84 b6 3e 1e 9f 2b 3d 9d 1e cc 3c
       -0.14288746 0.35647783 0.041899793 0.024916941
000140 19 ab ad bd 52 53 da 3e f6 43 98 3e fc 5f 01 bd
       -0.084799 0.42641693 0.2973935 -0.03158568
000150 64 05 33 3e ad 5b 82 3e 10 6c e8 3e 75 a5 04 3d
       0.17482525 0.25460568 0.45394945 0.032384355
000160 69 63 3e 3e e2 c7 83 3e e0 7c 77 ba 33 3b b9 be
       0.1859261 0.25738436 -0.000944091 -0.36177978
000170 77 01 25 3e ac a4 05 be a7 0c b2 be 16 38 0b bf
       0.1611384 -0.13051099 -0.34775278 -0.54382455
000180 2d 3b 2f 3f ae 78 0f 3e bb 95 a8 bd 3a 3c 40 3e
       0.6844967 0.1401088 -0.08231684 0.18772975
000190 94 cf 11 be db 9e 06 bf 3f 51 9a 3e 6c 40 91 3b
       -0.14239341 -0.52586144 0.3014011 0.0044327285
0001a0 a3 c9 61 be db d2 c0 3e cd 8b eb b9 11 2c 59 be
       -0.22049575 0.3766087 -0.00044926853 -0.21208216
0001b0 5b b5 1c bf 4d d2 ae 3e 43 f6 41 bd 45 b4 d2 bd
       -0.61214226 0.34144822 -0.047353994 -0.1028829
0001c0 95 fa 80 3e c0 f2 eb 3c 44 80 ce 3e 68 83 9a 3e
       0.2519118 0.028802276 0.40332234 0.3017838
0001d0 ac 17 d3 3d 09 91 a9 3e 66 7e 82 be a4 50 1e 3d
       0.103072494 0.33118466 -0.2548706 0.038651124
0001e0 9e fd ab 3e 6f 01 e0 3e 52 48 d8 bc ea b6 e4 be
       0.33591932 0.43751094 -0.026401673 -0.44670802
0001f0 c2 b1 f4 3c aa ca 8c be 3c db 8f be d1 e1 8c 3e
       0.029869918 -0.2749837 -0.2809695 0.27516034
000200 6e 72 b1 be a3 35 4c 3d d7 4d ee 3e 92 de 17 3f
       -0.34657615 0.04985584 0.46543762 0.5932399
000210 ee b1 48 be bd cf 3b bd 4e 8b 51 3e 46 5d 35 bd
       -0.19599125 -0.04585241 0.20463297 -0.044278406
000220 e8 63 9b 3e 9c a3 d4 be e7 f5 97 bb 57 f2 78 be
       0.3034966 -0.41531074 -0.004637468 -0.24311195
000230 10 04 21 be 91 dc 78 3e 4c b4 12 be 52 f5 e1 bd
       -0.15724206 0.2430289 -0.1432659 -0.11033119
000240 ae ca ef be d0 76 d7 3d 36 c5 91 3e 02 44 a0 be
       -0.4683432 0.105207086 0.28470773 -0.31301886
000250 50 4f 5e 3d fe ff 80 3e c3 05 6c 3e 3c 37 4a bb
       0.054274857 0.25195307 0.23049073 -0.0030855676
000260 5b eb 6a 3d 85 74 a5 be e7 63 8c bb 83 1d 33 be
       0.05735336 -0.3231546 -0.00428437 -0.17491727
000270 a3 ce 80 3d ef 02 15 be ba 86 ee be a2 cb 03 bf
       0.06289413 -0.145519 -0.46587163 -0.51482594
000280 b4 4f ab be 66 8c ea 3e 51 a7 f1 be b6 aa 41 be
       -0.33459246 0.4581024 -0.47197965 -0.18912777
000290 0f 31 d0 be 19 e6 df 3b b6 14 d9 bd 61 fb 60 3d
       -0.4066243 0.0068328497 -0.105996534 0.054927234
0002a0 33 0f 29 3e 63 86 d2 be e3 d7 b4 bc 95 3f 05 be
       0.16509704 -0.41118154 -0.022075599 -0.13012536
0002b0 0c 20 41 bf 61 e5 36 3d de da e7 be fb 45 cf bc
       -0.75439525 0.044652347 -0.4528417 -0.025301924
0002c0 bd 79 7f 3d d5 06 a6 be ac 1c 69 be 7d eb 51 3e
       0.062371958 -0.32427087 -0.22764844 0.20499988
0002d0 2a 36 cb bc 5b 9e 71 be 18 d7 d7 be f3 61 2e 3d
       -0.0248061 -0.23595564 -0.4215629 0.04257388
0002e0 16 18 83 bd 90 15 97 3e 57 d3 7d bc ae 6e 9a be
       -0.064010784 0.29508638 -0.015492282 -0.30162567
0002f0 8f e9 2e bf 1b 7d 8f 3d 98 a1 8f be fc e8 07 3e
       -0.6832513 0.07006284 -0.28052974 0.1327247
000300 eb 9a 42 be ea 2e 70 bd 2d 38 0c bf 1c cf fc bd
       -0.19004409 -0.05863849 -0.5477322 -0.123441905
000310 87 0a d0 3e c0 57 ad be de b0 a5 bd de d1 52 3d
       0.40633032 -0.3385601 -0.08090375 0.051469676
000320 5c ab 9e be 26 21 05 bf ee cd 9e bc d7 e7 09 be
       -0.30990112 -0.52003706 -0.019385304 -0.13467346
000330 d7 fb f3 be 1d 1e 2f 3e b6 88 70 3e 16 fe f2 bc
       -0.47653076 0.17101331 0.23489651 -0.029662173
000340 df 3a 77 3e 2a 85 7b be 20 71 ac 3e 09 53 9f 3e
       0.24143551 -0.24562517 0.33680058 0.31118038
000350 f4 b0 51 be 0c a1 bd 3e 1c 4e eb be d7 a1 4a 3d
       -0.20477659 0.37036932 -0.4595803 0.04947075
000360 b8 0c 64 be 83 8a d4 3d db d9 83 bc 06 2c 37 be
       -0.22270477 0.103779815 -0.016095093 -0.17887887
000370 bc 39 bd be f3 37 8c be a3 0a 8c 3e dd ad 96 be
       -0.3695811 -0.27386436 0.27351865 -0.29429522
000380 85 59 69 be de 16 af 3d 44 72 ad 3d f9 33 88 3e
       -0.22788055 0.085492834 0.0846906 0.26602152
000390 6c 20 82 3d c8 48 cc 3e d1 ff 9c 3d 2b 29 a4 3d
       0.0635384 0.39899278 0.076659806 0.08015665
0003a0 50 7f 76 be 1c 61 ef be c9 42 95 38 55 29 59 3e
       -0.24072003 -0.46753776 7.117313e-05 0.21207173
0003b0 7b 6d 08 be 29 7b b7 bc 27 44 65 3e 79 9b 19 3d
       -0.13323013 -0.022397595 0.2238928 0.037501786
0003c0 32 4d 64 3e 44 7e a7 3e c7 0a 8d be e9 c1 ba 3e
       0.22295073 0.3271352 -0.27547285 0.36476067
0003d0 c2 84 72 be 7c ad 7f be 5e d7 13 3f 4a a3 50 3e
       -0.23683456 -0.24968523 0.577505 0.2037479
0003e0 b9 1f 2f 3e e6 a6 39 bd 1b 74 65 b8 b1 0b 4d 3d
       0.17101945 -0.045325182 -5.4705986e-05 0.050059978
0003f0 06 15 42 bf e2 fc 9d be bc cc 03 bf 9f 2b e4 3d
       -0.7581333 -0.30856997 -0.51484275 0.111411326

root f4 [7, 16]
000000 68 dc c1 3d 30 f5 46 3e 4c e1 05 be 06 70 2f 3d
       0.09465867 0.19429469 -0.13074225 0.042831443
000010 4c ff a8 be 99 6f 1c 3e fa 89 11 be 41 b6 a3 bd
       -0.33007276 0.15276946 -0.1421279 -0.079937465
000020 93 80 f3 3d 64 71 25 be fa 74 62 b8 fa d5 39 be
       0.11889758 -0.16156536 -5.399154e-05 -0.18148032
000030 64 d5 2d 3f 43 86 02 3e d9 f3 f1 be 9d 65 bf 3d
       0.67903733 0.1274653 -0.47256353 0.09345553
000040 4a 0a b3 3e 37 92 02 bf fe f4 b2 bd a1 2c 7c be
       0.34968787 -0.51004356 -0.08738135 -0.246264
000050 14 eb 9b 3e 9c 1b 8f 3d 6b f7 a4 3c 53 33 0d 3e
       0.30452788 0.06987688 0.02013751 0.1378911
000060 7c 89 fe 3e 15 f5 db be 7e 29 b4 38 0a 15 06 3f
       0.49714267 -0.4296042 8.5907974e-05 0.52375853
000070 80 64 8b 3d 74 eb e0 3e 95 89 98 3d 34 9e 5b bd
       0.06806278 0.43929636 0.07448117 -0.05361767
000080 ec 80 f3 be 1e 38 fc be 6d 5e b7 be fe e3 93 bd
       -0.47559297 -0.49261564 -0.3581423 -0.072212204
000090 2c 75 8a 3d 17 6a 3b 3e 98 f7 e2 3e b3 d5 de 3d
       0.0676063 0.18302189 0.44329524 0.10880604
0000a0 23 d6 53 be 43 54 d9 bd 42 2a a1 b8 36 3f 38 3f
       -0.20687155 -0.10611775 -7.6849494e-05 0.7197145
0000b0 33 46 be 3e 8a 22 55 be 01 66 b0 3d 81 1f 10 bd
       0.37162933 -0.20813957 0.08613206 -0.035186294
0000c0 87 d4 a7 3e 24 a3 64 3e b0 ea 54 3d 9c a4 43 3e
       0.32779333 0.22327858 0.051981628 0.19105762
0000d0 f5 e2 4f 3d 5a 4e e4 3d 06 60 1c 3e 7e 1c 01 be
       0.050753552 0.11147757 0.15271005 -0.12608525
0000e0 f0 9e f3 3d bd 2a bc 3e ef be dd b8 20 11 90 bc
       0.11895549 0.36751357 -0.00010573665 -0.01758629
0000f0 a0 d3 bf 3e ad d4 da 3e b5 3d 0e 3e 65 d0 91 3e
       0.37466145 0.42740384 0.13890727 0.28479305
000100 65 35 50 3e eb e3 8e be 7c 51 89 3e f5 cb 4b 3d
       0.20332868 -0.27908263 0.2681998 0.049755055
000110 c7 b0 21 be af 61 e9 bd f2 b2 dc 3e ec ea 9c bc
       -0.15790091 -0.11395585 0.43105274 -0.019154988
000120 6b c1 a3 be 2e 08 05 3c b8 d6 a2 b8 cb de bf be
       -0.31983504 0.008119626 -7.7647564e-05 -0.37474665
000130 53 54 04 3e 5e 71 33 bd 94 9a c6 3e bb c4 9b 3d
       0.12922792 -0.043809287 0.3878981 0.07605883
000140 66 bf bb be 77 5a 8d bd 3a b4 7c bd a4 6f 31 be
       -0.36669463 -0.069020204 -0.061695315 -0.17327744
000150 7d 58 f4 be 4a 13 94 be 22 70 eb 3d 38 64 26 3d
       -0.4772376 -0.28920966 0.11495997 0.04062292
000160 41 a6 ca be f2 1f 5c 3c 8e 43 1a b9 66 fd f1 3e
       -0.39579967 0.013435351 -0.0001471175 0.4726364
000170 e2 5c 04 3f ba 9b cb 3e 9a 89 00 bf 53 5f ba 3e
       0.5170423 0.39767247 -0.50209963 0.36400852
000180 3d 48 59 3e 85 b1 c4 be 07 a5 a5 bd d6 07 b1 3e
       0.21218963 -0.38416687 -0.08088117 0.3457629
000190 ac 11 c7 3d 4f f1 58 bd 90 ed 03 3f 8b 84 b9 3b
       0.097201675 -0.052964505 0.51534367 0.0056615523
0001a0 63 d7 91 3e 8f 18 41 bd b5 ed 52 bb ef 93 d9 bd
       0.2848464 -0.04714256 -0.0032185141 -0.10623919
0001b0 46 ab ec 3d 0b 76 bb 3e d2 f7 9f 3d 7b 12 bf be
       0.11556105 0.36613497 0.0781094 -0.37318787

bias f4 [16]
000000 8a 4b c0 3b 58 13 26 bd c7 b2 3a 3c fb 52 91 3c
       0.00586838 -0.04054579 0.011395163 0.017739763
000010 66 d9 a2 bd fc 16 e5 bd d0 1e 11 3d a8 19 44 bc
       -0.07951622 -0.111860245 0.035429776 -0.011969008
000020 b5 db a2 bc c7 02 95 bd d4 4b a9 37 cf 45 d7 3d
       -0.019880155 -0.0727592 2.018168e-05 0.10511362
000030 4a aa 83 3e 39 0c 34 bd f9 36 99 bd c8 ef c1 bd
       0.25715858 -0.04395697 -0.07481188 -0.09469563

weight f4 [6, 16, 1]
000000 5d 1d 04 bf 04 3a 33 bd 06 19 ed be b7 6e 7f 3e
       -0.51607305 -0.0437565 -0.46308154 0.24944578
000010 00 ca 42 be ed 3e 14 bf 33 01 dd be ef 50 a4 be
       -0.1902237 -0.5790852 -0.43164977 -0.32092997
000020 76 57 ed 3e 9c ca c1 be 03 b6 52 38 51 c1 b7 be
       0.4635579 -0.3784989 5.0237413e-05 -0.35889676
000030 6a 28 44 bf 19 24 4e be f0 ac 8b be 57 a2 d2 3e
       -0.76624167 -0.20130958 -0.27280378 0.4113948
000040 6b 17 a1 3e 2b 7e a4 be 93 77 4f bd c6 08 5b 3f
       0.3146318 -0.3212751 -0.050651144 0.8556026
000050 87 a4 85 3e 0d 6f 42 bd 68 d9 ae 3e b0 4a f5 3d
       0.26102087 -0.047469188 0.34150243 0.11977136
000060 b7 5f b5 3d 24 c5 02 3f 18 4a 77 38 88 47 74 3b
       0.08856147 0.5108206 5.8958394e-05 0.0037274081
000070 e9 8f ed be 99 f1 16 3d 1f f5 c1 be 88 ea 21 3e
       -0.46398857 0.0368515 -0.37882325 0.15812123
000080 b7 0d 16 3e e6 64 0b bf 26 65 57 3e 04 79 b0 3d
       0.1465367 -0.54450834 0.21034679 0.08616832
000090 b8 3f a4 3e 5d fb d4 be 25 6b eb be e5 87 38 be
       0.32079864 -0.41598025 -0.45980182 -0.1802059
0000a0 5d 09 71 be 21 0d ff 3e c7 8d d6 b7 ea b0 96 be
       -0.23538728 0.49814704 -2.5576808e-05 -0.2943185
0000b0 15 95 19 3e 4f 8e a2 be 7e 31 d7 be e8 e7 94 3e
       0.14998277 -0.31749198 -0.42029947 0.2908318
0000c0 a6 b5 f2 3e 44 15 b3 3e 07 89 ef bd 5d 2f 58 3f
       0.47404212 0.34977162 -0.11696058 0.8444727
0000d0 1f 27 ae bd 92 76 d6 3e 56 48 af be f8 ea e7 bd
       -0.085035555 0.41887337 -0.34234875 -0.113241136
0000e0 4c 03 c7 be f3 68 c4 3e 53 59 7b 38 9e 12 c5 be
       -0.38869703 0.3836132 5.9926253e-05 -0.38490766
0000f0 30 df d5 3e 57 b4 d7 3e d9 72 f3 3e ed 0e bc be
       0.4177184 0.42129776 0.4754856 -0.36730137
000100 43 92 46 bf ae 23 a5 3e b8 2c 50 3e 6c cd 1e be
       -0.7756693 0.32253784 0.20329559 -0.1550805
000110 b6 0b df bd 2e 64 a2 3e a5 fc 19 bf da 17 c3 bc
       -0.108909056 0.31717056 -0.6015113 -0.023815084
000120 c8 c8 e4 be 0d c4 ef 3e 5b 81 52 b8 78 51 8d 3e
       -0.44684434 0.46829262 -5.0188373e-05 0.27601218
000130 e9 28 ea be 84 df 96 be 8b 08 f6 3e d7 11 15 3e
       -0.45734337 -0.29467404 0.48053393 0.14557587
000140 64 5f 66 be 89 1f c8 be 46 6b f2 3e 95 2a 95 be
       -0.22497326 -0.3908656 0.47347468 -0.2913405
000150 5b b0 c0 3e a0 59 89 be 6d ac 83 be b5 dc 25 3e
       0.3763455 -0.2682619 -0.25717488 0.16197474
000160 b7 44 0d 3f 4a 37 40 3e fe c4 c6 b6 47 1e 06 3f
       0.55182976 0.18771091 -5.9237927e-06 0.5238995
000170 f7 2a 6a be d9 a9 32 be 61 84 1f be 27 29 da be
       -0.22867952 -0.17447604 -0.15577842 -0.42609522

root f4 [16, 1]
000000 be 1f 91 3e 92 fc cb be 3e 25 9e 3d 50 a1 74 3e
       0.2834453 -0.39841133 0.07721947 0.23889661
000010 9b ce 40 3e 29 bd 29 3e 6e a1 02 3f 84 04 0e 3e
       0.18828814 0.16576065 0.5102757 0.1386891
000020 3b 24 8f 3c c5 8d e3 3d ae 91 34 39 32 90 5b be
       0.01747333 0.11111025 0.00017220408 -0.21441725
000030 fb e6 3a bf d8 2c fb 3c 0a 6b 07 bf 70 a8 a4 3d
       -0.730087 0.030661032 -0.52897704 0.080399394
